model.pth (torch, 720266 bytes, 18 tensors)

weight f4 [64, 1]
000000 46 59 43 bf a8 ac 32 be ae 44 6d 3f ea 91 55 bf
       -0.76308095 -0.17448676 0.9268292 -0.8342577
000010 90 53 95 be be ca 25 bf dc 9a 33 3f da b3 0b 3f
       -0.29165316 -0.64762485 0.7015817 0.54571307
000020 60 63 d5 be 9c e4 30 3d d8 70 39 bf cb fd 1e 3f
       -0.4167738 0.04318677 -0.7243781 0.6210601
000030 50 d7 4a be 08 03 3d 3f 20 79 78 bf 60 e3 33 3e
       -0.19808698 0.7383275 -0.9705982 0.17567205
000040 b8 b3 bc 3d 9e b3 1e 3f b7 a0 55 3f cb b4 35 3f
       0.09213966 0.61992824 0.83448356 0.70978993
000050 cf e3 e7 3e 50 89 6f be ae 77 59 3f 1e c6 44 bf
       0.45290992 -0.23392224 0.8494824 -0.768648
000060 ee 5f 60 3f 7b 1e 6c 3f d0 d9 c3 bd 77 48 c0 3e
       0.8764638 0.9223401 -0.09563029 0.37555286
000070 2f 3b f3 3d b0 1e 6f be 4c a9 c9 be 80 75 f0 bc
       0.11876523 -0.2335155 -0.39386976 -0.029352903
000080 00 f1 be be cd bf 5e 3e 85 64 a1 3e 0d 5f 55 3f
       -0.37293243 0.21752854 0.31522003 0.8334816
000090 82 ec 71 bf a7 98 5b 3f 8d 5d f9 3e 57 fe 07 3f
       -0.9450151 0.85779804 0.48704186 0.53122467
0000a0 d0 69 10 3f d1 83 01 3e 59 8d e9 3e 9d 75 58 3e
       0.5641146 0.1264794 0.45615652 0.21138616
0000b0 69 49 29 3f c0 dc 3e bd 5d cf 0d 3f 9a ba 6e bf
       0.6612764 -0.046597242 0.55394536 -0.9325348
0000c0 90 9b 2d bf 80 84 9b be 34 44 21 bf 78 44 5a bf
       -0.67815495 -0.30374527 -0.62994695 -0.85260725
0000d0 27 c8 78 3e c0 d4 ee be 80 75 8a 3e a8 96 69 be
       0.24295102 -0.4664669 0.2704277 -0.22811377
0000e0 e7 c3 d9 3e 8e 0d 6f bf 86 b3 46 bf e3 54 2e 3f
       0.42532274 -0.9338006 -0.7761768 0.68098277
0000f0 70 fd 94 3e 4c 06 7c bf e0 c9 ae 3e f5 f6 d9 3e
       0.29099607 -0.9844711 0.34138393 0.42571226

bias f4 [64]
000000 c8 67 2c 3f e0 4f 07 3d af a2 c5 3f 5c 21 af 3e
       0.6734586 0.03303516 1.5440272 0.3420514
000010 00 3c 48 bf ce 2f 0a 3f 8a 7a 86 be 3b ce d0 3f
       -0.7821655 0.53979194 -0.26265365 1.6312937
000020 d4 7a 4f 3f ed 61 a3 3f 64 02 cd be f3 fe c0 3f
       0.81046796 1.276426 -0.40040886 1.5077804
000030 fc 71 9c 3e 5c e9 e2 bf 36 9b 5e bf 10 ed bb be
       0.30555713 -1.7727466 -0.86955583 -0.36704302
000040 ec 0d 70 bf 40 77 91 bf 7b 61 a8 bf 96 8c f1 3e
       -0.93771243 -1.1364517 -1.3154749 0.4717757
000050 5b b5 64 3e 4e c8 3e 3f ef 95 4a 3f b4 0c 88 3e
       0.22334807 0.7452439 0.7913503 0.26572192
000060 da 82 8f be 03 64 fa bf b2 c7 3d bf c8 c5 2c 3f
       -0.2802952 -1.9561771 -0.74132836 0.6748929
000070 62 22 a7 bf c0 8c 44 be 00 e0 01 ba 60 24 6f bd
       -1.3057368 -0.19194317 -0.0004954338 -0.0583843
000080 68 9a 09 bf 8e 22 ac 3f 63 19 0d 3e 0e 1c 87 bf
       -0.5375123 1.3448045 0.13779216 -1.0555437
000090 40 21 85 3e ae 6e 8d bf 77 43 a5 3f 57 03 9a bf
       0.2600193 -1.1049402 1.2911214 -1.2032269
0000a0 91 80 00 bf b2 47 81 bf 61 d5 29 be f5 95 45 bf
       -0.50196177 -1.0100005 -0.16585304 -0.7718194
0000b0 8a 99 a2 bd c0 7f a2 be 6a 0b f3 bf 8c 65 a5 be
       -0.079394415 -0.3173809 -1.8987858 -0.32304037
0000c0 00 4a 7e bd 88 2b 52 3e 40 0a 11 be f0 07 02 bf
       -0.06208229 0.20524418 -0.14164066 -0.5079336
0000d0 6a 43 b8 3f 7c d4 a9 be 46 2e da be 38 50 73 3f
       1.4395573 -0.33169925 -0.4261343 0.9504428
0000e0 58 04 9b bf 28 6c 27 3e aa 56 72 bf 71 b8 90 3f
       -1.2110701 0.16349852 -0.9466349 1.1306287
0000f0 b0 32 ee bf 4c aa 62 bf a4 16 ac bf 12 1f 28 bf
       -1.8609219 -0.885411 -1.3444409 -0.6567241

weight f4 [64, 64]
000000 60 2c ef 3d d2 48 fa bd f8 14 2e bd 38 4d 8d 3c
       0.11678386 -0.122209206 -0.042500466 0.017248735
000010 bc 58 84 bd ea 18 d1 3d a8 5a 9c 3c 88 5c 42 bd
       -0.06462237 0.1020983 0.019086197 -0.047451526
000020 62 ed 93 bd 3c 42 11 bd 24 6a 4b bd a0 13 b7 3c
       -0.072230116 -0.035463557 -0.04966177 0.022348225
000030 70 d6 3c bd d0 bf 22 bd a8 42 b3 bc 28 45 6b bd
       -0.04610294 -0.039733708 -0.02188237 -0.057439
000040 d8 7e 6a 3d 0e 55 b8 bd 10 ea 88 3d b6 eb 9d bd
       0.057249874 -0.09000598 0.06685269 -0.07710974
000050 4c 88 f0 3d b2 13 f1 bd 54 3b b9 3d 78 62 ab 3c
       0.117447466 -0.11771335 0.09044519 0.020920977
000060 50 93 57 3c 42 85 cd 3d f0 11 13 3d c2 ae 99 bd
       0.013157681 0.100351825 0.03590578 -0.075040355
000070 38 eb aa 3c 16 0f 8c 3d da 9d 94 bd da 2b d2 bd
       0.020864114 0.06838815 -0.0725667 -0.1026227
000080 98 b0 2b 3d 68 91 68 3d 36 f5 eb bd dc 77 9b bd
       0.04191646 0.056779295 -0.1152138 -0.07591221
000090 20 c5 1d 3c a2 e2 e8 bd b6 ec e9 bd 9a 16 d0 bd
       0.009629518 -0.11371352 -0.11422102 -0.10160561
0000a0 f4 16 30 3d 98 d3 de bc b0 92 e4 3d f8 ae 8a 3c
       0.04299064 -0.027200505 0.11160791 0.016929135
0000b0 88 c0 a7 bc ea b2 fc 3d c0 5a 75 bc 04 82 d4 bd
       -0.020477548 0.12338813 -0.01497525 -0.10376361
0000c0 60 73 c5 bc ec d5 26 3d f0 f5 af bc de d0 ea bd
       -0.024102867 0.040731356 -0.021479577 -0.114656195
0000d0 bc c4 eb bd 30 0b c6 3c 24 cb 7a 3d 24 9c 8d 3d
       -0.115121335 0.024175256 0.061228886 0.06914547
0000e0 18 7c 85 bd 2e 5d 9c 3d e8 9d 56 bd d0 e9 2b bd
       -0.0651781 0.0763496 -0.052396685 -0.041971028
0000f0 2c 7a 27 3d 4a 14 81 bd 40 00 a1 3d 80 80 15 bb
       0.040887997 -0.06302698 0.07861376 -0.0022812188
000100 e0 06 5f 3c f6 eb ac 3d e8 2c ce bc 50 17 99 3c
       0.013612479 0.084434435 -0.025167897 0.018687874
000110 12 de e4 3d 10 2e 25 bc 6b 17 fb bc 8e 54 04 3e
       0.11175169 -0.010081783 -0.030650815 0.1292288
000120 4e 88 e6 3d ee d9 0d 3e 80 6b f7 ba b8 a9 29 3e
       0.11256467 0.13852665 -0.0018876642 0.16568649
000130 fe 27 a8 bd 24 6f e4 bd 7c 0e b8 3d e7 06 b6 bb
       -0.08210753 -0.11154011 0.08987138 -0.005555022
000140 69 56 af bd a4 e6 e6 bd 71 fc 9b bd 51 d9 fe 3d
       -0.08561403 -0.1127446 -0.07616509 0.124437936
000150 26 18 c2 3d 00 0b 74 ba e8 a6 57 3d 18 f3 93 bc
       0.09477262 -0.00093095005 0.05264941 -0.018060252
000160 34 41 42 bd 70 05 f0 bc 1a 31 b3 3d fe c4 9d ba
       -0.047425464 -0.029299468 0.087496 -0.0012036858
000170 e9 73 4c be 84 bb 1c 3d 9c 89 a7 3d 04 cc 39 bd
       -0.19966091 0.038264766 0.08180544 -0.04536058
000180 08 fe 90 bc cc a3 66 3d 72 4e ed 3d 7c 58 23 bd
       -0.017699257 0.056308553 0.11587228 -0.039879307
000190 f8 e0 e2 3d 4b ef a1 bd ab 93 f8 3d 0e dd 23 3d
       0.11078066 -0.0790697 0.121375404 0.040005736
0001a0 49 d4 c2 3c bc ac 89 bd 0f 8e 8a 3d 37 c7 d6 bd
       0.023782866 -0.067223996 0.06765377 -0.10487216
0001b0 3e 48 c5 3d 92 05 96 3d 54 70 2b be e4 8f 00 3d
       0.0963292 0.07325281 -0.16742069 0.031387225
0001c0 a0 3f c2 bc 08 92 8d 3d c6 4e 81 bd 34 1e d1 3d
       -0.02371198 0.06912619 -0.06313853 0.10210839
0001d0 c3 4c 18 3e e0 b7 a1 3c 03 66 a1 3d 40 3e fd bd
       0.14873032 0.019740999 0.07880785 -0.12365389
0001e0 fa cc 3a 3d 9e 61 b1 3d 4e fb 98 3d 9f 81 f6 3c
       0.045605637 0.08661197 0.074698076 0.030091105
0001f0 da 84 45 be 64 2a dc bd e5 f1 ef bd 5d ce 80 3c
       -0.1928896 -0.10750273 -0.117160596 0.015723402
000200 18 d3 a1 bd 92 74 db 3d f0 85 c1 bd e0 04 d2 bd
       -0.07901591 0.107155934 -0.09449375 -0.10254836
000210 e8 b6 63 bd 0a b6 99 3d ca 13 fa bc d6 56 eb bd
       -0.055594355 0.07505424 -0.030527014 -0.11491172
000220 a4 e8 c6 3d 52 d8 c9 3d 14 9a c6 bd c7 54 c9 3d
       0.097123414 0.09855713 -0.09697357 0.09830623
000230 78 70 b2 3c c5 81 e1 3d 68 0d 9d bc 8b 25 d1 3d
       0.021782145 0.1101108 -0.019171432 0.10212239
000240 64 a9 1f bd 51 72 11 3d 2c 5f 29 3d a3 d6 b2 3d
       -0.038979903 0.03550941 0.04135053 0.08732345
000250 7d 38 ed bd 92 9c c2 bd 52 5d 27 bb ec af 2e 3d
       -0.1158304 -0.0950252 -0.00255378 0.04264824
000260 9c 2d db 3c 62 d2 c6 bc 22 76 fe 3d cf 64 00 be
       0.026755147 -0.02427024 0.12424876 -0.12538455
000270 22 12 2a bd fc 7b 2f 3d 5a e3 b8 bd 18 20 ad bd
       -0.0415212 0.04284285 -0.09027739 -0.08453387
000280 32 46 91 3d e6 ae 08 3b d4 05 38 3c e1 cd 0e bd
       0.07093467 0.00208562 0.011231858 -0.03486431
000290 b4 b0 19 bd be 19 d6 3c 90 1b d4 3d 76 2a 06 bd
       -0.037522033 0.026135322 0.1035682 -0.032755338
0002a0 6f 00 af bd c2 ca 82 3d 2f 7c a6 3d 4b d0 ee bc
       -0.085450046 0.06386329 0.08129155 -0.029152056
0002b0 77 a4 3a bd 5e 48 a8 bd 18 70 fd bc 5c 19 1a bd
       -0.045567002 -0.08216928 -0.03093724 -0.03762184
0002c0 3c 56 9c bd fa 65 af 3d 80 21 f7 3d d8 0a d5 3d
       -0.076336354 0.08564372 0.120669365 0.10402459
0002d0 56 e3 63 3d 00 58 a7 39 4d 68 48 3d ce 0d 94 bd
       0.055636726 0.00031918287 0.048927594 -0.072291955
0002e0 7e 61 02 bc 58 11 00 3d 2c d9 75 3d 9b 77 6d bd
       -0.007957814 0.03126654 0.060021564 -0.057975393
0002f0 37 c4 8a 3d c4 85 00 3d 11 91 cd 3b a0 4a e2 bd
       0.06775706 0.03137757 0.006273397 -0.1104939
000300 1a 32 94 3d 28 16 5d 3d 0e 9d dd bd 84 e3 80 bd
       0.072361186 0.053976208 -0.108209714 -0.06293395
000310 8a 72 f1 bd 8c 57 22 bd 8e a6 9c 3d ec 1e 8c bd
       -0.11789425 -0.039634272 0.07648955 -0.068418354
000320 dc f0 28 3d 08 39 97 3d 00 07 2d 3d 54 d4 90 bd
       0.041245326 0.07383925 0.042243004 -0.070717484
000330 20 52 9d 3b 40 a0 c6 bb a6 bc 92 bd d0 88 30 bd
       0.00480105 -0.0060615838 -0.07164888 -0.043099225
000340 c8 4d 1b 3d 7e c7 88 3d 00 a0 06 bd ec 10 31 bd
       0.037915975 0.06678675 -0.03286743 -0.04322903
000350 dc c8 70 bd 80 80 f9 3b f0 f3 2c bc 80 35 8a bd
       -0.058785304 0.0076141953 -0.010556206 -0.067484856
000360 b8 ad bc 3c 0a 05 93 bd 6e b8 fd 3d 80 a0 fc 3a
       0.023032054 -0.071786955 0.12388693 0.0019273907
000370 1a d0 ed bd 7a 69 dd 3d 28 a1 13 bd 10 6e de 3d
       -0.11611958 0.10811134 -0.036042362 0.108608365
000380 34 28 d2 3d 20 2e 9f 3c 5e f7 c9 3d be f4 c3 3d
       0.102615744 0.019431174 0.09861635 0.09568165
000390 12 06 b2 3d c0 a6 2b 3d 3c ed 31 3d f4 de 3d bd
       0.08692564 0.041907072 0.043439135 -0.046355203
0003a0 1a 18 b9 bd ec 88 af bd 90 c0 02 bc f4 e8 5f 3d
       -0.090378 -0.08571038 -0.007980481 0.05466552
0003b0 64 ad d7 bd 24 aa 49 bd 40 3d 89 bd a8 f1 16 3d
       -0.105311185 -0.049234524 -0.06701136 0.036851555
0003c0 40 ef f6 3c 10 0f 58 bc 18 1e 9b 3c 88 83 72 3d
       0.03014338 -0.013187185 0.018935248 0.05920747
0003d0 8e 8d 92 bd 12 1d db bd 34 87 2f 3d 44 69 d3 bd
       -0.07155906 -0.10698904 0.04285355 -0.10322812
0003e0 ec 6f 2d 3d 30 a1 64 bc 64 c4 fd 3d 00 84 50 ba
       0.042343065 -0.013954446 0.12390974 -0.000795424
0003f0 1a 84 b1 bd 3c 20 5b 3d 44 d9 ce 3d 70 8a 4d bc
       -0.086677745 0.053497538 0.10100034 -0.012545213

bias f4 [64]
000000 e0 1c 6b bc ac a7 80 3f ae 8f 24 bd 46 f7 96 bd
       -0.014350146 1.0051169 -0.040176086 -0.073713824
000010 4e fd a2 bd b0 62 11 bf 98 85 db bc 3f c5 5b 3f
       -0.0795847 -0.5679121 -0.0267971 0.8584785
000020 a8 e6 fc 3d 1e 8d a0 bd d0 2d 50 bc fc 8e bf bd
       0.12348682 -0.07839416 -0.012706235 -0.09353444
000030 3c 1c 41 be b8 c9 91 3e 2c 63 39 bd 08 f6 3d bd
       -0.18858427 0.28474212 -0.045260593 -0.04637721
000040 1c 6b 40 bd d4 a2 c8 bd 8c 6c 4d 3c 60 1d d3 3e
       -0.046977147 -0.09796682 0.012538087 0.4123335
000050 30 cf e2 bc fd e8 68 3f d6 81 89 bd 94 bf c6 bd
       -0.027686685 0.9098051 -0.06714217 -0.097045094
000060 e4 7f 5e 3e e5 dd b9 3e 38 4a 4d 3f f6 1d 01 3f
       0.21728474 0.36302105 0.80191374 0.5043634
000070 f4 6e c6 3d 68 1b 66 bd 2a ed 88 be 6a de d8 3d
       0.096891314 -0.05617848 -0.26743442 0.10589297
000080 a0 66 c3 bc 98 8c a3 bd 07 f8 31 bd a4 2f c5 3d
       -0.023852646 -0.079858005 -0.043449428 0.09628227
000090 34 94 01 bd e8 10 09 3f 44 ef 33 3f 98 eb 24 bd
       -0.03163548 0.5354142 0.70286965 -0.040263742
0000a0 7a 6a 90 3e de 9e 41 3e e6 95 b1 bc be 26 df be
       0.28206235 0.1890826 -0.021677922 -0.43584245
0000b0 06 55 fa bd a2 dd 91 bd 44 f0 52 bd 25 50 a5 3e
       -0.12223248 -0.07122351 -0.051498666 0.32287708
0000c0 9a 71 b7 3d 30 66 fb bc 3a 74 3f 3f d6 a2 6d 3e
       0.08957215 -0.030688375 0.7478672 0.23206648
0000d0 bb a5 93 3e 04 27 55 3e 60 f7 cd bb 7a 02 de bd
       0.2883738 0.20815665 -0.006285593 -0.10840316
0000e0 6c 18 7e 3d 40 91 2a 3f 1c 75 8b 3c 73 30 f4 bd
       0.06203501 0.66627884 0.017023616 -0.119233035
0000f0 6a 9b 3c 3f 64 97 36 3d 48 da 7a 3d c7 ae 46 3d
       0.73674643 0.04457797 0.061243325 0.048506524

weight f4 [190, 64]
000000 74 e2 b5 bd 61 f8 54 ba 31 97 d1 3d 74 2a a0 3d
       -0.08881083 -0.00081241695 0.102339156 0.07820597
000010 42 3f bf 3d fc 7e bd bc f0 a0 8e 3d cc 69 7a 3c
       0.09338237 -0.02313184 0.0696429 0.015284013
000020 d0 29 9a 3d c0 2c d8 bb 20 6f 97 bb 30 76 9a 3d
       0.07527506 -0.0065971315 -0.0046214014 0.07542074
000030 d0 df de bc 35 4e 3a 3c b8 bb 96 3c 88 24 0a bb
       -0.027206331 0.011371185 0.018400058 -0.0021078903
000040 21 b9 f2 bd 68 3a 34 bd 3c 27 68 3d 40 50 88 3d
       -0.11851717 -0.044001013 0.05667804 0.066559315
000050 08 27 86 bd 41 78 0e bd 8e fa fe 3d c0 5a 5c bc
       -0.06550413 -0.03478265 0.12450133 -0.013449371
000060 7a 1f da bd ea 52 c2 bd 5c 3e a1 b9 20 33 fb 3c
       -0.10650535 -0.09488471 -0.00030754774 0.030664027
000070 37 ca eb 3c f0 af 1e bd 6f e3 a5 bc 68 5c 8e bd
       0.028782947 -0.038742006 -0.02025005 -0.06951219
000080 24 fc df bd 00 3d 45 3a 3c 6d ff bc d4 48 02 be
       -0.10936764 0.00075240433 -0.031180017 -0.12723094
000090 0a 93 f8 3d fe 73 d9 bd cb 00 e2 3c 38 89 a5 bc
       0.121374205 -0.10617827 0.027588269 -0.020207033
0000a0 4b cf 12 bd 10 2b 5b 3d 5a 19 d4 3d a4 ea cf bc
       -0.03584222 0.053507864 0.10356398 -0.02538044
0000b0 65 df a4 3c b4 09 e6 bd 78 28 e9 bc ca 6c 85 bd
       0.020126054 -0.112323195 -0.02846168 -0.065148905
0000c0 80 9f 8c 3d 7c 4e 44 bd ce a4 1e 3d 87 27 1a bc
       0.0686636 -0.04792641 0.03873139 -0.009408838
0000d0 b1 90 07 bd 0b 9d 3f 3c 5c a2 f5 bd 64 d7 14 3d
       -0.033096973 0.011695157 -0.11993858 0.036338225
0000e0 18 88 03 3d a7 3c 32 bc 3c 9a 1b bd 55 18 ce 3d
       0.03211221 -0.010878718 -0.037988886 0.10063235
0000f0 6f b1 c8 3c bd 49 9d 3c 00 50 d8 ba 0d aa 85 3d
       0.02449867 0.0192002 -0.0016503334 0.06526575
000100 50 d1 8c bd f2 6d 77 bb 4e f9 e0 3d 8e 6c f8 3d
       -0.06875861 -0.0037754741 0.10985051 0.1213008
000110 b4 d3 a9 3d a1 fd 60 3b c2 f5 a9 bc 21 29 2e 3d
       0.08292332 0.0034330862 -0.02074707 0.042519692
000120 c4 8e b4 bd 94 9d 4d bd 68 74 a4 3d 14 31 f6 3d
       -0.08816293 -0.050199106 0.08030015 0.1202108
000130 18 35 c8 bc 20 7a a9 3d f8 bc 6c bd 53 77 22 38
       -0.02443938 0.082752466 -0.057797402 3.873494e-05
000140 36 56 96 3d c6 76 f5 bd 34 dd 08 3e cf 40 c3 3c
       0.07340662 -0.11985545 0.13365632 0.023834614
000150 c0 17 5e 3d be 18 e7 3a d8 3c ab 3d 50 74 09 3c
       0.05422187 0.0017631275 0.083612144 0.0083895475
000160 09 93 05 3c bb 82 74 3d fc ff bb ba bb 3a 39 bd
       0.008152732 0.059694987 -0.0014343257 -0.045222025
000170 80 55 ae bd b0 95 c3 bd f5 5e 35 bd 2a 42 c4 3d
       -0.085124016 -0.09550035 -0.04428001 0.09582932
000180 e4 3f e2 bd f0 cb 57 bd dc 45 34 bd a2 99 40 3d
       -0.110473424 -0.052684724 -0.044011936 0.047021516
000190 f0 48 99 bc 28 c5 31 bd db e6 48 3c 60 8e 97 bb
       -0.018711537 -0.043400913 0.0122620715 -0.0046251267
0001a0 1f 73 06 bc f8 07 57 3d 22 4c 9b 3d ee 6a 1a 3b
       -0.008206158 0.052497834 0.075828806 0.002356227
0001b0 f3 22 62 bd 18 30 76 bd 54 80 4c bd 65 03 61 3d
       -0.05520911 -0.06010446 -0.04992707 0.054934878
0001c0 20 40 3a bc 86 ae 87 3d 48 bb 40 3c 52 99 6e 3d
       -0.011367828 0.066250846 0.011763401 0.058251686
0001d0 cf 28 75 bd 48 62 d2 bd 56 0c ef bd 12 41 85 3d
       -0.05985337 -0.10272652 -0.11672275 0.06506552
0001e0 00 db 3d bd 57 28 3e 3c 99 71 93 3d 41 c5 08 3e
       -0.046351433 0.011606297 0.071994014 0.13356496
0001f0 19 8c 8b bc a6 7d 56 3c d0 47 00 3c ef 1d f9 bc
       -0.017034577 0.01309148 0.007829621 -0.030409781
000200 5a a1 bb 3d ff 1d 39 3b d3 da 05 be 6c 53 16 bd
       0.09161635 0.0028246639 -0.13071756 -0.03670065
000210 c4 b8 b4 bd cd 80 61 3c 97 da eb bd dd 4f e5 bb
       -0.08824304 0.013763619 -0.11516302 -0.006998046
000220 58 ca 95 3d 64 17 36 bd 40 d0 82 bd a5 25 b9 bc
       0.07313985 -0.0444559 -0.06387377 -0.022600958
000230 35 e6 b4 bd 32 ed 9e 3c a8 3d b7 bc aa 95 69 3c
       -0.08832971 0.019400213 -0.022368267 0.014256874
000240 89 30 f4 3c 94 fa bd 3d f9 30 b3 3d 10 da 27 bd
       0.0298083 0.092763096 0.08749575 -0.040979445
000250 40 3b 15 3d 02 5b dc bc 7a a4 cb bd d4 80 c2 bd
       0.03643346 -0.026898865 -0.09943481 -0.09497228
000260 95 77 a9 bc a8 28 ad bd 1a c8 8c 3a 15 e9 7d bd
       -0.020686904 -0.0845502 0.0010740787 -0.061989862
000270 42 2e 36 bd 0c 8d 6f bd 04 f1 e8 bc 74 c8 56 3d
       -0.04447771 -0.058484122 -0.028435238 0.05243726
000280 28 dc ac 3d 20 f2 d5 bc cb f7 86 3d be 4f 03 be
       0.08440429 -0.02611643 0.065902315 -0.12823388
000290 dc 4e 3f 3d e1 4d 59 bc 7a fb cb ba 68 2b ce 3c
       0.046706066 -0.013263197 -0.0015562617 0.025167182
0002a0 93 e5 b8 bc 3e 0a 97 3d 5f 2b 30 3d 2a bc 62 bd
       -0.022570407 0.073750004 0.043010112 -0.05535523
0002b0 cf a4 0a be a2 f0 ee bd d6 db e6 3d 69 e0 5f 3d
       -0.13539432 -0.11666991 0.11272399 0.054657374
0002c0 6e dc aa 3d b8 49 48 bd f1 13 40 3d c4 fb 78 bc
       0.08342825 -0.04889843 0.046894018 -0.015196744
0002d0 d8 39 1c bd fe 70 d5 bd ea 5c b9 bd 40 c7 30 bb
       -0.0381411 -0.10421942 -0.09050925 -0.002697423
0002e0 2a 28 cb 3d 5a 90 5a bd e8 45 88 3d 62 fd 20 3d
       0.0991977 -0.05336032 0.066539586 0.039304145
0002f0 fa ef 2a bc b9 5a 1a 3d ac d3 cd bd d1 de 9b 3d
       -0.010433191 0.037684176 -0.10050139 0.07610858
000300 44 dc 9b bd 3c 65 11 bb 01 d4 6a bd 3c 05 9c 3d
       -0.07610372 -0.0022185585 -0.05733109 0.07618186
000310 8e f6 83 bd 5d 9f cd bc ce 18 e8 bc 6c 40 7d 3d
       -0.06443511 -0.025100404 -0.02833214 0.061829016
000320 14 06 2a bd 6a 48 ee 3d 34 c3 bb 3d c8 26 be 3d
       -0.041509703 0.11634906 0.091680914 0.09284741
000330 e6 f3 28 3d 8a 87 7d bd ce 87 db 3d 05 2e a2 bd
       0.041248225 -0.06189684 0.10719262 -0.07918934
000340 98 ab cc 3d 80 9c 63 bb 2c f1 9e bc a8 05 85 3c
       0.099936664 -0.0034730732 -0.01940211 0.016238049
000350 5a fb e3 bd 16 2e e8 39 e2 55 de bd 86 4b 80 bd
       -0.11131926 0.00044284825 -0.108562246 -0.06264405
000360 4d f6 e0 bc ca 18 61 bd 8a 7a 59 ba f4 6c 08 bd
       -0.027461195 -0.05495528 -0.0008296153 -0.03330703
000370 58 e8 fa bd 80 e3 98 3d 69 ee 5a bd 44 09 b1 3d
       -0.12251347 0.07465267 -0.053450022 0.086443454
000380 cc 66 4e 3d f2 77 90 bd 1c 0a 6a 3d 91 e7 c6 bd
       0.050391003 -0.07054128 0.057138547 -0.097121365
000390 e0 66 f7 3c c2 69 48 3d 8a 5a f8 bc 6c 01 57 3d
       0.030200422 0.048928984 -0.03031661 0.05249159
0003a0 30 bc 2d 3d 5c 58 0e 3c f2 65 00 3e bf a1 b9 bc
       0.042415798 0.008688059 0.12538889 -0.022660134
0003b0 a8 84 e0 bd a0 d9 42 3c f8 d6 b5 bd 47 2f 87 bc
       -0.10962802 0.011892706 -0.08878893 -0.016502036
0003c0 50 5c 0d bc 3e e7 f3 3d c4 69 0e bd 99 5c 23 3d
       -0.008627966 0.1190934 -0.034768835 0.03988323
0003d0 b2 69 d1 bc 28 a7 97 bb a2 ac f7 3d 90 ec 75 3c
       -0.025563095 -0.004628081 0.12093474 0.015010014
0003e0 1c 26 a0 bd 04 df c2 b8 4d 9a 71 3d ce da b5 3d
       -0.07819769 -9.292181e-05 0.058985043 0.08879624
0003f0 2a ae 42 3c 31 0e c6 3d 48 f4 1a 3d 59 ff 7f 3d
       0.011882344 0.096706755 0.03783062 0.062499378

bias f4 [190]
000000 7d 21 89 3b 1f 31 a0 3c ca 55 6f bc 19 e6 3c 3c
       0.0041849003 0.019554673 -0.014607856 0.011529469
000010 91 8e 88 bd fa bc b9 3d 82 1f ae 3d ad b5 23 bd
       -0.066678174 0.090692475 0.085021034 -0.03996818
000020 45 20 96 bc 7c 8b 07 3d 5b ba 93 bd 09 10 a5 3d
       -0.018325934 0.033092007 -0.07213279 0.08059699
000030 3e 9a 0c bd 50 9a 25 bd 58 ff 10 bd a3 2a ee 3b
       -0.034326784 -0.040430367 -0.035399765 0.0072682663
000040 3f 45 a4 bd 98 43 4c bc d2 30 01 bd 2d e6 12 3d
       -0.0802102 -0.0124672875 -0.0315407 0.035864044
000050 9c 56 97 bc ba 58 fc bb 27 ee e7 3c e1 b1 74 bd
       -0.018473916 -0.0077010067 0.028311802 -0.05973995
000060 c6 b1 6b bb 11 15 93 3c 87 ce 02 be b0 cc 1b 3d
       -0.0035964116 0.017954381 -0.12774096 0.038037002
000070 4c 57 4c 3c 09 da be bd 23 a2 5e 3c 8c 0c ae 3d
       0.012471985 -0.09318931 0.013588461 0.08498487
000080 02 16 04 3c 2e 89 03 3d f4 e5 97 bd 38 0d 6f 3b
       0.008061888 0.032113247 -0.07416907 0.0036476385
000090 44 d2 f3 ba 59 29 10 3b 2b 0c cf 3d c3 a5 06 3e
       -0.0018602093 0.0021997301 0.10109743 0.1314917
0000a0 34 be e2 3d 4b f4 64 3e 25 62 88 3e aa 9e 9c 3e
       0.110714346 0.22358815 0.26637378 0.305898
0000b0 96 4f 04 3f c1 10 0e 3f fe 31 17 3f 8f f7 12 3f
       0.5168394 0.55494314 0.5906066 0.57408994
0000c0 a2 e3 47 3f a1 7f 3c 3f 52 58 4a 3f 67 90 4f 3f
       0.78081715 0.73632246 0.79041016 0.81079715
0000d0 e8 d1 4e 3f 5b bc 45 3f 5c 6c 67 3f 72 cc 55 3f
       0.8078904 0.7724053 0.9039972 0.83515084
0000e0 78 35 57 3f fb ee 5d 3f e9 ca 54 3f 81 63 4d 3f
       0.8406596 0.8669278 0.83122116 0.80229956
0000f0 37 1d 4c 3f db c8 30 3f 95 bb 56 3f b5 56 47 3f
       0.7973208 0.6905648 0.8387998 0.7786668
000100 98 42 5b 3f af 26 50 3f c7 89 58 3f 1b 27 37 3f
       0.8564849 0.81309026 0.8458523 0.71544045
000110 6a 85 2d 3f ce 4b 24 3f 9f ed 44 3f 98 25 22 3f
       0.677817 0.6417817 0.7692508 0.63338614
000120 56 24 2a 3f 1b 63 32 3f 12 f4 0c 3f 08 88 26 3f
       0.66461694 0.6968247 0.5505992 0.6505132
000130 c3 3d 10 3f 39 b7 f2 3e d0 e3 2b 3f f0 cb 06 3f
       0.5634424 0.47405413 0.6714449 0.52654934
000140 4d cd 16 3f 49 6b 24 3f 7e 6c 03 3f 80 fd 19 3f
       0.58907014 0.64226204 0.5133742 0.60152435
000150 4e 62 2b 3f be 8e 16 3f 22 45 12 3f c0 32 34 3f
       0.66946876 0.5881156 0.5713674 0.7038994
000160 9e 71 44 3f 5e e7 42 3f 5a 79 26 3f 6f 61 36 3f
       0.76735866 0.7613429 0.6502892 0.7124242
000170 ad 88 24 3f 89 f1 38 3f 10 76 49 3f e7 e0 51 3f
       0.6427105 0.72243553 0.78695774 0.819838
000180 4e fb 1d 3f 44 2f 3e 3f 53 cd 48 3f 7a 22 34 3f
       0.61711586 0.7429087 0.784383 0.7036511
000190 9d 24 31 3f 13 0d 3d 3f 10 13 2e 3f 86 7d 45 3f
       0.6919649 0.73848075 0.6799784 0.7714466
0001a0 fd fa 46 3f 1f 5d 19 3f 3a ff 1e 3f 83 45 2c 3f
       0.7772673 0.59907717 0.62108195 0.67293566
0001b0 38 65 5a 3f 1a e9 3a 3f d8 6c 58 3f 6b 1c 3c 3f
       0.853107 0.73011935 0.8454108 0.7348086
0001c0 a2 a1 18 3f 72 c9 36 3f bf b7 2a 3f 2b 95 4d 3f
       0.5962163 0.7140113 0.66686624 0.8030574
0001d0 ec 5f 3f 3f a3 60 42 3f c0 77 3a 3f d1 16 4f 3f
       0.7475574 0.75928706 0.72838974 0.8089419
0001e0 d3 4e 50 3f 26 83 3b 3f a2 49 2c 3f 41 90 20 3f
       0.81370276 0.7324699 0.67299855 0.62720114
0001f0 c3 5a 23 3f 0a 9a 4d 3f 92 4d 3f 3f 59 db 23 3f
       0.63810366 0.8031317 0.7472774 0.6400657
000200 cd 60 33 3f 31 97 34 3f c2 4a 41 3f 74 5d 46 3f
       0.7006958 0.705432 0.75504696 0.7748635
000210 83 d7 4d 3f 0f f5 2d 3f a8 d6 38 3f d2 f7 32 3f
       0.8040697 0.67952055 0.7220254 0.69909394
000220 a3 d1 39 3f 7a c1 43 3f 3d c3 4d 3f b6 c9 29 3f
       0.72585505 0.76467097 0.80376035 0.6632341
000230 f9 66 15 3f c1 3f 41 3f 87 f6 3f 3f 08 14 44 3f
       0.5836025 0.75487906 0.74985546 0.76593065
000240 32 dd 3f 3f 9a e6 11 3f ff 3b 42 3f e2 a3 41 3f
       0.7494689 0.56992495 0.75872797 0.7564069
000250 63 83 13 3f 8b 19 23 3f 72 25 37 3f da 25 2c 3f
       0.57622355 0.6371085 0.7154151 0.67245257
000260 86 db 38 3f 47 9c 12 3f 92 23 3c 3f 7e 6a 38 3f
       0.72209966 0.5726971 0.73491776 0.72037494
000270 fd 79 05 3f a5 51 4e 3f 8f 89 2f 3f d3 da 3d 3f
       0.52139264 0.8059333 0.6856927 0.74162024
000280 07 54 4c 3f 52 23 44 3f 43 69 3a 3f 13 ba 50 3f
       0.79815716 0.76616395 0.72816867 0.81533927
000290 5c c5 25 3f 4d 95 09 3f 57 64 4f 3f 0d 5f 20 3f
       0.6475427 0.5374344 0.8101248 0.62645036
0002a0 f2 46 27 3f 8f cc 2e 3f 38 e4 2a 3f d3 54 43 3f
       0.6534263 0.6828088 0.66754484 0.76301306
0002b0 b1 bb 24 3f 18 9d 3e 3f c1 7f 41 3f 96 92 2e 3f
       0.64348894 0.74458456 0.7558556 0.6819242
0002c0 d9 81 3a 3f 18 5a 36 3f ce e2 3a 3f 53 d2 2f 3f
       0.7285438 0.7123122 0.73002326 0.68680304
0002d0 79 2f 24 3f 3b 90 03 3f 1f 34 1d 3f a4 f8 1b 3f
       0.6413494 0.51391953 0.61407655 0.6092627
0002e0 f5 66 2e 3f d4 06 21 3f c0 be 21 3f 08 72 39 3f
       0.6812585 0.62901044 0.63181686 0.7243962
0002f0 70 7f 2f 3f e7 00 4b 3f
       0.6855383 0.7929825

exp_avg f4 [64, 1]
000000 00 00 00 00 00 00 00 00 0d 16 b8 39 00 00 00 00
       0.0 0.0 0.00035111644 0.0
000010 00 00 00 00 00 00 00 00 83 73 fe ba 2c ee 07 3c
       0.0 0.0 -0.0019413087 0.008296531
000020 00 00 00 00 40 a3 3b 3c 00 00 00 00 46 c2 0d 3c
       0.0 0.011452496 0.0 0.008652275
000030 00 00 00 00 02 2a 03 bc 00 00 00 00 c3 0c 60 38
       0.0 -0.008005621 0.0 5.3417647e-05
000040 9d 50 ff bb b8 11 b4 bb 80 f9 cf bb 3c 0a 10 3c
       -0.0077915923 -0.0054952763 -0.0063468814 0.008791503
000050 f4 78 4a 3b 00 00 00 00 3e 20 a6 3b 00 00 00 00
       0.0030894848 0.0 0.0050697615 0.0
000060 e8 2d e5 b8 5d f2 86 b9 00 00 00 00 16 69 6d 3a
       -0.000109281216 -0.00025739046 0.0 0.00090564915
000070 fc 87 85 bc 00 00 00 00 00 00 00 00 00 00 00 00
       -0.016300194 0.0 0.0 0.0
000080 00 00 00 00 ce 74 da 3b b2 90 d8 3b d0 53 70 bb
       0.0 0.0066667562 0.006609046 -0.003667105
000090 00 00 00 00 da 55 66 bb b8 47 d5 3b ac 73 01 3a
       0.0 -0.0035146386 0.0065087937 0.0004938196
0000a0 db 02 93 ba d6 af 2b bb 7e b1 8d 3b 37 15 9b bb
       -0.0011216061 -0.0026197336 0.0043241372 -0.0047327536
0000b0 0c ac a2 3b 00 00 00 00 8e f7 39 bc 00 00 00 00
       0.0049643572 0.0 -0.011350526 0.0
0000c0 00 00 00 00 00 00 00 00 00 00 00 00 00 00 00 00
       0.0 0.0 0.0 0.0
0000d0 7d 45 2d 3c 00 00 00 00 96 80 17 3b 00 00 00 00
       0.010575649 0.0 0.0023117415 0.0
0000e0 b0 bb c2 3a 00 00 00 00 00 00 00 00 0e f5 fc 3a
       0.0014856961 0.0 0.0 0.0019299106
0000f0 b8 ea 57 bc 00 00 00 00 de 6b 13 bc a3 49 40 38
       -0.01317852 0.0 -0.0089978855 4.5844947e-05

exp_avg_sq f4 [64, 1]
000000 00 00 00 00 00 00 00 00 be 7d 48 39 00 00 00 00
       0.0 0.0 0.00019120329 0.0
000010 00 00 00 00 00 00 00 00 01 8a 0c 39 ad ba 11 3b
       0.0 0.0 0.00013402851 0.0022236512
000020 00 00 00 00 f8 dc 57 3b 00 00 00 00 a0 a0 fa 3a
       0.0 0.0032938104 0.0 0.0019121356
000030 00 00 00 00 0f 3a fa 3a 00 00 00 00 4a f9 20 38
       0.0 0.0019090789 0.0 3.837914e-05
000040 38 f7 b1 3a f6 12 9b 3a 25 35 7d 3a c6 94 01 3b
       0.0013577705 0.0011831212 0.0009659103 0.0019772514
000050 42 0d 14 3a 00 00 00 00 6a a5 76 3a 00 00 00 00
       0.00056477275 0.0 0.0009408804 0.0
000060 c0 40 8f 39 9c 7b bd 39 00 00 00 00 07 6e b8 38
       0.00027323328 0.00036140985 0.0 8.794298e-05
000070 79 31 ee 3b 00 00 00 00 00 00 00 00 00 00 00 00
       0.007269081 0.0 0.0 0.0
000080 00 00 00 00 92 30 ed 3a ec 55 8e 3a 5a 54 ba 39
       0.0 0.001809614 0.0010859347 0.0003553953
000090 00 00 00 00 c8 d0 cb 39 e4 c9 b3 3a aa 12 81 39
       0.0 0.0003887473 0.0013716784 0.00024618703
0000a0 a0 07 9a 39 46 2d e6 39 d4 00 e5 39 14 a4 33 3a
       0.0002937885 0.0004390275 0.000436789 0.00068527577
0000b0 0c c0 54 3a 00 00 00 00 5e 17 49 3b 00 00 00 00
       0.00081157754 0.0 0.0030684094 0.0
0000c0 00 00 00 00 00 00 00 00 00 00 00 00 00 00 00 00
       0.0 0.0 0.0 0.0
0000d0 0e ec 58 3b 00 00 00 00 82 f5 cb 39 00 00 00 00
       0.0033099684 0.0 0.00038902095 0.0
0000e0 7f e6 43 39 00 00 00 00 00 00 00 00 4b 32 03 39
       0.00018682516 0.0 0.0 0.00012511869
0000f0 1b 2a a5 3b 00 00 00 00 d1 ad 05 3b fb 7a 8e 38
       0.0050404198 0.0 0.0020397792 6.7939945e-05

exp_avg f4 [64]
000000 00 00 00 00 00 00 00 00 ef 70 72 37 00 00 00 00
       0.0 0.0 1.4450618e-05 0.0
000010 00 00 00 00 00 00 00 00 c8 e4 e7 b7 ae 86 fa 38
       0.0 0.0 -2.764388e-05 0.00011946015
000020 00 00 00 00 8d 30 41 39 00 00 00 00 ba 17 f0 38
       0.0 0.00018424001 0.0 0.00011448511
000030 00 00 00 00 77 8a 00 b9 00 00 00 00 f1 ee 5e 36
       0.0 -0.00012258613 0.0 3.321966e-06
000040 e8 b4 0c b9 7e 16 8f b8 d6 66 db b8 47 0f 11 39
       -0.00013418833 -6.822961e-05 -0.000104618885 0.00013833969
000050 e6 b7 ef 37 00 00 00 00 14 0c b0 38 00 00 00 00
       2.8576655e-05 0.0 8.394584e-05 0.0
000060 a8 bc 8d 37 28 ae 34 37 00 00 00 00 4e 6c 8c 37
       1.689636e-05 1.0769385e-05 0.0 1.6739734e-05
000070 3e 9c 8e b9 00 00 00 00 00 00 00 00 00 00 00 00
       -0.0002720076 0.0 0.0 0.0
000080 00 00 00 00 e8 13 ec 38 99 e4 c8 38 11 59 80 b8
       0.0 0.00011257065 9.579323e-05 -6.1201055e-05
000090 00 00 00 00 e0 ed 32 b8 f6 89 b7 38 d7 0d 8c b6
       0.0 -4.2660045e-05 8.751817e-05 -4.1739363e-06
0000a0 25 cf 02 b8 a2 d9 e3 b7 d3 29 87 38 d0 15 6b b8
       -3.1187334e-05 -2.7161852e-05 6.445092e-05 -5.604868e-05
0000b0 30 68 8e 38 00 00 00 00 40 cb 32 b9 00 00 00 00
       6.790494e-05 0.0 -0.0001705112 0.0
0000c0 00 00 00 00 00 00 00 00 00 00 00 00 00 00 00 00
       0.0 0.0 0.0 0.0
0000d0 f8 dd 25 39 00 00 00 00 99 fd 9e 37 00 00 00 00
       0.00015818316 0.0 1.8953158e-05 0.0
0000e0 94 09 85 37 00 00 00 00 00 00 00 00 2c 3c db 37
       1.5859296e-05 0.0 0.0 2.6134854e-05
0000f0 7d c0 50 b9 00 00 00 00 dc 30 17 b9 89 c9 91 b6
       -0.00019908133 0.0 -0.00014418684 -4.3447985e-06

exp_avg_sq f4 [64]
000000 00 00 00 00 00 00 00 00 ff b8 f0 33 00 00 00 00
       0.0 0.0 1.12095215e-07 0.0
000010 00 00 00 00 00 00 00 00 6f 09 72 33 4e 63 5b 35
       0.0 0.0 5.6353596e-08 8.1728365e-07
000020 00 00 00 00 cb 05 a8 35 00 00 00 00 7f de 04 35
       0.0 1.2518661e-06 0.0 4.9497606e-07
000030 00 00 00 00 90 9e 33 35 00 00 00 00 19 df 08 32
       0.0 6.6913435e-07 0.0 7.966968e-09
000040 6a 84 0d 35 41 3e b1 34 a1 eb bc 34 ad 52 15 35
       5.271928e-07 3.3014115e-07 3.518917e-07 5.5627135e-07
000050 66 26 ca 33 00 00 00 00 06 75 d6 34 00 00 00 00
       9.4133426e-08 0.0 3.9945752e-07 0.0
000060 14 4d a4 33 50 e2 29 34 00 00 00 00 5e 08 a3 33
       7.6508655e-08 1.5821684e-07 0.0 7.591801e-08
000070 74 59 27 36 00 00 00 00 00 00 00 00 00 00 00 00
       2.4937008e-06 0.0 0.0 0.0
000080 00 00 00 00 9a a1 84 35 c5 80 82 34 91 36 1a 34
       0.0 9.881799e-07 2.430808e-07 1.4362219e-07
000090 00 00 00 00 b2 36 a6 33 2e 34 bb 34 0a 03 a3 33
       0.0 7.7399264e-08 3.486943e-07 7.590832e-08
0000a0 c9 2a 22 34 2d a8 c5 33 19 63 fd 33 6d 4a 43 34
       1.5102991e-07 9.2041184e-08 1.1799256e-07 1.8187866e-07
0000b0 84 dc 29 34 00 00 00 00 f9 8d 96 35 00 00 00 00
       1.5819575e-07 0.0 1.121719e-06 0.0
0000c0 00 00 00 00 00 00 00 00 00 00 00 00 00 00 00 00
       0.0 0.0 0.0 0.0
0000d0 11 52 bd 35 00 00 00 00 1b 6c a3 33 00 00 00 00
       1.4105482e-06 0.0 7.609943e-08 0.0
0000e0 53 e0 90 33 00 00 00 00 00 00 00 00 78 98 a8 33
       6.746327e-08 0.0 0.0 7.8508435e-08
0000f0 e8 b1 d7 35 00 00 00 00 65 fb 31 35 c4 51 d0 32
       1.6070526e-06 0.0 6.6303465e-07 2.425157e-08

exp_avg f4 [64, 64]
000000 00 00 00 00 00 00 00 00 00 00 00 00 00 00 00 00
       0.0 0.0 0.0 0.0
000010 00 00 00 00 00 00 00 00 00 00 00 00 00 00 00 00
       0.0 0.0 0.0 0.0
000020 00 00 00 00 00 00 00 00 00 00 00 00 00 00 00 00
       0.0 0.0 0.0 0.0
000030 00 00 00 00 00 00 00 00 00 00 00 00 00 00 00 00
       0.0 0.0 0.0 0.0
000040 00 00 00 00 00 00 00 00 00 00 00 00 00 00 00 00
       0.0 0.0 0.0 0.0
000050 00 00 00 00 00 00 00 00 00 00 00 00 00 00 00 00
       0.0 0.0 0.0 0.0
000060 00 00 00 00 00 00 00 00 00 00 00 00 00 00 00 00
       0.0 0.0 0.0 0.0
000070 00 00 00 00 00 00 00 00 00 00 00 00 00 00 00 00
       0.0 0.0 0.0 0.0
000080 00 00 00 00 00 00 00 00 00 00 00 00 00 00 00 00
       0.0 0.0 0.0 0.0
000090 00 00 00 00 00 00 00 00 00 00 00 00 00 00 00 00
       0.0 0.0 0.0 0.0
0000a0 00 00 00 00 00 00 00 00 00 00 00 00 00 00 00 00
       0.0 0.0 0.0 0.0
0000b0 00 00 00 00 00 00 00 00 00 00 00 00 00 00 00 00
       0.0 0.0 0.0 0.0
0000c0 00 00 00 00 00 00 00 00 00 00 00 00 00 00 00 00
       0.0 0.0 0.0 0.0
0000d0 00 00 00 00 00 00 00 00 00 00 00 00 00 00 00 00
       0.0 0.0 0.0 0.0
0000e0 00 00 00 00 00 00 00 00 00 00 00 00 00 00 00 00
       0.0 0.0 0.0 0.0
0000f0 00 00 00 00 00 00 00 00 00 00 00 00 00 00 00 00
       0.0 0.0 0.0 0.0
000100 00 00 00 00 00 00 00 00 b0 dd 43 3d 00 00 00 00
       0.0 0.0 0.04781884 0.0
000110 00 00 00 00 00 00 00 00 68 31 10 3d fd e3 ea 3c
       0.0 0.0 0.035203367 0.028673166
000120 00 00 00 00 db 62 49 3b 00 00 00 00 6c b3 04 3d
       0.0 0.0030729088 0.0 0.032397673
000130 00 00 00 00 3d 99 13 3d 00 00 00 00 d9 28 0d 3c
       0.0 0.03603481 0.0 0.008615696
000140 de 92 82 3b 49 c7 f9 3c 19 bc 28 3d 07 29 14 3d
       0.003984793 0.030490534 0.04119501 0.03617194
000150 57 b3 bc 3c 00 00 00 00 64 e5 31 3d 00 00 00 00
       0.023034735 0.0 0.043431655 0.0
000160 dc 5e 34 3d 49 38 39 3d 00 00 00 00 34 19 9f 3c
       0.044035777 0.045219693 0.0 0.019421197
000170 43 7d a6 3b 00 00 00 00 00 00 00 00 00 00 00 00
       0.0050808503 0.0 0.0 0.0
000180 00 00 00 00 c6 22 43 3c 37 5b 83 3c 80 41 29 3d
       0.0 0.011910146 0.016034706 0.04132223
000190 00 00 00 00 cf 21 2e 3d 6b c2 d0 3c 60 0b d5 3c
       0.0 0.04251271 0.02548333 0.0260064
0001a0 6d 69 e6 3c 51 01 ba 3b 25 f1 bb 3c b7 b5 25 3c
       0.028126443 0.0056764265 0.022942135 0.010114125
0001b0 6e 99 08 3d 00 00 00 00 88 3c da 3c 00 00 00 00
       0.033349447 0.0 0.026640192 0.0
0001c0 00 00 00 00 00 00 00 00 00 00 00 00 00 00 00 00
       0.0 0.0 0.0 0.0
0001d0 ac 50 59 3c 00 00 00 00 b2 48 5b 3c 00 00 00 00
       0.013263863 0.0 0.013384031 0.0
0001e0 5a 4e a9 3c 00 00 00 00 00 00 00 00 a0 04 10 3d
       0.020667244 0.0 0.0 0.03516066
0001f0 d2 83 5b 3c 00 00 00 00 5a 71 85 3c e6 68 ac 3c
       0.013398128 0.0 0.016289402 0.021046113
000200 00 00 00 00 00 00 00 00 04 00 00 00 00 00 00 00
       0.0 0.0 6e-45 0.0
000210 00 00 00 00 00 00 00 00 04 00 00 00 04 00 00 00
       0.0 0.0 6e-45 6e-45
000220 00 00 00 00 04 00 00 00 00 00 00 00 04 00 00 00
       0.0 6e-45 0.0 6e-45
000230 00 00 00 00 04 00 00 00 00 00 00 00 04 00 00 00
       0.0 6e-45 0.0 6e-45
000240 04 00 00 00 04 00 00 00 04 00 00 00 04 00 00 00
       6e-45 6e-45 6e-45 6e-45
000250 04 00 00 00 00 00 00 00 04 00 00 00 00 00 00 00
       6e-45 0.0 6e-45 0.0
000260 04 00 00 00 04 00 00 00 00 00 00 00 04 00 00 00
       6e-45 6e-45 0.0 6e-45
000270 04 00 00 00 00 00 00 00 00 00 00 00 00 00 00 00
       6e-45 0.0 0.0 0.0
000280 00 00 00 00 04 00 00 00 04 00 00 00 04 00 00 00
       0.0 6e-45 6e-45 6e-45
000290 00 00 00 00 04 00 00 00 04 00 00 00 04 00 00 00
       0.0 6e-45 6e-45 6e-45
0002a0 04 00 00 00 04 00 00 00 04 00 00 00 04 00 00 00
       6e-45 6e-45 6e-45 6e-45
0002b0 04 00 00 00 00 00 00 00 04 00 00 00 00 00 00 00
       6e-45 0.0 6e-45 0.0
0002c0 00 00 00 00 00 00 00 00 00 00 00 00 00 00 00 00
       0.0 0.0 0.0 0.0
0002d0 04 00 00 00 00 00 00 00 04 00 00 00 00 00 00 00
       6e-45 0.0 6e-45 0.0
0002e0 04 00 00 00 00 00 00 00 00 00 00 00 04 00 00 00
       6e-45 0.0 0.0 6e-45
0002f0 04 00 00 00 00 00 00 00 04 00 00 00 04 00 00 00
       6e-45 0.0 6e-45 6e-45
000300 00 00 00 00 00 00 00 00 00 00 00 00 00 00 00 00
       0.0 0.0 0.0 0.0
000310 00 00 00 00 00 00 00 00 00 00 00 00 00 00 00 00
       0.0 0.0 0.0 0.0
000320 00 00 00 00 00 00 00 00 00 00 00 00 00 00 00 00
       0.0 0.0 0.0 0.0
000330 00 00 00 00 00 00 00 00 00 00 00 00 00 00 00 00
       0.0 0.0 0.0 0.0
000340 00 00 00 00 00 00 00 00 00 00 00 00 00 00 00 00
       0.0 0.0 0.0 0.0
000350 00 00 00 00 00 00 00 00 00 00 00 00 00 00 00 00
       0.0 0.0 0.0 0.0
000360 00 00 00 00 00 00 00 00 00 00 00 00 00 00 00 00
       0.0 0.0 0.0 0.0
000370 00 00 00 00 00 00 00 00 00 00 00 00 00 00 00 00
       0.0 0.0 0.0 0.0
000380 00 00 00 00 00 00 00 00 00 00 00 00 00 00 00 00
       0.0 0.0 0.0 0.0
000390 00 00 00 00 00 00 00 00 00 00 00 00 00 00 00 00
       0.0 0.0 0.0 0.0
0003a0 00 00 00 00 00 00 00 00 00 00 00 00 00 00 00 00
       0.0 0.0 0.0 0.0
0003b0 00 00 00 00 00 00 00 00 00 00 00 00 00 00 00 00
       0.0 0.0 0.0 0.0
0003c0 00 00 00 00 00 00 00 00 00 00 00 00 00 00 00 00
       0.0 0.0 0.0 0.0
0003d0 00 00 00 00 00 00 00 00 00 00 00 00 00 00 00 00
       0.0 0.0 0.0 0.0
0003e0 00 00 00 00 00 00 00 00 00 00 00 00 00 00 00 00
       0.0 0.0 0.0 0.0
0003f0 00 00 00 00 00 00 00 00 00 00 00 00 00 00 00 00
       0.0 0.0 0.0 0.0

exp_avg_sq f4 [64, 64]
000000 00 00 00 00 00 00 00 00 00 00 00 00 00 00 00 00
       0.0 0.0 0.0 0.0
000010 00 00 00 00 00 00 00 00 00 00 00 00 00 00 00 00
       0.0 0.0 0.0 0.0
000020 00 00 00 00 00 00 00 00 00 00 00 00 00 00 00 00
       0.0 0.0 0.0 0.0
000030 00 00 00 00 00 00 00 00 00 00 00 00 00 00 00 00
       0.0 0.0 0.0 0.0
000040 00 00 00 00 00 00 00 00 00 00 00 00 00 00 00 00
       0.0 0.0 0.0 0.0
000050 00 00 00 00 00 00 00 00 00 00 00 00 00 00 00 00
       0.0 0.0 0.0 0.0
000060 00 00 00 00 00 00 00 00 00 00 00 00 00 00 00 00
       0.0 0.0 0.0 0.0
000070 00 00 00 00 00 00 00 00 00 00 00 00 00 00 00 00
       0.0 0.0 0.0 0.0
000080 00 00 00 00 00 00 00 00 00 00 00 00 00 00 00 00
       0.0 0.0 0.0 0.0
000090 00 00 00 00 00 00 00 00 00 00 00 00 00 00 00 00
       0.0 0.0 0.0 0.0
0000a0 00 00 00 00 00 00 00 00 00 00 00 00 00 00 00 00
       0.0 0.0 0.0 0.0
0000b0 00 00 00 00 00 00 00 00 00 00 00 00 00 00 00 00
       0.0 0.0 0.0 0.0
0000c0 00 00 00 00 00 00 00 00 00 00 00 00 00 00 00 00
       0.0 0.0 0.0 0.0
0000d0 00 00 00 00 00 00 00 00 00 00 00 00 00 00 00 00
       0.0 0.0 0.0 0.0
0000e0 00 00 00 00 00 00 00 00 00 00 00 00 00 00 00 00
       0.0 0.0 0.0 0.0
0000f0 00 00 00 00 00 00 00 00 00 00 00 00 00 00 00 00
       0.0 0.0 0.0 0.0
000100 00 00 00 00 00 00 00 00 fe 22 80 3d 00 00 00 00
       0.0 0.0 0.06256674 0.0
000110 00 00 00 00 00 00 00 00 53 d6 0c 3d b2 1f b7 3c
       0.0 0.0 0.034384083 0.02235398
000120 00 00 00 00 b9 09 8c 39 00 00 00 00 f8 00 e9 3c
       0.0 0.00026710125 0.0 0.028442845
000130 00 00 00 00 b8 ec 10 3d 00 00 00 00 e0 6d 15 3b
       0.0 0.035382003 0.0 0.0022801086
000140 ac 8e 01 3a a2 ed cf 3c 61 8f 3e 3d 3a 50 11 3d
       0.0004942219 0.025381867 0.046523456 0.0354769
000150 55 e8 6d 3c 00 00 00 00 ac 24 52 3d 00 00 00 00
       0.014520724 0.0 0.051304504 0.0
000160 e8 db 59 3d 5f b5 63 3d 00 00 00 00 3a d1 2d 3c
       0.053188235 0.05559289 0.0 0.0106089655
000170 ef 49 3b 3a 00 00 00 00 00 00 00 00 00 00 00 00
       0.0007144501 0.0 0.0 0.0
000180 00 00 00 00 76 00 80 3b f8 7c e5 3b 85 6f 40 3d
       0.0 0.003906305 0.007003423 0.046981353
000190 00 00 00 00 2d c5 4b 3d 84 c9 90 3c 83 cb 98 3c
       0.0 0.04974859 0.017674215 0.01865173
0001a0 e3 00 b2 3c fb e4 71 3a b3 6f 6a 3c e9 e8 3e 3b
       0.021728938 0.0009227541 0.014308858 0.0029130524
0001b0 ae f1 f7 3c 00 00 00 00 92 57 9f 3c 00 00 00 00
       0.030266609 0.0 0.019450936 0.0
0001c0 00 00 00 00 00 00 00 00 00 00 00 00 00 00 00 00
       0.0 0.0 0.0 0.0
0001d0 5c 4c 9d 3b 00 00 00 00 49 06 a2 3b 00 00 00 00
       0.0048003625 0.0 0.004944597 0.0
0001e0 0e 4b 40 3c 00 00 00 00 00 00 00 00 d6 6a 0b 3d
       0.011736644 0.0 0.0 0.034037434
0001f0 06 64 a1 3b 00 00 00 00 22 03 f0 3b ef 6c 4b 3c
       0.004925254 0.0 0.007324592 0.0124161085
000200 00 00 00 00 00 00 00 00 c6 85 5d 37 00 00 00 00
       0.0 0.0 1.3203773e-05 0.0
000210 00 00 00 00 00 00 00 00 d5 1f 05 37 fe 0f 92 36
       0.0 0.0 7.934829e-06 4.353001e-06
000220 00 00 00 00 e8 23 11 34 00 00 00 00 f8 c3 ce 36
       0.0 1.351724e-07 0.0 6.162092e-06
000230 00 00 00 00 09 92 fe 36 00 00 00 00 30 77 48 35
       0.0 7.5867906e-06 0.0 7.4679247e-07
000240 dd 14 bc 34 1b 7a be 36 eb 0b 2d 37 ab db fa 36
       3.503291e-07 5.676656e-06 1.0314378e-05 7.4761533e-06
000250 eb 97 4d 36 00 00 00 00 49 83 31 37 00 00 00 00
       3.0635808e-06 0.0 1.0580589e-05 0.0
000260 9f 7d 4a 37 6c 12 44 37 00 00 00 00 8a 6f 3d 36
       1.2069387e-05 1.16868e-05 0.0 2.822812e-06
000270 a3 7d dc 33 00 00 00 00 00 00 00 00 00 00 00 00
       1.02674015e-07 0.0 0.0 0.0
000280 00 00 00 00 df d7 36 35 96 af c6 35 56 76 32 37
       0.0 6.811442e-07 1.4803252e-06 1.0637179e-05
000290 00 00 00 00 fc e1 36 37 dd 8f 81 36 76 8d 94 36
       0.0 1.0900661e-05 3.8612475e-06 4.427212e-06
0002a0 22 56 ab 36 a2 a7 80 34 d1 e2 5b 36 88 56 6d 35
       5.1062243e-06 2.3963827e-07 3.2765568e-06 8.84153e-07
0002b0 c0 1e d6 36 00 00 00 00 03 12 87 36 00 00 00 00
       6.3812768e-06 0.0 4.0254104e-06 0.0
0002c0 00 00 00 00 00 00 00 00 00 00 00 00 00 00 00 00
       0.0 0.0 0.0 0.0
0002d0 6f 92 71 35 00 00 00 00 69 2a ba 35 00 00 00 00
       8.9992585e-07 0.0 1.3870423e-06 0.0
0002e0 e7 e5 34 36 00 00 00 00 00 00 00 00 14 10 00 37
       2.695591e-06 0.0 0.0 7.633138e-06
0002f0 77 69 90 35 00 00 00 00 3e f5 fa 35 8e da 4c 36
       1.075953e-06 0.0 1.8697826e-06 3.0525584e-06
000300 00 00 00 00 00 00 00 00 00 00 00 00 00 00 00 00
       0.0 0.0 0.0 0.0
000310 00 00 00 00 00 00 00 00 00 00 00 00 00 00 00 00
       0.0 0.0 0.0 0.0
000320 00 00 00 00 00 00 00 00 00 00 00 00 00 00 00 00
       0.0 0.0 0.0 0.0
000330 00 00 00 00 00 00 00 00 00 00 00 00 00 00 00 00
       0.0 0.0 0.0 0.0
000340 00 00 00 00 00 00 00 00 00 00 00 00 00 00 00 00
       0.0 0.0 0.0 0.0
000350 00 00 00 00 00 00 00 00 00 00 00 00 00 00 00 00
       0.0 0.0 0.0 0.0
000360 00 00 00 00 00 00 00 00 00 00 00 00 00 00 00 00
       0.0 0.0 0.0 0.0
000370 00 00 00 00 00 00 00 00 00 00 00 00 00 00 00 00
       0.0 0.0 0.0 0.0
000380 00 00 00 00 00 00 00 00 00 00 00 00 00 00 00 00
       0.0 0.0 0.0 0.0
000390 00 00 00 00 00 00 00 00 00 00 00 00 00 00 00 00
       0.0 0.0 0.0 0.0
0003a0 00 00 00 00 00 00 00 00 00 00 00 00 00 00 00 00
       0.0 0.0 0.0 0.0
0003b0 00 00 00 00 00 00 00 00 00 00 00 00 00 00 00 00
       0.0 0.0 0.0 0.0
0003c0 00 00 00 00 00 00 00 00 00 00 00 00 00 00 00 00
       0.0 0.0 0.0 0.0
0003d0 00 00 00 00 00 00 00 00 00 00 00 00 00 00 00 00
       0.0 0.0 0.0 0.0
0003e0 00 00 00 00 00 00 00 00 00 00 00 00 00 00 00 00
       0.0 0.0 0.0 0.0
0003f0 00 00 00 00 00 00 00 00 00 00 00 00 00 00 00 00
       0.0 0.0 0.0 0.0

exp_avg f4 [64]
000000 00 00 00 00 e2 5f 31 3a 04 00 00 00 00 00 00 00
       0.0 0.0006766302 6e-45 0.0
000010 00 00 00 00 04 00 00 00 04 00 00 00 d1 ec 80 b6
       0.0 6e-45 6e-45 -3.8422663e-06
000020 00 00 00 00 00 00 00 00 00 00 00 00 04 00 00 00
       0.0 0.0 0.0 6e-45
000030 04 00 00 00 22 c1 c0 b5 00 00 00 00 04 00 00 00
       6e-45 -1.4361324e-06 0.0 6e-45
000040 04 00 00 00 00 00 00 00 04 00 00 00 04 00 00 00
       6e-45 0.0 6e-45 6e-45
000050 00 00 00 00 90 97 cb b6 00 00 00 00 00 00 00 00
       0.0 -6.0675156e-06 0.0 0.0
000060 04 00 00 00 04 00 00 80 79 17 e3 39 82 44 cd b5
       6e-45 -6e-45 0.00043314302 -1.5293629e-06
000070 04 00 00 00 00 00 00 00 04 00 00 00 00 00 00 00
       6e-45 0.0 6e-45 0.0
000080 00 00 00 00 00 00 00 00 04 00 00 80 04 00 00 00
       0.0 0.0 -6e-45 6e-45
000090 00 00 00 00 5a 41 a8 b6 3e 18 e6 b5 00 00 00 00
       0.0 -5.014398e-06 -1.7143391e-06 0.0
0000a0 04 00 00 00 04 00 00 00 04 00 00 00 04 00 00 00
       6e-45 6e-45 6e-45 6e-45
0000b0 04 00 00 80 00 00 00 00 00 00 00 00 6c 48 08 b6
       -6e-45 0.0 0.0 -2.0307734e-06
0000c0 00 00 00 00 00 00 00 00 44 7f 8a b7 28 dc 57 b5
       0.0 0.0 -1.6510145e-05 -8.041411e-07
0000d0 34 7b f6 b5 04 00 00 80 00 00 00 00 00 00 00 00
       -1.8364285e-06 -6e-45 0.0 0.0
0000e0 00 00 00 00 04 00 00 00 04 00 00 00 04 00 00 00
       0.0 6e-45 6e-45 6e-45
0000f0 17 af b8 b7 04 00 00 00 00 00 00 00 04 00 00 00
       -2.2016042e-05 6e-45 0.0 6e-45

exp_avg_sq f4 [64]
000000 00 00 00 00 77 ad 61 37 b9 8b 61 31 00 00 00 00
       0.0 1.3451433e-05 3.2821232e-09 0.0
000010 00 00 00 00 67 c8 da 33 29 45 80 2d 4c 6c 6e 34
       0.0 1.0187869e-07 1.4582629e-11 2.2204875e-07
000020 00 00 00 00 00 00 00 00 00 00 00 00 c7 58 a1 2a
       0.0 0.0 0.0 2.8660947e-13
000030 d9 b3 ea 32 03 a1 30 33 00 00 00 00 0a 2b c2 2f
       2.732297e-08 4.1124633e-08 0.0 3.5318976e-10
000040 2b ac 1a 2e 00 00 00 00 fe ff a8 30 e2 f7 9d 33
       3.5168462e-11 0.0 1.2296366e-09 7.355972e-08
000050 00 00 00 00 07 4e 96 35 00 00 00 00 00 00 00 00
       0.0 1.119858e-06 0.0 0.0
000060 83 97 ee 31 eb b1 11 32 e5 84 1d 37 d9 83 e8 33
       6.9439365e-09 8.480565e-09 9.388871e-06 1.0827325e-07
000070 08 b6 21 31 00 00 00 00 12 23 cb 32 00 00 00 00
       2.3532056e-09 0.0 2.3648258e-08 0.0
000080 00 00 00 00 00 00 00 00 5c 19 c6 32 e4 40 a0 30
       0.0 0.0 2.3061766e-08 1.1659975e-09
000090 00 00 00 00 13 38 b3 33 e2 e1 2b 34 00 00 00 00
       0.0 8.345537e-08 1.6007792e-07 0.0
0000a0 0e 4f 8b 32 b6 53 32 33 24 6e 91 30 c1 20 70 33
       1.621768e-08 4.151999e-08 1.0581442e-09 5.5909144e-08
0000b0 c1 fa 81 2f 00 00 00 00 00 00 00 00 ed 1d e4 33
       2.3643135e-10 0.0 0.0 1.0622521e-07
0000c0 00 00 00 00 00 00 00 00 d6 3a a9 35 0a 80 04 33
       0.0 0.0 1.2608605e-06 3.0850096e-08
0000d0 3a 14 d1 33 04 3f 55 30 00 00 00 00 00 00 00 00
       9.736e-08 7.75785e-10 0.0 0.0
0000e0 00 00 00 00 08 dc ae 33 2a c9 67 31 a5 45 0d 2a
       0.0 8.14253e-08 3.3729273e-09 1.2547479e-13
0000f0 ec ae ec 35 8b ad 13 33 00 00 00 00 87 b8 c6 32
       1.7634279e-06 3.438394e-08 0.0 2.3134147e-08
