model.pth (torch, 70452 bytes, 6 tensors)

weight f4 [64, 1]
00000000: a1fc 163f 285a c3be 58ab c2be 1668 4dbf
00000010: 995b 2b3f 7c4a c3be c035 a5bc a4f5 6abf
00000020: 2304 b43d f0f1 7cbe 9514 763e 6401 cfbe
00000030: 683d adbe d09c 21be d632 15bf ab68 d23e
00000040: ba06 58bf 8d3c 263e 5e2f 16bf 700f 16be
00000050: 09c5 9b3e b5ec 423f f0a3 75be 7667 74bf
00000060: bd61 e13e 7f48 393f 377e 5e3f d76a 323f
00000070: de6a 183f 562f ce3e f02a 7c3f d5c6 c33d
00000080: 5293 453f 6f31 f93e 8234 283f a691 58bf
00000090: 2c92 f23d e205 29bf f1f9 093f 90f8 833e
000000a0: 96fe d83e 7c80 67bf 0cd2 debe 2cd0 c8be
000000b0: 863d 15bf 48db 1f3f 8afb 403f be02 7a3f
000000c0: f6eb a13e 20fd 3abf acae b3be ec03 20bf
000000d0: dd7a c93c 0856 41be 853b 6a3e 70d4 0fbe
000000e0: 6b45 ee3e 800e a6be 30b2 97be 1c10 aabe
000000f0: 84f3 d4be 80f7 59bd 9a8e 29bf 80de b7bd
0.5897923 -0.3815472 -0.3802135 -0.8023695 0.6693664 -0.38142765 -0.020167232 -0.9178107
0.087898515 -0.24701667 0.24031289 -0.40430748 -0.33835912 -0.15782475 -0.58280694 0.4109548
-0.84385264 0.16234036 -0.58666027 -0.14654326 0.30423763 0.76142436 -0.23988318 -0.9547037
0.4401988 0.72376245 0.8691134 0.69694275 0.59538066 0.4027049 0.9850302 0.095594086
0.7717792 0.48670527 0.6570512 -0.8459724 0.11844286 -0.660246 0.53897005 0.25775576
0.42381734 -0.90430427 -0.43519628 -0.39221323 -0.58297 0.6244397 0.7538382 0.97660434
0.31625336 -0.7304249 -0.35094202 -0.62505984 0.024594719 -0.18880475 0.22874267 -0.14045882
0.46537337 -0.32432938 -0.29628134 -0.33215415 -0.41592038 -0.05321455 -0.6623322 -0.089779854

bias f4 [64]
00000000: daba 64bf e67b 7ebf 3070 8b3d dafd 6e3f
00000010: 5840 bfbd e0e6 01bd 185d f3be 7a26 473f
00000020: 7af5 60bf 6666 60bf 314e 10bf 3428 30bf
00000030: 5c4f 9ebe 66e0 3dbf 2817 72be 4536 2fbf
00000040: 0067 9d3b a845 a1bf 90c1 51be d88e 63bf
00000050: 3958 c7bd 89d5 0abf 3024 3abe 988e 613e
00000060: e455 3dbf 2505 6d3f e6d3 82bf 2c27 683f
00000070: 418a 043f 5f2c 8abf ec05 38bd d9a6 74bf
00000080: 0a51 9bbf 496d cb3e e47e aa3e 1825 a6be
00000090: 99bc 2c3e bab3 4dbf e500 333f 8f06 af3e
000000a0: f289 3abf 983c 4dbe f6ed 123f 001d e1bc
000000b0: 1cf8 333f be45 4ebf a7d5 9bbe 3651 573f
000000c0: 6d78 a13f 60fb d2bd 60af 6a3d deaf 49bf
000000d0: 6c62 0b3f f819 993e 9c7f 053e 1457 283f
000000e0: fc4c 41be 18d8 173f 6c13 9d3e 6ec7 543f
000000f0: 40f6 e1bc d0da db3d cc06 4fbf f273 513f
-0.8934761 -0.99407804 0.068085074 0.93356097 -0.093384445 -0.03171432 -0.47531962 0.77793086
-0.8787457 -0.8765625 -0.5636931 -0.68811345 -0.3091992 -0.7417053 -0.23641646 -0.68442184
0.0048035383 -1.2599382 -0.20483994 -0.8888984 -0.09733624 -0.5423208 -0.18177867 0.22027051
-0.73959184 0.92585975 -1.0220916 0.9068477 0.5177346 -1.0794791 -0.044927523 -0.9556709
-1.2134106 0.39731815 0.33299935 -0.32450175 0.1686882 -0.80352366 0.6992324 0.3418469
-0.7286674 -0.20042646 0.5739435 -0.027479649 0.7030046 -0.8057517 -0.3043644 0.84108293
1.2614876 -0.10301852 0.057296157 -0.7878398 0.54447055 0.29902625 0.1303696 0.6575787
-0.18877023 0.5931411 0.3067888 0.83116806 -0.027583241 0.107350945 -0.80869746 0.81817544

weight f4 [64, 64]
00000000: c653 adbd 204a 6abc 78c3 d13c 3294 92bd
00000010: 1884 82bc 64b4 68bd a0ce 45bd dace f23d
00000020: 5e5d ecbd 280a 813c c0f0 7b3c 0068 4239
00000030: 688a 06bd 3e6c cdbd 00ca c33a 8076 263c
00000040: b469 debd d870 d03c 249d 95bd 0067 573d
00000050: 30f5 c0bd 1050 ac3c 5cce 10bd ce2d d5bd
00000060: a0ab f43c 1049 10bd 6087 d63c 80ca ecbb
00000070: 207e e6bb a8b1 c53c 607f 8a3b 20b0 7e3c
00000080: 44ba ecbd 10c5 42bd b0a1 a2bd de54 f13d
00000090: c8a6 ebbd 509d 93bd 2443 91bd 5884 a3bc
000000a0: e057 243c 4494 bf3d 88da 813c 6c4a 1d3d
000000b0: 48ad c73c ae26 9d3d cc11 5bbd 6c41 393d
000000c0: f01e eb3d 00b8 d5bb 28b6 c83c b00e 67bc
000000d0: 2076 33bc 20c9 b0bc 52d2 cd3d 90ef 9fbc
000000e0: cc3f 2c3d 30a0 1bbc 006e 183d 4455 57bd
000000f0: a835 4bbd 1a31 fdbd 98e5 cabd d404 203d
00000100: eb6d 67bd 4241 a2bd c0ca d93d 68a0 a6bc
00000110: 45d3 6d3d b6ae d6bd 1822 25bd a8d4 e53c
00000120: 0dbb 91bc 6a90 e9bd 6618 57bd e094 62bc
00000130: 4423 943d 203b 7ebd fa39 e6bd 0f0d cebd
00000140: 0c18 8abd bc87 a9bc e8c1 08bd 0af1 9c3d
00000150: 1dd9 97bd fd55 c83d 44ff 6fbd 46e0 f53d
00000160: 40a5 bfbd ea5d 9dbd 43df 813d 2551 ec3d
00000170: 6177 61bd b50b 97bd f969 493d 88c5 633d
00000180: 710a 813d 369c da3d 1d89 c0bc f213 ed3d
00000190: 9ec8 0fbd f0f2 0fbd 17f6 063d 25ad ccbd
000001a0: fa54 8abd 105f 013c 0e72 b03d 0c41 1cbd
000001b0: 6875 babc 8a53 c73d d57d f43b 4198 fd3c
000001c0: b840 d63c b21b f5bd 26c9 96bd f066 ccbd
000001d0: adef 0abe 56a2 8abd 711c abbd 7ca2 c63d
000001e0: f5cf 11bd 4ee1 d93d 823b c03d 0071 41bb
000001f0: e035 b03b 200d 353c 103f 393d ca38 fdbd
00000200: 08e0 723d bc1a f73d e8fc 73bd d00e 993c
00000210: 20dd cdbd d820 2dbd 6c8a 8c3d 48a7 83bd
00000220: 1c12 11bd 383f c13c 60ec a8bd 809d fcba
00000230: 362d ddbd d267 9a3d ac7b 153d 0eb8 9e3d
00000240: e603 eb3d 5eb5 8dbd 50ad 093c b860 8ebd
00000250: 5885 b2bc 14a5 cfbd ee81 c6bd 004a 583a
00000260: 7041 3e3c 2638 9f3d 985d ffbc c88b b23c
00000270: 18ae 90bc 6e43 d3bd 6c5b ffbd a025 e33c
00000280: 1877 c1bc 00a5 d03b 2090 c5bd a693 8ebd
00000290: 1038 39bd fcca 723d 14ad 1abd fa35 9ebd
000002a0: 24a2 1dbd 9293 a6bd c0d4 dabb 7694 f1bd
000002b0: 401f e7bb d032 e73d dcef 853d b0ba 6f3c
000002c0: 20ed 94bd 5e10 f3bd 3c6c 53bd e0dc a4bb
000002d0: 0803 143d 680e 643d b0ed 8cbc a825 523d
000002e0: 18a8 b5bc 3894 9abc 62f6 cfbd 34ac 2f3d
000002f0: 9c1c b6bd e6e1 90bd cc1b 9ebd de8f cc3d
00000300: 004e aa3a 108a 3e3d cc2d 943d f020 613d
00000310: f096 c1bc e0b3 c3bd 9016 74bc 2a2d 823d
00000320: 505e 2bbc 8a95 e23d 88e5 9abd 301c 22bd
00000330: 0c78 f73d a618 8cbd a644 e13d 3add b1bd
00000340: 0afc 96bd 08a9 d23c a64f e7bd 7cd8 8abd
00000350: a208 eebd f05d 27bd 50ea ccbc 9edc e83d
00000360: 7898 0dbd 4003 b6bc 600a 7fbd 0817 08bd
00000370: 7e8c ca3d 6c43 13bd 0885 e43c d66b b7bd
00000380: 10cd 97bd e0b4 b13b 90a4 1abd 2059 023d
00000390: d420 cd3d bc4d 9b3d dca0 68bd d0fd c4bc
000003a0: 1ed4 d03d 669d 90bd 4830 843d eecb 95bd
000003b0: 2a8b d6bd 40ff 0cbc e22a 833d fe6d debd
000003c0: bcbf 25bd 58c4 ad3d 5c63 f83d bed1 873d
000003d0: 48f1 ccbd 8825 8fbd 0ed1 e9bd 048e 573d
000003e0: 98ac cebd a815 043d 0cae dabd 9852 5d3d
000003f0: a048 56bd c07b c0bd 50ab 5f3c 4e1b e3bd
-0.08463244 -0.014299899 0.025605902 -0.07157172 -0.015932128 -0.05681266 -0.048292756 0.1185586
-0.11541246 0.015751913 0.0153772235 0.00018540025 -0.03284684 -0.10030411 0.001493752 0.010160089
-0.10860005 0.025444433 -0.07305363 0.052588463 -0.09421766 0.02103427 -0.03535305 -0.10409127
0.029866993 -0.035225928 0.026187599 -0.0072262883 -0.0070340782 0.024132565 0.00422661 0.015544921
-0.11558965 -0.047551215 -0.07940996 0.11783765 -0.115064204 -0.07207739 -0.07092884 -0.019960567
0.010030717 0.09354451 0.015851274 0.038401052 0.02437462 0.07673393 -0.05348377 0.045228407
0.1148051 -0.0065221786 0.024500921 -0.014102623 -0.010953456 -0.021580279 0.10049881 -0.019523412
0.04205303 -0.009498641 0.03721428 -0.05257155 -0.049611717 -0.12362881 -0.09907073 0.039067104
-0.05650131 -0.07922603 0.106343746 -0.02034016 0.05806281 -0.10482542 -0.040315717 0.028055504
-0.017789388 -0.11404498 -0.052513503 -0.01382944 0.07233289 -0.062068105 -0.11241527 -0.100610845
-0.06742868 -0.020694606 -0.03338805 0.07663162 -0.07414458 0.09782026 -0.05859305 0.120056674
-0.09357691 -0.07683928 0.06341412 0.115389146 -0.05504549 -0.0737528 0.04917333 0.055608302
0.0630082 0.10674326 -0.02350288 0.1157607 -0.035103433 -0.035143793 0.032949533 -0.09993962
-0.06754489 0.0078962 0.08615504 -0.03814797 -0.022761062 0.09732731 0.0074612894 0.03095639
0.026153907 -0.11968173 -0.07362585 -0.09980571 -0.13567992 -0.067692444 -0.08355034 0.0969896
-0.035598714 0.106386766 0.0938635 -0.0029516816 0.005377516 0.0110504925 0.045226157 -0.12364347
0.059295684 0.12065646 -0.059567362 0.018683821 -0.10051942 -0.04226765 0.068623394 -0.06428391
-0.03541766 0.023589715 -0.0824821 -0.0019273013 -0.10799639 0.075393334 0.036494896 0.077499494
0.11475353 -0.06919359 0.008403137 -0.069520414 -0.021792099 -0.10138908 -0.09692751 0.0008250773
0.011612281 0.07774381 -0.031172559 0.021795169 -0.01766114 -0.103155956 -0.12468609 0.027727902
-0.023616359 0.006367326 -0.0964663 -0.069617555 -0.04521948 0.059275612 -0.037762716 -0.07725139
-0.038484707 -0.081336156 -0.006678194 -0.11795895 -0.007053286 0.112889886 0.0653989 0.014631912
-0.072717905 -0.11868356 -0.051616892 -0.005031213 0.036135703 0.0556778 -0.017203182 0.051305443
-0.02217488 -0.018869504 -0.10154416 0.042888835 -0.088921756 -0.07074337 -0.077201456 0.09988378
0.0012993217 0.046518385 0.072352976 0.054963052 -0.023631543 -0.09555793 -0.014897957 0.063562706
-0.010459498 0.110636786 -0.07563311 -0.039577663 0.12083444 -0.06840639 0.10999422 -0.08684774
-0.073722914 0.025715366 -0.112944886 -0.06779572 -0.1162274 -0.04086107 -0.025014073 0.113702044
-0.034569234 -0.022218347 -0.062265754 -0.03322509 0.09890078 -0.03595297 0.027895465 -0.08956115
-0.074121594 0.0054231733 -0.037754595 0.031823277 0.10016027 0.07583186 -0.056794032 -0.024046808
0.10196708 -0.07061271 0.064545214 -0.07314287 -0.10475762 -0.008605778 0.064046636 -0.10860823
-0.040466055 0.08484715 0.12128326 0.06631802 -0.10006958 -0.069895804 -0.11416827 0.05262567
-0.100915134 0.032247216 -0.10677728 0.054033846 -0.052315354 -0.093986034 0.013651684 -0.11089192

bias f4 [64]
00000000: 4442 30bd ec1f 033c 5cfd 29bd 6890 66bd
00000010: 263f 533d 5693 8f3d fa9f 7e3e 90e8 ab3c
00000020: b034 eebc 3c28 983d b020 783d de85 85be
00000030: 526f f3bd d8b1 d3bd 2056 1e3c 2817 0cbe
00000040: 4d7e abbe c807 123e cf4c 8c3e 48f3 bebc
00000050: c0a0 0e3e 402f 0cbb 3a57 9d3d 6496 403d
00000060: 2bb8 483e 145b 05be 74ee 253d d061 923c
00000070: 40ed e63d 1047 f7bc 3115 cf3e 0d92 ab3e
00000080: c5c6 cd3e bc26 07bd 3efa 5a3d 2b55 49be
00000090: 44ab 3cbd 77b1 d13e 7f6d d3be 0e30 ca3e
000000a0: e42b 3d3d ad6c 8dbe 20be efbb 4d15 913d
000000b0: 7446 0c3d 5bc2 263e 20d7 263c b3f3 77be
000000c0: ba79 1e3e f4f1 acbe 5f7b f83e 6aca ff3d
000000d0: e8ae 3cbd 6c4c 483d 387e 713e 303b c23c
000000e0: 4880 a0bc 90b0 773e 5090 823e d255 893e
000000f0: c0c9 0b3d 40cc 9abb 4817 e9bd 68e3 d43d
-0.043031946 0.008003216 -0.041501388 -0.05629006 0.051573895 0.07010524 0.24865714 0.020984918
-0.029077858 0.07429549 0.06057805 -0.26078695 -0.11886467 -0.103366554 0.0096640885 -0.13680708
-0.33494797 0.14260781 0.2740235 -0.023309365 0.13928509 -0.0021390468 0.07682653 0.047018424
0.19601505 -0.13023025 0.04051061 0.017868906 0.112757206 -0.030185252 0.40445855 0.33509865
0.40190712 -0.032995924 0.053461306 -0.19661395 -0.04606177 0.40955707 -0.41294476 0.39489788
0.046184435 -0.27621976 -0.007316366 0.07084141 0.034246877 0.16285078 0.010183126 -0.24214058
0.15476122 -0.33778346 0.48531625 0.12489779 -0.04606524 0.048901007 0.23583305 0.023709863
-0.01959242 0.24188447 0.25500727 0.26823288 0.03412795 -0.0047240555 -0.11381394 0.10394937

weight f4 [190, 64]
00000000: 4095 8ebd 2a23 04be 8638 e33d d44f 45bd
00000010: 59d7 1e3d 9476 e5bd 3905 71bc ca22 e8bd
00000020: 88c7 febd f422 5ebd d460 593d 4c93 fc3b
00000030: f4ab 3d3d 6089 a03d 9e59 bd3d fbfb b53b
00000040: acfd cabd 2a28 4abd e6ae a0bd 80e8 08bb
00000050: b387 0cbe e45c 32bd 2891 b7bc e207 e93d
00000060: d46a 813d bf76 12bc b07b 10bc f618 bcbd
00000070: acaa cabd 4043 4dbc 1fa5 303c bdcd 2ebd
00000080: fea2 a5bd d8b0 183d db54 f9bd 2612 f1bc
00000090: ba4b dc3d 6622 a13d 19e9 bb3d ab66 c63d
000000a0: 408d 66bd 45a2 aa3d 166f e6bd 50d8 283d
000000b0: 68de cb3c fb2e 01bc 5e67 debd 996d 40bd
000000c0: 3a97 8c3d 1557 c33d 9649 c6bc 5efd bf3d
000000d0: 784f 083d 3059 473d 19f2 863c 80b0 95bc
000000e0: 1625 abbd 0a2d bb3c 77de 0c3d 0c5e 393d
000000f0: 44c0 d9bd f426 0dbd 5e08 e13d 5889 d33d
00000100: 1c19 603d 3db4 9e3d 00d0 2d3a 5659 94bd
00000110: 7d45 553b e466 383d 4942 eb3c e813 b43d
00000120: 5854 f4bd ac23 813d 346e 8f3d dd1e 403d
00000130: 009f 693a 686c 8c3d f8fe 57bd 19d7 783c
00000140: 4a48 9d3c 5e8d 66bc 1fff 6d3d c4eb 4cbd
00000150: 271b cfbc f4ce 7e3d fea8 d1bd 68cb 293d
00000160: 503e 78bc c485 a33b 7483 603d 24bc 033d
00000170: 4001 debc e42d 2e3d bf15 76bc e6d6 383d
00000180: fa63 3abc d492 dc3d 163b 4abd 8946 343d
00000190: 28b7 5abd 8463 15bc a801 b1bc baf4 99bd
000001a0: f8a4 523d 0ca1 3bbd cc49 453d 0229 7fbd
000001b0: 9090 303d df29 d5bd 581b ddbd 7e79 44bd
000001c0: 8fea d63d 4574 debd 544e f43a dce7 5a3c
000001d0: fa8e cebd 3441 53bd b4e6 6ebc e4be 173d
000001e0: 08b4 fbbd a7bd 473d 3e6e b5bb 4652 74bd
000001f0: a8aa c9bd e2e6 b4bd 8eef c6bd a4c5 4e3d
00000200: 1882 993d 367c 21bd d45c c23d d086 5ebc
00000210: 4fd5 8d3d 2cf3 cabd 2f7b e2bc a84c b03c
00000220: f28d d0bd 8850 853d 0cda 8f3d e5b2 da3d
00000230: 8abe df3d d8db 90bd d8c7 7bbd 6f7f 0abd
00000240: dacd b4bd fef8 ed3d 2e3e c2bd 92f2 c73d
00000250: 5054 65bd bc99 553d c427 b33d 946b 763d
00000260: 6a81 40bc 8c90 733d a846 913c 20e6 bebc
00000270: 20aa 48bc c4e0 febd 510a cc3c c170 d43c
00000280: f9dc 81bd 481d 1bbd 594f e53d f1a1 e2bd
00000290: c8b3 ed3c 9523 b5bd 8bc7 73bd 75da 3dbc
000002a0: 1a5f 83bd 9767 1f3c b0a4 253d f72a c93d
000002b0: c46c 363d ee6e 13bd c425 e63d c004 b1bd
000002c0: d3f5 ea3d 7750 c13d cc2a f23b eb9f 4abd
000002d0: a0e3 c43d 58c2 dc3d 07f4 9dbd 8069 1c3c
000002e0: 40ac bcbd 8558 593d d9d5 3bbc 39d1 70bd
000002f0: 54c6 c83d d461 b6bd 5493 1fbd 2c82 2d3d
00000300: c037 afbd ec0b 993d 466a f23d e4df 3bbd
00000310: 01a6 bf3d 6ecf d0bd 62cc 0f3d 50d0 e9bd
00000320: b23c a63d 80ff b2bb d0cb 103d e7b0 e9bc
00000330: 38a1 aa3d 56de b0bd 6858 713d 1d6a fcbc
00000340: 18ca 87bd 0dbf 46bd 0202 063d 987e 93bc
00000350: 1e47 3a3d c881 a53c 3a0f f9bd d8da f7bc
00000360: f803 d5bd 3499 c6bd 6863 bebd b0af eabd
00000370: 08b4 f7bc bcb4 b23d 83e0 7abd 9d75 a83d
00000380: 66fe a83d c81c 563d ab9d 9b3d 940b af3d
00000390: 005b 7b3c d350 8cbd f659 943d 8369 92bd
000003a0: c492 b6bd a64f 06be 8096 0dbb 26b1 e8bc
000003b0: 9647 a6bd 3237 61bd 3081 8c3c 0235 9f3d
000003c0: a7f5 27bd c583 053b 83f4 de3c c676 03bd
000003d0: 00e0 73bc f0f0 5cbc 9482 fa3c e0e6 b3bc
000003e0: 0497 e0bd 3930 b6bd 2683 32bd eed8 46bc
000003f0: 987c a83d 00b5 3d3a 8693 fc3d 5497 6cbd
-0.06962061 -0.12904039 0.11094765 -0.048171833 0.03877959 -0.112042576 -0.014710718 -0.113347605
-0.12440401 -0.054232553 0.053070858 0.007707989 0.046306565 0.07838702 0.09245609 0.00555372
-0.09911665 -0.04935471 -0.07845859 -0.0020890534 -0.1372364 -0.04354562 -0.022408083 0.11378457
0.06319204 -0.008939444 -0.008818552 -0.091844484 -0.09895834 -0.012528241 0.010781555 -0.042676676
-0.08087729 0.037278026 -0.12174388 -0.0294276 0.10756631 0.07867889 0.09175319 0.09687551
-0.05628705 0.08331732 -0.11251657 0.041221917 0.024886325 -0.007884736 -0.108595595 -0.04697952
0.06864782 0.09538094 -0.02420501 0.09374498 0.033278912 0.04866904 0.016472863 -0.018272638
-0.08356683 0.022848625 0.034391847 0.045255706 -0.10632375 -0.034460977 0.10987924 0.103289306
0.054711446 0.077492215 0.00066304207 -0.07243602 0.003254264 0.04502 0.02871813 0.08792859
-0.1193015 0.06305632 0.070034415 0.046904434 0.00089119375 0.06856614 -0.05273339 0.015188002
0.01919951 -0.0140717905 0.05810463 -0.05002953 -0.025281502 0.062209085 -0.10237311 0.04145375
-0.015151575 0.0049903113 0.054812863 0.032161847 -0.027100205 0.042524233 -0.015019833 0.045126818
-0.011376375 0.10770193 -0.049372755 0.04401258 -0.053397328 -0.009117965 -0.021607235 -0.07517381
0.051426858 -0.045807883 0.04816608 -0.062294967 0.043106616 -0.10408377 -0.10796231 -0.047967426
0.10493957 -0.108620204 0.0018639066 0.013360944 -0.10085864 -0.051575854 -0.014581371 0.03704728
-0.122901976 0.04876485 -0.0055368235 -0.059648775 -0.09847003 -0.088331 -0.0971366 0.050481454
0.074955165 -0.039425097 0.09490362 -0.0135819465 0.06925451 -0.099096626 -0.02764663 0.021520928
-0.10183324 0.06509501 0.07024011 0.10678653 0.10925014 -0.07073182 -0.061469883 -0.033812936
-0.088283256 0.11619757 -0.09484516 0.097630635 -0.05598861 0.052148566 0.08747819 0.06016119
-0.011749605 0.059464023 0.017733887 -0.023303092 -0.012247592 -0.124452144 0.024907263 0.025932672
-0.06340975 -0.03786972 0.11196775 -0.11066044 0.02901639 -0.08844677 -0.05951647 -0.011587729
-0.064146236 0.009729288 0.04044026 0.09822648 0.04453732 -0.035994463 0.11237672 -0.08643484
0.114726685 0.094391756 0.0073903557 -0.049468916 0.096137285 0.10779256 -0.0771256 0.009546638
-0.092125416 0.053062934 -0.0114645595 -0.05879328 0.09803453 -0.08905378 -0.038958862 0.04236047
-0.08555555 0.07472977 0.11836676 -0.045867816 0.093578346 -0.10195814 0.035107024 -0.114166856
0.081170455 -0.005462587 0.03535062 -0.028526736 0.08331531 -0.08636157 0.0589222 -0.030812318
-0.06630343 -0.048522044 0.03271676 -0.0180047 0.04547798 0.020203486 -0.12161107 -0.03025572
-0.104011476 -0.0969719 -0.09296304 -0.11459291 -0.030237213 0.087258786 -0.061249267 0.08225558
0.08251648 0.05227354 0.07598432 0.0854713 0.01534152 -0.068513535 0.07243721 -0.07149031
-0.08914712 -0.13116321 -0.0021604598 -0.028404783 -0.08119123 -0.05498428 0.017151445 0.07773782
-0.041005757 0.002037273 0.027216202 -0.032095693 -0.014884949 -0.013485178 0.030579843 -0.021960676
-0.10966304 -0.088959165 -0.043582104 -0.012136681 0.08226889 0.0007236749 0.12332825 -0.057761505

bias f4 [190]
00000000: 32cb 4e3d d9f5 d53b 71a6 593e 9ac8 ec3d
00000010: b1a4 b1bd 066a 2bbd 96de 0dbd 6d8b 85bd
00000020: 5128 4ebd 32af 1fbe 5e11 f53d 6673 d1bc
00000030: 7059 2c3e afea 323e d955 0c3d 9993 a8bc
00000040: f889 313e de18 86bd 4366 0fbc a814 bb3c
00000050: 7557 bdbc cd6f debd 2c97 92bb cab1 f4bd
00000060: cefe 353c 9f07 09be a8cc 85bd cfe5 dcbd
00000070: cf50 a6bd 3f40 053c 4002 0d3e 8f40 97bd
00000080: 596b 56bc 1f09 54be 0ee1 4b3b ab03 d1bd
00000090: 74a2 54bd ccb5 8ebd f1fd 99bd d449 003e
000000a0: fe29 803d 33aa 9a3d 9531 df3c f7b8 0d3e
000000b0: b133 873e f288 d13d 7e94 a13d a5f2 2d3e
000000c0: f85c 743e 8fb4 473e 8731 b23e 4ebe 963e
000000d0: 16d0 773e 4b0b 923e 9035 4b3e 46ff ab3e
000000e0: a721 5c3e 6536 cc3e 8672 ee3d 08a5 823e
000000f0: 4d5a 1e3e 829a 923e 0144 ba3e ffe0 b23e
00000100: 771a 3c3e c536 a13e 9db2 1a3e ceaa a23e
00000110: cf2d 733e 519b 213e 8497 243e 5058 133e
00000120: ac77 2a3e 459d 923e 0e4b 603e 746e 0b3e
00000130: 0ea3 583e 8d9c 3a3e 3247 993e 317c af3d
00000140: 987c 3b3e 83a3 133e 3ea1 f33d 30af 703d
00000150: e8c1 303e ff92 343e 06e4 c33d eca4 183d
00000160: e045 993e dc9b 1e3e 804b cf3d 914f 003e
00000170: dd71 cd3d 7fe1 133e aa4a 533e 5200 733e
00000180: 82b1 123e 9b12 d53d 4baa 163e 5eda ac3e
00000190: b88b 133e 5d07 6a3e 0f73 053e 7214 373e
000001a0: 2576 283e 45a8 283e 991b 8a3e aebd 803e
000001b0: 984c 353e ce51 9a3e b60f 993e 69a4 0f3e
000001c0: 0946 f13d 4644 6d3e 57ad 7a3e 5472 113e
000001d0: 2b64 8b3e 84a5 7e3e e04d 783d 2938 923e
000001e0: 4546 853e bb2f 453e e590 603e bdc5 573e
000001f0: 90a2 653c cd0a 833e 0af0 b23e ccd1 713e
00000200: b7df 293e 0428 443e d8fe 3d3e cb38 b03e
00000210: a998 af3e 4d30 9b3e 041a a53e dac5 443e
00000220: 27c5 883e 7bcc 4a3e dfbc 9c3e 5409 803e
00000230: ce2e 853e 1ccf 853e 61ae 513e 4b26 b03d
00000240: 9d96 bd3d e761 b73d 5dda 1f3e 7133 6e3e
00000250: a4c5 313e 11ae 103e f3a5 3e3e a133 8f3e
00000260: f40f d53d b337 1c3e ec89 663e 6713 4d3e
00000270: 671f 4e3e 9a32 0e3e a0e6 fe3d ea20 533e
00000280: 871a 8d3e 43c5 813e 00b1 473e 3915 a13e
00000290: 22f3 4e3e e544 1b3e 2e8f 8b3e 5915 8d3e
000002a0: 1b48 883e e6b6 523e 3eb9 f33d 699f 2e3e
000002b0: 762b 333e 4385 a33e 5ebb 963d d812 4a3e
000002c0: 853b e03d 38ca 9d3e 1541 813e 9604 f93d
000002d0: 11ad 663e 194c 403e 2c78 323e 0cb6 843e
000002e0: 88c7 e53d 2e64 603e 6dcd 0a3e 6583 513e
000002f0: b23f a63d bd2c 673e
0.05048675 0.0065295515 0.21254899 0.11561699 -0.086739905 -0.04184916 -0.034636103 -0.06520734
-0.050331417 -0.15594175 0.11966203 -0.025567722 0.16830993 0.17472337 0.03426156 -0.020578193
0.17337787 -0.06547712 -0.008752408 0.022836998 -0.023112992 -0.10861168 -0.0044735875 -0.11947973
0.011108113 -0.13381813 -0.06533176 -0.1078602 -0.08120882 0.008132993 0.1377039 -0.073853604
-0.013087117 -0.20706604 0.0031109485 -0.10205778 -0.05191274 -0.06968269 -0.075191386 0.12528163
0.062580094 0.07551994 0.027245322 0.1384009 0.26406625 0.10231198 0.07889651 0.16987093
0.2386359 0.19502471 0.3480341 0.29442066 0.24200472 0.2852424 0.19844651 0.33593196
0.21497212 0.3988525 0.11642937 0.25516534 0.15464135 0.28633505 0.36380008 0.34937283
0.1836947 0.31487098 0.15107198 0.3177094 0.23747943 0.15781905 0.16073424 0.14389157
0.16647214 0.28635612 0.21903631 0.13616353 0.2115595 0.18223782 0.2993713 0.085686095
0.18309247 0.14417844 0.11895989 0.05876082 0.1726147 0.176342 0.095649764 0.037266657
0.29936123 0.15489143 0.10121822 0.12530352 0.10031483 0.14441489 0.20633951 0.23730591
0.14325526 0.10403939 0.14713399 0.3376035 0.14408767 0.22854371 0.13032173 0.17878893
0.16451319 0.1647044 0.2697418 0.25144714 0.17705 0.30140537 0.298948 0.14027561
0.11780936 0.23170575 0.24480186 0.14203769 0.2722486 0.24867827 0.060621142 0.28558472
0.26030174 0.19256489 0.21930273 0.21071525 0.014015809 0.25594178 0.3494876 0.23615187
0.16589247 0.1915589 0.18554246 0.3441833 0.34296158 0.30310288 0.3224641 0.192161
0.26712915 0.19804566 0.30612847 0.25007117 0.26012272 0.26134574 0.20476677 0.08601054
0.09257243 0.0895422 0.15610643 0.23261811 0.1736055 0.14128901 0.18617992 0.27969077
0.104034334 0.15255623 0.2251355 0.20026933 0.20129167 0.1388649 0.12446332 0.20618024
0.275593 0.2534581 0.19501114 0.31461504 0.20209935 0.15163 0.27257675 0.2755535
0.26617512 0.20577583 0.119005665 0.17052998 0.17497048 0.31937608 0.07359956 0.19733751
0.109488524 0.30818343 0.25244966 0.12159078 0.22526957 0.18779029 0.17428654 0.2592014
0.11219698 0.21913216 0.13554926 0.2046028 0.08117618 0.2257566
