model.pth (torch, 70452 bytes, 6 tensors)

weight f4 [64, 1]
000000 b7 6d 18 3f 85 f9 63 3f df 7a 09 3f 12 f5 58 3f
       0.5954241 0.8905261 0.5370311 0.8474895
000010 1e 3e 40 3f 2a 91 81 3d 61 bf 5f 3d 71 57 08 3e
       0.75094783 0.06326516 0.054625873 0.13314606
000020 50 fd 33 bc 66 88 6b 3d f6 fd 72 3f e3 cf 69 3f
       -0.010985687 0.057503127 0.94918764 0.91332835
000030 50 eb 4a be 66 c3 69 bf 15 1b 66 3f b4 9b ed 3e
       -0.19816327 -0.9131378 0.89885074 0.46407855
000040 d2 5a 70 3f f9 bc b6 3e a2 a9 34 3f 51 2f 6a 3e
       0.9388858 0.3569105 0.7057134 0.22869612
000050 b4 e1 59 3d 9a ea 10 3f ff 88 09 3f f0 c0 88 bd
       0.053193763 0.56607974 0.53724664 -0.06677425
000060 d3 62 69 3e 19 0b ab bd ba f2 72 bf 00 ce 2e bc
       0.22791605 -0.08351726 -0.9490162 -0.010669231
000070 85 92 23 3f f1 b7 f0 3e 11 62 a6 3e 70 48 9d 3c
       0.63895446 0.47015336 0.32496694 0.01919958
000080 81 12 07 3f 22 00 37 bf 14 29 45 bf ec c7 70 bf
       0.5276261 -0.7148458 -0.77015805 -0.94055057
000090 40 a3 79 be dd 39 87 3e 40 f9 45 bd 43 d2 34 3f
       -0.24378681 0.26411334 -0.048333406 0.70633334
0000a0 34 00 05 bf 88 20 2e be 98 3a 20 bf 34 f2 90 be
       -0.51953435 -0.17004597 -0.62589407 -0.28309786
0000b0 6e 94 17 3f a4 4d c0 be 4c e7 96 3e 46 ab 71 bf
       0.5921086 -0.37559235 0.2947334 -0.9440197
0000c0 fa 22 7f 3f ac a0 5f 3f 60 3a 41 bf 80 2c e0 be
       0.99662745 0.8735454 -0.754797 -0.4378395
0000d0 65 06 38 3f e7 8f 02 3f 38 0e 09 3e de a4 54 bf
       0.7188476 0.5100083 0.1338433 -0.8306407
0000e0 68 8c e2 be cf d8 6f 3f d4 0c a7 be cd b1 3e 3f
       -0.44247746 0.936902 -0.32626975 0.7449005
0000f0 37 4c 71 3f 5c 5f cd be 6c 14 41 3f 68 94 21 bf
       0.9425692 -0.40111816 0.75421786 -0.63117075

bias f4 [64]
000000 99 aa 82 3e c9 aa 5f 3f 1b 2e d6 bc 3a a9 1f 3e
       0.2552078 0.8736997 -0.026145032 0.15591899
000010 a8 6d 0a 3f 70 84 10 3f 98 ad 97 be 5b d9 9c bf
       0.5407357 0.56452084 -0.2962463 -1.2253832
000020 b5 85 4c 3f 0b c7 90 3f f8 96 86 3e 17 9d 93 3f
       0.7989152 1.1310743 0.26287055 1.1532315
000030 5c 3c d0 be 74 f5 e4 be 07 8e 8b be 49 83 8f be
       -0.4067105 -0.44718516 -0.27256796 -0.2802985
000040 8f 43 8b bf ea 09 a0 3f ce a1 ad be 58 3c 75 3e
       -1.0879992 1.2503026 -0.3391251 0.239488
000050 6b 3c 83 be d7 06 3d bf cf ee 2d 3f 98 96 9d be
       -0.25632033 -0.7383856 0.6794252 -0.30778956
000060 ff 5c 6d 3f 80 73 55 3f 84 17 6e bf b0 52 d9 be
       0.92720026 0.83379364 -0.9300463 -0.42445898
000070 e7 f2 9e 3e d9 f7 90 bf b2 2a 31 3f 64 62 b9 3e
       0.31044695 -1.1325637 0.6920577 0.3620788
000080 72 4d 43 bf 78 2d 22 be b8 4b 18 3f 36 d0 6c 3f
       -0.7629005 -0.15837657 0.5949054 0.92505205
000090 80 7f 87 3e 99 80 a1 3e dc 2a aa 3e 8f 43 10 bf
       0.26464462 0.31543425 0.33235824 -0.56353086
0000a0 58 76 75 3e e0 d9 b9 bd de 6f 7a 3f 00 90 5c bb
       0.23970926 -0.090747595 0.97826946 -0.0033655167
0000b0 44 79 2c bf 56 42 2c 3f aa cd e5 bd 08 73 69 bf
       -0.67372537 0.6728872 -0.11220868 -0.9119115
0000c0 3b b0 00 3f 46 42 49 3f 96 1e 0f 3f fc d3 6b bf
       0.50268906 0.7861675 0.55906045 -0.9212034
0000d0 d2 53 50 bf 4f 54 d3 3e 55 ee f9 bd 40 5c 26 bf
       -0.813779 0.4127526 -0.12203661 -0.6498451
0000e0 2c 3d fc be f0 37 bb bd 50 6a df be 3f 17 1a 3c
       -0.4926542 -0.091415286 -0.43635798 0.009404956
0000f0 e1 ef ff be d0 bd 1f 3f d0 ce 8a 3f 3e 52 7b 3f
       -0.499877 0.62399006 1.0844364 0.98172367

weight f4 [64, 64]
000000 64 c4 9e bd 41 56 60 3d 07 13 7e 3d 6e 9e 77 3d
       -0.07752302 0.054769758 0.062029865 0.060453825
000010 aa 2c aa bd b1 95 b0 3c 4d 72 1b be f0 ef ed bc
       -0.083093 0.021555753 -0.15180321 -0.029045075
000020 a5 cc 09 3f 98 d4 c3 3d e2 e2 9e bb 00 f5 c6 3d
       0.5382789 0.095620334 -0.004848824 0.09714699
000030 fc 40 ff 3d 80 bf ea 3b 16 e3 e1 bd e2 12 bb 3b
       0.12463567 0.007163942 -0.11029641 0.005709038
000040 4e ef 8a 3d c5 b6 8f bd 4e f8 98 bd b2 59 80 3c
       0.06783925 -0.070172824 -0.07469235 0.01566777
000050 8d ac 1e be 00 46 35 b9 62 19 f9 3c 3e 4f 9a bd
       -0.1549551 -0.00017287582 0.030407611 -0.075346455
000060 a7 3e e6 3d 57 16 87 3c 2c 99 04 bd 76 61 dd 3d
       0.11242419 0.016490145 -0.03237264 0.10809605
000070 25 b5 ee 3d 3f ac 92 3d 21 3f e9 bd a8 6b 20 3e
       0.11655644 0.071617596 -0.11388994 0.15666068
000080 9c 6a 46 3d 98 85 d4 3c e8 6e 1d 3d 8e ba 8e bd
       0.048441514 0.025942609 0.038435847 -0.06969176
000090 f8 c4 c6 3d 47 c3 8b 3d f0 4c 1e 3c a2 f8 f1 bd
       0.097055376 0.068243556 0.009661898 -0.11815001
0000a0 ba 96 86 3d 40 51 9a 3c 72 59 c8 bd a2 87 fa 3d
       0.065717176 0.018837571 -0.09782685 0.12232901
0000b0 96 69 43 3d 84 57 da bd cb 94 80 bd f0 db 12 bd
       0.047708116 -0.106612235 -0.0627838 -0.03585428
0000c0 cf 83 c6 3d b0 05 44 bd c0 33 a3 bc 70 c6 67 bd
       0.09693109 -0.047856987 -0.019922137 -0.05658573
0000d0 90 89 d0 bd b4 a4 ee bd 29 ba 70 bd ce a1 ed bd
       -0.10182488 -0.116525084 -0.058771286 -0.116031274
0000e0 28 5b 43 bd 3f 24 f1 3d 4c cc 29 bd 97 4a 10 bd
       -0.047694355 0.117744915 -0.0414546 -0.035227384
0000f0 5f e4 06 be a0 fd f3 3c a2 d9 65 3d da 49 94 3d
       -0.13173054 0.029784024 0.056115754 0.072406486
000100 02 47 75 bd 78 26 6a bb 9d 3b 4a bd c8 ca 83 3d
       -0.05988217 -0.0035728496 -0.049373258 0.06435162
000110 dc e0 5a 3c 1b 94 5c bd 87 fe 02 be e5 df 88 bd
       0.013359275 -0.053852182 -0.12792407 -0.066833295
000120 41 3f 8d 3e c1 2d ff 3c 0b ae a0 3d 75 c8 03 bd
       0.2758732 0.031149747 0.07845696 -0.032173593
000130 78 64 85 bc 24 09 b8 3d 6f 43 42 3d 81 82 80 3d
       -0.016283259 0.089861184 0.04742759 0.06274892
000140 5a ce f2 bc ab 26 dc bd 8f 63 df 3d a1 27 b7 bd
       -0.029639412 -0.10749563 0.10907661 -0.089431055
000150 a5 f0 b6 bd 0a 64 83 bc d1 6a d5 3c 30 54 2f bd
       -0.08932618 -0.016038913 0.02605191 -0.042804897
000160 22 9b 07 3d d2 7e 44 3d 40 5b 2d bb 60 06 ae 3b
       0.03310693 0.047972508 -0.0026452094 0.0053108186
000170 79 41 af bc 17 89 ae bc e2 ea 34 bd ea 44 53 3d
       -0.021393524 -0.021305604 -0.044169314 0.051579393
000180 2e 4e c5 bd 48 10 23 3d 96 70 ab bd 50 0d cb bc
       -0.09634052 0.03981045 -0.083710834 -0.024786621
000190 b8 b1 b9 bd 50 e7 75 3d ac 0e 53 3d 71 e7 f6 3d
       -0.090671 0.06003505 0.051527664 0.12055863
0001a0 e0 e3 e2 bd f0 fd 70 bd a4 6c 53 3d f0 fd a0 3d
       -0.1107862 -0.058835924 0.05161728 0.07860935
0001b0 f6 77 76 3d 10 0d a1 3d 35 03 7f bd 5c 6c 88 bd
       0.060172997 0.078638196 -0.062258918 -0.06661293
0001c0 c9 69 51 3c 02 a7 a3 3d f4 f9 06 3d 34 d8 b1 3d
       0.012781569 0.079908386 0.032953218 0.086838156
0001d0 ef 26 b0 bd c3 fd 92 bd 5c d4 43 bd 48 27 ac 3d
       -0.08601176 -0.071773075 -0.047809944 0.0840593
0001e0 64 51 d4 3d f4 cf e9 3d 40 43 aa 3d ec 11 6a bd
       0.103670865 0.11416617 0.08313608 -0.057145998
0001f0 e7 26 f2 bd 9a d9 df 3d 04 e1 97 3d 30 e8 b0 3d
       -0.11823826 0.10930176 0.07415965 0.08638036
000200 40 03 c9 3d 5f bd b2 bd 23 e1 c1 bd 3f 99 c8 3b
       0.09815073 -0.08727526 -0.094667695 0.006121784
000210 45 dd db bd fc 18 00 3e 62 39 81 bd ff 0d d6 bd
       -0.10735563 0.12509531 -0.06309773 -0.10451888
000220 30 bc 86 3e ff 66 01 3d 72 1b c1 3d aa f9 6a bd
       0.2631545 0.031592365 0.09429063 -0.057367004
000230 d0 ad 0a 3d dc d2 f7 bd b2 e3 d0 3d 55 55 e5 3d
       0.033857167 -0.12100765 0.101996794 0.111979164
000240 9a da d6 3d de 07 f5 bc 94 4c 86 bd 71 10 4e 3d
       0.10490914 -0.029910978 -0.06557575 0.05030865
000250 b2 67 5e 3d 87 61 d8 bd d3 78 fa 3d 18 0e c3 bd
       0.05429811 -0.10565477 0.12230077 -0.095241725
000260 31 c5 b5 bd ad 40 e1 3d 9a fa 8a 3d 30 27 19 3c
       -0.08875502 0.10998664 0.0678608 0.009347722
000270 c4 bd fe bd 57 b9 cc 3d 64 01 ea bc 5a 2a fc 3d
       -0.12438539 0.09996288 -0.028565116 0.123127654
000280 95 0f 8b bd 00 bc 47 b9 0c 14 ab bd 86 51 9a bd
       -0.067900814 -0.00019048154 -0.08353433 -0.075350806
000290 8c d8 1c 3d 75 19 28 3d 28 5d 9b 3d da 6e a5 3d
       0.038292453 0.041039903 0.075861275 0.08077784
0002a0 44 d3 e2 3d bc b6 9d bd 34 36 a0 3d 98 f8 8b 3d
       0.11075452 -0.077008694 0.078228384 0.06834525
0002b0 db d5 ba bd fc fc 35 3d 99 2e 4e bd 20 22 c8 3d
       -0.09122821 0.044430718 -0.050337408 0.09772134
0002c0 ec 13 df 3d 99 46 92 3d 8c 77 b6 3d 00 8c 2c 3c
       0.10892472 0.07142372 0.089095205 0.0105314255
0002d0 14 fa 1c bd 2e 3f be bd c2 73 c4 bd 10 3f f0 3d
       -0.03832443 -0.09289394 -0.095923916 0.11730778
0002e0 7c 9d af 3d df 48 2b bd 68 fc bc 3c e4 12 6f 3d
       0.0857496 -0.041817542 0.023069575 0.058367625
0002f0 4f db 6b 3d 50 7e f2 3c 37 33 c6 3d e8 88 3f bd
       0.057582196 0.029601246 0.09677737 -0.046761423
000300 da b2 87 3b 80 73 2b 3d 3e 91 ea 3c 4f f0 23 3d
       0.004141194 0.041858196 0.02863371 0.040024098
000310 91 85 89 bd a2 a2 f4 3c 39 26 32 3d 76 ec 2c be
       -0.06714929 0.029862706 0.043493483 -0.16887078
000320 5f 17 1d 3f 51 48 41 3d 2b a0 e2 3c ec 38 34 bd
       0.61363786 0.047188107 0.027664265 -0.043999597
000330 fc 30 15 bd 3e 7e f2 3d 80 73 e8 3d 52 34 72 3d
       -0.03642367 0.11840485 0.11350155 0.059131928
000340 12 db 69 3d 34 e5 cd bd 5a 36 64 3d 6d 75 d9 3d
       0.057093687 -0.10053483 0.055715896 0.106181
000350 84 01 f8 3c f7 2a c9 3d c6 82 bd bd 60 19 bc 3c
       0.03027416 0.09822648 -0.09253459 0.022961318
000360 28 08 af bd a9 99 7e bd 10 97 91 3c f8 19 69 bd
       -0.085464776 -0.06215826 0.017772228 -0.05690953
000370 5d d8 94 3d 5b 3b c9 bb ae b0 3e 3d 95 8b ea 3d
       0.072678305 -0.006141109 0.046555214 0.114524044
000380 2b 17 ef bb ac ba 22 bd 22 1c b4 3d 40 7d 05 bc
       -0.007296463 -0.039728805 0.087944284 -0.008147538
000390 60 55 65 3c 53 04 6a 3d 60 16 d6 bb 61 e6 1d 3d
       0.013997406 0.05713303 -0.006533429 0.038549785
0003a0 90 2d f5 3d 00 c8 0f 3c a8 e3 ce 3c e8 7e f0 3c
       0.11971581 0.008775711 0.02525504 0.029357389
0003b0 05 1b cd 3d 74 45 fa 3d 33 c6 46 bd 5a 81 8c bd
       0.10014919 0.122202784 -0.04852886 -0.06860609
0003c0 b2 d2 76 bd 91 7e 3d 3d 1a 80 ed 3d c8 64 33 3d
       -0.06025953 0.04626328 0.11596699 0.043797284
0003d0 86 ce d2 3d ea 3a 63 3d f6 1c f7 3d 60 4a f5 3c
       0.102932975 0.055476107 0.12066071 0.029942691
0003e0 ce 92 b6 bd 36 62 d3 bd c0 9f 1f 3c a0 31 86 bd
       -0.089147195 -0.103214666 0.009742677 -0.06552434
0003f0 93 c1 a6 3c bc 9a a5 3d 0c 85 aa 3d 80 70 4e 3c
       0.020355975 0.08086154 0.08326158 0.012600064

bias f4 [64]
000000 d6 62 ca 3e cf ca f9 3d bf 04 83 bd 3c bb bc 3d
       0.3952853 0.12196886 -0.063973896 0.092153996
000010 50 dd db 3d 6a 04 55 3e e8 d1 34 be 24 b2 79 bd
       0.107355714 0.20802465 -0.17658198 -0.060960904
000020 f6 43 96 3e c8 d6 ee 3d 2d 3d 97 3e 69 04 9b 3e
       0.29348725 0.1166206 0.2953886 0.30276802
000030 c6 cc af 3e b4 bd 6f 3e 5c a0 23 bd 62 cd 94 bd
       0.34335917 0.2341221 -0.039947852 -0.07265736
000040 40 65 f4 3c 6d 7f 8d 3e 73 07 1a be 00 8e 73 3c
       0.029833436 0.2763628 -0.15041904 0.014865398
000050 e0 be 6f bd da 51 d7 bd 7c e2 3b bd 86 95 e9 bd
       -0.058531642 -0.10513659 -0.04587029 -0.114054725
000060 00 89 39 3c 28 1f 57 3d 64 22 93 bd 20 a1 ba 3e
       0.011324167 0.052519947 -0.07184294 0.36451054
000070 00 e0 b8 b8 c6 13 bc bd d0 42 e5 3d b2 1c da bd
       -8.815527e-05 -0.09183459 0.11194384 -0.106500044
000080 5c 4f ff bd c0 c9 f3 3d 81 c9 3e 3e 10 23 5f 3d
       -0.124663085 0.11903715 0.18631555 0.054476798
000090 b7 4d 9f 3e 80 af b7 3b cc 09 84 bd a0 a3 44 3c
       0.3111398 0.005605638 -0.06447181 0.012001902
0000a0 e8 4b ac bd bc fb b9 3e ce b1 f1 bd e6 3b c2 3d
       -0.084129155 0.3632487 -0.11801492 0.09484081
0000b0 c0 94 fa bc 59 c9 a8 3e 9e fb 99 3d 6e cc 51 3e
       -0.030588508 0.32966116 0.07518695 0.2048814
0000c0 39 8d 96 3e 78 36 a8 bc 18 6a 8b 3c 50 fe 74 bc
       0.2940462 -0.020533785 0.017018363 -0.014953211
0000d0 08 3a 8e 3d 68 b8 a8 3e 5f 93 17 3d 47 01 88 3d
       0.06944662 0.3295319 0.03700578 0.06640869
0000e0 30 88 78 3e db e2 a9 3e 67 d8 8e 3e 4e 21 e7 3d
       0.24270701 0.3318089 0.27899477 0.11285649
0000f0 62 88 a2 3d fd 21 2e 3e 24 14 1d bd c8 c9 19 3d
       0.07936169 0.17005153 -0.038349286 0.03754595

weight f4 [190, 64]
000000 54 de 39 bc a7 66 93 bd 62 c8 3f 3d 2b ab f4 3c
       -0.011344511 -0.07197314 0.04682196 0.029866775
000010 46 27 13 3d ae e6 7f 3d 20 2a 9b bc c4 1b 50 bd
       0.035926126 0.062475853 -0.018940985 -0.05080773
000020 53 66 0f 3d 28 08 e9 3d 27 00 57 3c 39 c7 c5 bd
       0.035009693 0.11378509 0.013122595 -0.09657139
000030 2e df a4 3d 57 72 87 3d 00 98 3d 39 44 b5 96 3d
       0.08050381 0.066136055 0.00018081069 0.073587924
000040 b2 15 bc bd 52 de 0d bd 2d 09 ca bd f0 0d c7 3c
       -0.091838256 -0.03463585 -0.098650314 0.024298638
000050 78 3c e2 bc 7b ba ce 3d 90 82 52 bd d0 a5 a9 bc
       -0.027616724 0.10094162 -0.051394045 -0.020708948
000060 b6 1f e8 3d 24 32 ec bd 08 15 f9 3c aa dd 2e bd
       0.113341734 -0.11533001 0.030405536 -0.042691864
000070 5e 0b c7 3d 84 81 b9 bc 58 ed 37 bd cc ef c0 3d
       0.09718965 -0.022644766 -0.044904083 0.094207376
000080 74 b4 c0 bd e0 d1 bd bb e3 66 ea bd 0c 1b 19 3d
       -0.09409419 -0.0057928413 -0.11445405 0.03737931
000090 bf 17 e3 bc 40 08 95 3b e4 a8 ed bd e6 f6 bb 3d
       -0.027721284 0.0045481026 -0.11604479 0.091779515
0000a0 7c 51 27 3d 19 54 ab 3c f2 82 f6 bd cc c4 12 3d
       0.040849194 0.020914124 -0.120366946 0.03583221
0000b0 b0 8b 5e 3d 6f 59 a9 3d a0 e5 1b 3c c6 e1 3a 3d
       0.054332435 0.08269011 0.009515196 0.04562547
0000c0 7b 64 f3 3d dc 36 07 3d 1a 1c 9f 3d b4 7d fb bd
       0.118843995 0.033011302 0.07769032 -0.12279835
0000d0 90 b7 7b 3c 0a 48 ea bd 7b 18 eb 3d 1e 80 c8 3c
       0.015363589 -0.114395216 0.11479279 0.024475154
0000e0 9a 12 bb 3d 17 73 7c 3d 46 99 d0 bd a6 4b 86 3d
       0.09134407 0.061633196 -0.101854846 0.065573975
0000f0 f2 09 a2 bd 92 50 6f bd 18 c1 b1 3c f2 1a da 3d
       -0.07912053 -0.058426447 0.02169852 0.10649671
000100 2a 6b 9d 3c 68 b9 a2 3d 96 59 91 bd 03 60 d6 3d
       0.019216139 0.0794552 -0.07097165 0.104675315
000110 21 69 5d bd fb 36 79 3d 02 a1 a3 bd 40 55 b6 3b
       -0.054055337 0.06084345 -0.07989694 0.005564362
000120 b9 28 08 bc c8 59 89 3d 32 3d ca bc 37 c8 fa bc
       -0.00831049 0.067065775 -0.024687383 -0.030613048
000130 e3 d5 c5 bc 42 ca b0 3d 1c b5 58 bd 48 04 33 3d
       -0.02414984 0.086323276 -0.052907094 0.043705255
000140 48 64 d4 bc d5 a9 84 3d 33 60 99 bc da d9 c9 3d
       -0.025926724 0.064777054 -0.01872263 0.09856005
000150 b4 b2 c4 3d c7 dc 3e 3d 38 39 e5 3c c0 73 09 3b
       0.096043974 0.04659727 0.027981386 0.0020973533
000160 30 31 51 bc 7c d0 1d 3d f4 bf 6b 3d 1d 15 e1 bd
       -0.012768075 0.038528904 0.057556108 -0.10990355
000170 30 9d e0 3d 5e 75 00 bd 92 20 af bd 18 dd 32 3d
       0.10967481 -0.03136193 -0.08551134 0.043667883
000180 f8 00 b1 3c 0c bd ab 3d a5 b3 b7 bc 20 59 55 bd
       0.021606907 0.08385667 -0.022424528 -0.05208695
000190 1e 34 08 bd 64 a1 58 bd 70 86 de 3d a8 1f c6 bc
       -0.033252828 -0.05288829 0.10865486 -0.024185017
0001a0 80 0c 7e 3c ff fd 37 bd 09 ae e1 bc 80 d7 2d 3d
       0.01550591 -0.044919964 -0.027548807 0.042441845
0001b0 00 fe b3 3c f7 bf 5c 3d 70 b8 01 bc b9 9e a4 bd
       0.021971703 0.05389401 -0.0079175085 -0.080380864
0001c0 03 9d 75 3d f8 1f a8 bc d2 36 ad bd 70 5e d5 3c
       0.05996419 -0.020523056 -0.08457722 0.026046008
0001d0 20 62 d7 3c 5d 85 91 bd e8 75 5d 3b 08 3f ef 3d
       0.026291907 -0.07105515 0.0033792201 0.11681944
0001e0 dc 5e a3 bd d4 67 a3 bd 6a 83 39 3d 6e 76 bb 3d
       -0.07977077 -0.07978788 0.04529134 0.09153448
0001f0 26 5f e9 bd 5f 87 f9 3c 66 b4 d5 bd b4 bd dd bd
       -0.11395101 0.030460058 -0.10434799 -0.108271986
000200 60 d6 8d bd a1 d9 a5 3c bf cb 86 3d a2 4a a8 3d
       -0.069256544 0.020245375 0.0658183 0.0821736
000210 e5 75 f8 bc e5 c4 9d bc d9 39 22 be 88 bc e6 bc
       -0.030329654 -0.019258926 -0.1584238 -0.02816607
000220 e8 75 df 3c ce 90 e8 3d 88 bf 22 3d f0 03 aa 3d
       0.027277902 0.11355744 0.03973344 0.08301532
000230 6d 1d 91 3d f9 7b 82 3c 80 ee 64 3c 58 be fd bd
       0.07085691 0.015928255 0.013972878 -0.12389821
000240 1e 69 d1 3d 06 8c 0a be b9 d1 c9 3c b0 ac 77 3d
       0.10225128 -0.13529977 0.024636136 0.060467422
000250 92 4b a2 3d 91 0a f3 3c 00 cc 91 b9 14 55 ae 3d
       0.0792457 0.029668124 -0.00027808547 0.08512321
000260 1e bd f9 3d f0 e8 03 bd 18 2d 2a 3d 41 48 ed 3c
       0.12194274 -0.03220457 0.04154691 0.028965117
000270 88 45 c5 bc 29 eb b8 bd 1c 41 3f bd 54 ab 52 3d
       -0.024081007 -0.09029228 -0.046692953 0.051432922
000280 00 a3 a5 3c f0 fe f6 bd ee b1 fc 3c ea 28 aa bd
       0.020219326 -0.12060344 0.030846562 -0.08308585
000290 3d 51 5f 3d 48 3f da 3c 88 e8 bc bc 80 2c f8 bc
       0.054520834 0.026641503 -0.023060098 -0.030294657
0002a0 d0 4e 20 bc 02 4f 74 bd b1 7e 4d 3d 8a e9 d6 bd
       -0.009784415 -0.05964566 0.05016965 -0.10493763
0002b0 d4 ef 55 3d 4e 6d 79 3b f0 43 3d 3c ba db c8 3d
       0.05223067 0.0038059535 0.011551842 0.098075345
0002c0 9d 22 ef bd c4 13 14 bd 5a b7 d6 3d 74 b7 cd 3d
       -0.11676524 -0.036151662 0.1048419 0.100447565
0002d0 22 90 ae bd 9f 9f 8f bd 64 4a f6 3c da dc c9 bc
       -0.08523585 -0.07012867 0.03006477 -0.024641443
0002e0 58 77 be bd f1 f7 f1 bc 3b aa 2f bd d8 85 eb bd
       -0.09300107 -0.029537173 -0.042886954 -0.11500138
0002f0 00 53 1b 3a 9f 49 bb bd ac db 67 bd 02 52 f4 3d
       0.0005925149 -0.091449015 -0.05660598 0.11929704
000300 62 db 42 bb 09 ec 82 bd 24 56 75 3d d3 0a c9 ba
       -0.0029732813 -0.063926764 0.059896603 -0.0015338309
000310 d0 a0 e8 3d 7f 44 0a 3d 7a 03 26 bd be 80 e0 bd
       0.113587976 0.03375673 -0.04053066 -0.109620556
000320 79 7d bd bc 5e 97 8f 3d e7 91 62 bd 3c 57 80 3d
       -0.02313112 0.07011293 -0.055314925 0.06266639
000330 23 3f 8a 3c bc 86 0f bc b8 85 4a 3d 3e 78 9f 3d
       0.016875809 -0.0087601505 0.04944393 0.07786606
000340 28 c2 2d bd e8 f4 be bd 5a f1 a6 bd f4 2e b7 bd
       -0.04242149 -0.09324056 -0.08151503 -0.089445025
000350 64 a6 77 3d be f4 b9 3d 82 58 cb bd 62 26 8f bd
       0.060461417 0.09079884 -0.09928991 -0.06989743
000360 5a b8 d0 3d 00 c4 2e ba 0c 79 47 bd 76 39 c6 3d
       0.10191412 -0.00066667795 -0.048699424 0.096789286
000370 e8 41 de 3c e8 83 47 bd 80 50 86 3d e6 d8 b6 bd
       0.027131036 -0.04870978 0.06558323 -0.08928089
000380 04 49 37 bd 0c 88 93 3d 4f 94 ab bd 48 23 9b bd
       -0.044747368 0.07203683 -0.08377897 -0.07575089
000390 c9 9f c8 bd 60 c8 20 bd d0 8b b9 3d 54 bf b7 bd
       -0.097961016 -0.039253592 0.0905987 -0.0897204
0003a0 06 38 db 3d 5f f2 32 3c 49 ec a3 bd 10 c8 80 bd
       0.10704045 0.010922044 -0.08004052 -0.06288159
0003b0 10 2a c7 bd 62 4d c5 3d a8 2f 8f 3d 25 24 b7 bd
       -0.0972482 0.096339 0.069915116 -0.08942441
0003c0 5a c3 62 3d 78 4c 83 3d 4c 1d 0b bd 6c 31 b4 3d
       0.055362083 0.0641107 -0.033963487 0.08798489
0003d0 ec f3 14 bd f1 ce 91 bb cd 0d b9 3d c2 18 09 3d
       -0.036365435 -0.004449718 0.090358354 0.033470877
0003e0 f2 79 84 3d 09 5a 43 bc 3a 84 a9 3c b6 37 81 3d
       0.06468572 -0.0119233215 0.020692933 0.06309454
0003f0 a8 67 9b 3d 2b c2 b2 bc 94 29 12 bd 44 92 c0 bd
       0.0758813 -0.021821102 -0.035684183 -0.09402898

bias f4 [190]
000000 d8 9b e1 bd fd 0b 89 3d 89 ce 6f 3d 8f af 99 3d
       -0.11016053 0.0669174 0.058546577 0.07504188
000010 4e 45 7e bd 74 f5 17 3d ab 88 a3 bd 74 18 9b bd
       -0.062077813 0.037099317 -0.07985052 -0.075730234
000020 06 9d a5 3d 88 a1 cf bd d3 cf 2d bd e6 e3 fb 3c
       0.080865905 -0.101382315 -0.042434525 0.030748319
000030 e1 13 84 bd 6c ff 1e 3d 9b ac 04 3d 47 db 9e 3c
       -0.06449104 0.038817808 0.032391172 0.019391669
000040 6c d5 a9 bc 6e ed 10 3e 9e dc 82 3d cc bb 60 bd
       -0.02073165 0.14153072 0.06389736 -0.054866597
000050 fd c3 68 be 30 85 b0 bb bf 0f af bd 87 80 50 bd
       -0.22731014 -0.005386971 -0.08547925 -0.050903823
000060 df 80 b6 bd 82 ae 30 3d c6 a0 08 bd 4a e6 06 bc
       -0.08911299 0.043135174 -0.03335645 -0.008233616
000070 f5 65 d7 bd 19 a3 06 3b 68 fb 92 3c d4 9c d3 3c
       -0.10517494 0.002054399 0.017942145 0.025831617
000080 73 84 4b 3d 2f 1d 02 bd d1 11 8f bd ec eb 6e 3c
       0.04968686 -0.031766113 -0.0698582 0.014582615
000090 33 d9 da 3c f4 5d 1f 3d 03 6d c7 bc 4a 00 ca 3d
       0.026714897 0.03890796 -0.024343973 0.098633364
0000a0 a8 6b 36 3e 41 0a 32 3e b1 69 83 3e dc 5f 13 3e
       0.17814505 0.17386724 0.25666574 0.14392036
0000b0 4e 45 09 3e 09 53 99 3e a3 31 0c 3e 53 8b b2 3e
       0.13405344 0.29946163 0.1369081 0.3487192
0000c0 6c 71 cd 3e 15 4c 8b 3e 2e 98 a3 3e 88 0a a7 3e
       0.40125597 0.27206483 0.3195204 0.32625222
0000d0 ee 45 9f 3e a7 f8 61 3e 47 08 92 3e 54 c2 58 3e
       0.3110804 0.2206751 0.2852194 0.2116788
0000e0 39 11 56 3e 09 be ce 3e ee 49 b3 3e f7 38 b6 3e
       0.20905007 0.4037936 0.3501734 0.35590336
0000f0 bf 78 ab 3e 34 bd cc 3e ec 14 8a 3e 74 4d 7f 3e
       0.3349056 0.399881 0.26969087 0.2493189
000100 3d a2 9e 3e ea f4 99 3e 68 d1 ff 3d eb 41 85 3e
       0.30983153 0.30069667 0.12491113 0.26026854
000110 e6 31 2a 3e 60 b7 3b 3e 0a 0c 86 3e fc 31 24 3e
       0.16620597 0.18331671 0.2618106 0.16034693
000120 91 82 06 3e 7b 84 bc 3e 5f ca 9c 3e 28 c3 b4 3e
       0.13135745 0.36819825 0.30623147 0.35305142
000130 27 f6 99 3e d2 c0 46 3e 95 0d 04 3e 73 7b 83 3e
       0.30070612 0.19409493 0.12895806 0.25680122
000140 69 ff a1 3e 1a 21 f3 3d ba 46 f4 3d d5 61 a5 3e
       0.31640175 0.11871548 0.119275525 0.32301202
000150 0b 12 ad 3e cf 48 07 3e 9e 53 ae 3e ea 34 8f 3e
       0.33802828 0.13211368 0.3404817 0.27970058
000160 8c 16 1c 3e 1b e3 79 3e d4 61 3c 3e c7 2e 8b 3e
       0.15242976 0.2440304 0.18396693 0.27184126
000170 2a b5 77 3e c9 51 a8 3e b6 0d e9 3d 3b cd f7 3d
       0.24190202 0.32874897 0.11379568 0.120996915
000180 30 60 6b 3e 3b ce 60 3e e0 1b 86 3e ec c2 03 3e
       0.22985911 0.2195367 0.26193142 0.12867326
000190 fd 44 9b 3e 47 80 66 3e 6a e9 bd 3e 79 a7 9b 3e
       0.3032607 0.22509871 0.37092143 0.3040121
0001a0 b7 d9 65 3e 1f 53 e4 3d 3b 9c 68 3e 54 39 5a 3e
       0.22446333 0.111486666 0.22715847 0.21310931
0001b0 9c 14 69 3e 49 e6 75 3e 7b 99 7a 3e c3 3a 8e 3e
       0.22761768 0.24013628 0.2447261 0.27779207
0001c0 96 f3 cd 3d 20 63 b6 3e 16 be ab 3e a5 d0 62 3e
       0.10056226 0.356225 0.33543462 0.22149904
0001d0 68 26 7a 3e f4 b5 34 3e 5e 0a aa 3e d9 61 21 3e
       0.24428713 0.17647535 0.33211035 0.15759982
0001e0 2b 7b 8d 3e 93 e3 2e 3e c9 ea 2a 3e d1 46 92 3e
       0.27633032 0.17079 0.16691126 0.28569654
0001f0 97 24 78 3e f6 ba c4 3e 32 68 e4 3d e7 52 93 3e
       0.24232708 0.3842389 0.11152686 0.28774187
000200 4b e2 35 3e f5 c5 aa 3e 2e 62 66 3e 7a e0 d6 3d
       0.17762105 0.33354154 0.2249839 0.10492034
000210 04 69 85 3e 48 81 34 3e cc f8 8c 3e 63 0b f8 3d
       0.26056683 0.17627442 0.27533567 0.12111547
000220 ba 6b 7d 3e 1b 6a 0f 3e e9 64 af 3e 82 2f b3 3d
       0.24748126 0.1400532 0.34256676 0.08749296
000230 cc db 33 3e 27 43 c1 3d 0d 97 22 3e 48 5f 75 3e
       0.17564315 0.094366364 0.15877934 0.23962128
000240 11 34 34 3e 1b 55 2e 3e 6a 4c 99 3e 2d 24 3f 3e
       0.17597987 0.17024653 0.29941112 0.18666144
000250 81 82 ab 3d c3 b9 a1 3e 80 06 90 3e e8 09 9e 3e
       0.08374501 0.31587037 0.2812996 0.30866933
000260 a1 c3 a1 3e fb e9 5f 3e 24 31 0d 3e e4 b9 f0 3d
       0.31594566 0.218666 0.13788277 0.11754206
000270 e4 8c a0 3e 45 4b 63 3e 9c 7f 9c 3e d1 d0 6c 3e
       0.3135749 0.22196682 0.30566108 0.23126532
000280 ac 58 1e 3e 17 d1 7a 3e c3 43 9c 3e 79 23 e3 3d
       0.15463513 0.24493824 0.30520448 0.1109075
000290 c3 1a 41 3e 3c 9e 0d 3e 3f b3 0d 3e c7 ea 6a 3e
       0.18857865 0.13829893 0.13837908 0.22941123
0002a0 3d 5a 11 3e 10 11 67 3e 93 00 6a 3e c7 54 51 3e
       0.1419458 0.22565103 0.22851782 0.20442496
0002b0 7b e9 a5 3e d5 1a 78 3e 22 02 a2 3e 72 ca 5b 3e
       0.32404694 0.24228986 0.31642252 0.21463946
0002c0 fc af 3b 3e 04 d9 9c 3e 1c 01 80 3e 58 dc c2 3d
       0.18328851 0.3063432 0.25000846 0.095146835
0002d0 e0 d2 f8 3d ab b7 6f 3e 08 7e 1b 3e 7a 6b 34 3e
       0.12149596 0.23409908 0.15184796 0.17619124
0002e0 24 00 e5 3d a6 fc b5 3d d7 35 a0 3e 6a 5c c7 3d
       0.111816674 0.088860795 0.31291077 0.097344235
0002f0 39 26 ca 3d d8 f7 57 3e
       0.09870572 0.21090639
