model.pth (torch, 37236 bytes, 6 tensors)

weight f4 [64, 1]
000000 21 a3 08 3e f2 c4 ea 3e ac c9 d5 3e 90 6c a8 bd
       0.13343479 0.45853382 0.41755426 -0.08223832
000010 71 84 0c 3f 06 b2 46 3e 40 33 b6 bd 90 7e 8f bd
       0.5488959 0.19403848 -0.08896494 -0.07006562
000020 d8 4d 4d bf 82 4d 3c bf 08 57 4f bf 3e 14 59 bf
       -0.80196905 -0.7355577 -0.80992174 -0.8479651
000030 20 83 3b bd 42 10 91 3e a1 7a fc 3e 04 3f 16 bf
       -0.045779347 0.28332716 0.49312308 -0.58689904
000040 e4 51 25 bf a2 d6 04 bf 7c bd ea be 98 2e 70 bf
       -0.6457808 -0.51890004 -0.4584769 -0.93821096
000050 a8 a8 32 bf 9d 18 18 3f 30 ed 37 3f e9 7e 01 3f
       -0.697886 0.59412557 0.71846294 0.50584275
000060 00 f5 e0 bd ec 7b bf be c4 f0 4e bf 0a b4 6c bf
       -0.1098423 -0.37399232 -0.8083613 -0.9246222
000070 86 49 9d 3e 06 5c 1c bf 00 aa 47 be f7 70 79 3f
       0.30720156 -0.61077917 -0.19498444 0.97437996
000080 1e c7 0b bf df 52 a0 3d 9e 32 7a 3f 04 95 57 3f
       -0.54600704 0.078283064 0.97733486 0.84211755
000090 12 21 70 bf dc 8b c6 be 45 62 62 3f 20 c0 1e bf
       -0.9380046 -0.3877858 0.884312 -0.6201191
0000a0 0d ed 12 3e 88 6a 5f bf 60 57 e8 bd 02 bf 2b 3f
       0.1434824 -0.8727193 -0.113447905 0.6708833
0000b0 c2 23 6a bf 72 46 5d bf 02 87 d4 3d 03 c9 0e 3f
       -0.9146081 -0.86435616 0.10377313 0.5577547
0000c0 84 bb 5b 3f 17 ea a1 3e 58 cd 16 be b6 29 6b bf
       0.85833 0.3162391 -0.1472677 -0.9186052
0000d0 f5 7f 77 3f e0 90 66 bd 14 23 36 bf dc 13 f7 3e
       0.9667962 -0.056290507 -0.71147275 0.4825734
0000e0 5e 27 39 3f 64 1b f5 be 5f 63 e0 3e 06 6d 52 bf
       0.72325695 -0.4787246 0.43825814 -0.82197607
0000f0 ce a8 0b bf 41 70 81 3d d8 9a 2a 3f cc 58 e0 be
       -0.5455445 0.06320239 0.6664252 -0.43817747

bias f4 [64]
000000 49 34 86 3f aa 96 e3 3c df 5d 31 bf ce d6 2a 3f
       1.0484706 0.027781803 -0.6928386 0.66734016
000010 37 6f 8f bf 27 b8 87 bf d4 69 30 3f a0 6e f8 3d
       -1.1205815 -1.0603074 0.6891148 0.12130475
000020 b8 46 5f 3f 28 2b d4 3e 18 28 4f bf 00 bc a1 3c
       0.87217283 0.41439176 -0.80920553 0.019742966
000030 00 32 05 3b 68 a9 a1 3e ae be 5b 3f 10 c6 6d be
       0.0020323992 0.3157456 0.8583783 -0.23220086
000040 7c c0 92 be ac ff 52 bf 7a c4 65 bf 80 0b b2 bd
       -0.2866248 -0.82421374 -0.89752924 -0.086936
000050 d6 c4 57 3f a7 f2 49 bf f3 a7 43 bc c8 fe 39 3f
       0.8428472 -0.78885883 -0.011941898 0.7265439
000060 72 cd 51 3f d0 e2 f5 be 3e c2 45 3f fc e6 fa 3e
       0.8195411 -0.48024607 0.77249515 0.49004352
000070 80 5f 5a 3d a2 4d 4e 3f 9e f8 5d bf 0c 3c 6c 3f
       0.053313732 0.8058721 -0.86707485 0.92279124
000080 a0 c6 93 bd 6e 87 8d bf dc 97 43 be 62 99 9c 3d
       -0.07215619 -1.1056955 -0.19100899 0.07646443
000090 1a a4 48 3f f0 6f 95 be e9 55 32 3f a0 9a 13 be
       0.783754 -0.29186964 0.6966234 -0.14414454
0000a0 4d 80 92 3f 96 b5 22 3f 9c ad 57 3f 85 00 17 bf
       1.1445404 0.6355833 0.8424928 -0.5898517
0000b0 4c f3 b0 3e d4 b9 72 bf d7 ed 22 be cc bc 7a bf
       0.3456062 -0.948148 -0.15911041 -0.9794433
0000c0 88 a1 58 bd 02 9d 73 bf c0 c3 4a bd 74 fc 1c bf
       -0.052888423 -0.9516145 -0.049503088 -0.6132271
0000d0 df 89 89 bf 94 8b 8f 3e 44 65 af 3e 95 13 45 3f
       -1.07452 0.28036177 0.34256947 0.76983005
0000e0 77 9a 9e bf 26 b4 3a 3f 80 c5 3c 3f 6c 6d 53 bf
       -1.2390889 0.72931135 0.7373886 -0.8258884
0000f0 9c f0 e8 be 0f d4 3b bf fc 28 22 be 68 4a 7a 3f
       -0.4549607 -0.7337045 -0.15835947 0.97769785

weight f4 [32, 64]
000000 f2 f1 a8 bd 5b 20 be bb ed 2f f0 3d 7e 1d 88 bd
       -0.082492724 -0.005802197 0.11727891 -0.0664625
000010 17 39 5f bc ab 06 2b 3e f6 3a fb 3d 00 68 ee bb
       -0.013624451 0.16701762 0.12267105 -0.0072755814
000020 30 78 3d 3c f8 77 87 bc 94 a3 4b bd 5a 63 92 3d
       0.011564299 -0.016536698 -0.049716547 0.07147856
000030 c2 04 ea bd 07 b9 bb 3d c4 2d a0 bd 68 39 f4 bd
       -0.11426689 0.091661505 -0.07821229 -0.11925012
000040 dc ba 72 3d 8e 41 dc bd b4 8c 58 3d 48 87 b3 3c
       0.059260234 -0.10754691 0.05286856 0.021915093
000050 2c 34 1e bd 7b b9 07 bd 07 5d 9c 3c 0c 72 3c 3d
       -0.038623974 -0.033135872 0.019087328 0.0460072
000060 0c ca e6 bd 68 6c 1c bd c8 b0 a4 bc 6c c4 2a 3d
       -0.11269006 -0.03818932 -0.020103827 0.04169123
000070 29 a0 e3 3d 8c 61 a1 3d a8 a0 c0 3d f1 c2 a4 bd
       0.111145325 0.07879934 0.09405643 -0.080449946
000080 5c 05 90 3d 08 d7 17 3e 6b 1c 88 bd 49 a5 62 bd
       0.07032272 0.14828122 -0.06646045 -0.05533341
000090 3a 90 d7 bd 58 fb 1c 3d 25 54 b2 bc fc 4b 30 bd
       -0.10525556 0.038325638 -0.021768639 -0.043041214
0000a0 f0 45 2f 3d fc 19 ea bd 54 c1 35 bd 6c b0 d1 3d
       0.042791307 -0.114307374 -0.044373825 0.10238728
0000b0 96 8b c9 bd 48 4a c8 bd 6b 25 c2 3d 87 2f 00 bd
       -0.09841077 -0.09779793 0.09479793 -0.031295326
0000c0 6e a8 2a 3d 05 71 5e 3d cc 35 83 bd a6 0c e8 3d
       0.041664533 0.054307003 -0.06406745 0.113305375
0000d0 a6 6a 72 3d c0 25 c0 bd fe 1c a3 bd 31 07 a5 bc
       0.05918374 -0.093822 -0.07964514 -0.02014503
0000e0 ec f4 d5 3d da 97 8c bd ed 88 ff bd 40 c9 72 3d
       0.10447106 -0.06864901 -0.124772884 0.05927396
0000f0 80 85 9f 3b c7 32 b6 3d cc b1 48 bd c8 1f a8 bd
       0.0048682094 0.08896404 -0.048997685 -0.08209187
000100 48 a8 bd bc 74 0b 1d 3d 70 43 19 3c f2 75 fc bd
       -0.023151532 0.038341 0.009354457 -0.12327184
000110 ac 45 8e 3d 60 4c 24 bc 90 19 06 3c 6e 3d ce bd
       0.069468826 -0.010027975 0.0081848055 -0.100703105
000120 e4 0a 5a bd f8 d5 f2 3d 92 62 da bd 54 72 41 bd
       -0.053233042 0.118572176 -0.10663332 -0.047228172
000130 4c e5 75 3d c0 a2 a1 bb 98 e4 c3 bc 90 98 d9 bc
       0.060033128 -0.0049327314 -0.023912713 -0.026562005
000140 46 7a 9c 3d 12 8e 8c 3d 98 8d a5 bd f0 95 58 bd
       0.07640509 0.06863035 -0.080836475 -0.052877367
000150 90 6d 58 bc bc 7c 32 bd 9a 17 9d bd 84 ec 75 3d
       -0.0132097155 -0.043575987 -0.07670517 0.060040012
000160 6e 1a ef bd e8 8e ad bc 28 88 9e 3c 30 8f 1b bd
       -0.11674963 -0.021186307 0.019352034 -0.03797835
000170 fc 84 ae 3d 42 40 fa 3d ec 1c 79 bd ea 50 f2 bd
       0.085214585 0.122192875 -0.060818598 -0.118318394
000180 fe dc 84 bd ec d9 ba bd 38 80 da bc 28 a2 67 bd
       -0.064874634 -0.091235965 -0.026672468 -0.05655113
000190 10 ab 3f 3c a8 1d 07 bd 40 65 b8 3b b8 39 25 bd
       0.011698499 -0.032987267 0.0056273043 -0.040338248
0001a0 74 b9 be 3d 28 33 15 3d 08 a7 e2 3c f0 15 cf bd
       0.09312716 0.03642574 0.027667537 -0.10111606
0001b0 00 3b e3 3b 0c 7f 57 3d 80 5f 5f 3c a4 bb 40 bd
       0.0069345236 0.052611396 0.013633609 -0.047053948
0001c0 20 83 76 bd 94 34 72 3d b2 5d e4 bd 34 e7 55 bd
       -0.060183644 0.059132174 -0.111506835 -0.052222446
0001d0 46 87 e0 bd 82 9a cc bd 50 39 e7 3c f6 31 ed 3d
       -0.10963301 -0.099904075 0.02822557 0.11581795
0001e0 fc 1f 5b bd c0 7c b2 3b a4 25 32 bd 08 da 62 bd
       -0.0534973 0.0054470003 -0.04349293 -0.055383712
0001f0 70 37 e9 3d b4 0f 5c 3d e8 40 db bc f6 ea 98 3d
       0.11387527 0.053725913 -0.026764348 0.0746669
000200 28 4d 90 bd 85 98 91 3d 43 4c 8b 3c ce 2d fd bd
       -0.070459664 0.07109169 0.017004138 -0.12362252
000210 2c c6 65 bd 79 3b 19 bd c0 d0 29 bc 2c e0 07 3d
       -0.056097195 -0.037410233 -0.010364711 0.03317277
000220 2a 95 87 3d f0 c6 e6 bc 80 98 04 bd 80 11 b4 3d
       0.06620248 -0.028171033 -0.032371998 0.087924
000230 00 48 6e b9 7e e5 c0 3d a8 15 8e 3d 80 01 24 3c
       -0.00022724271 0.09418772 0.06937724 0.010010123
000240 1e 42 dc bd 20 6c 39 3c b0 d3 f2 bc 54 4e 70 3d
       -0.10754798 0.011317283 -0.029641956 0.05866845
000250 14 f5 fc bd 7e a3 17 bb 96 de ea bd 3c 02 d6 3d
       -0.123514324 -0.002313822 -0.11468236 0.10449645
000260 d4 ef a6 3d cc fd ec 3d 80 32 5f bc d0 f2 1f 3c
       0.08151212 0.115718454 -0.01362288 0.009762481
000270 ee c2 3d bc b8 83 e0 3d 4e de e9 bd d4 8d 6e bc
       -0.011582119 0.10962623 -0.114193544 -0.014560182
000280 00 aa 45 3b 72 a0 89 bb 7c a7 0a 3d c0 d4 5d bd
       0.0030161142 -0.004200035 0.03385113 -0.054157972
000290 1c ab 44 3d 5c 12 4d 3d 4e 29 ff bc e0 5d 1f bd
       0.048014745 0.050066337 -0.031147625 -0.038907886
0002a0 29 ed e6 3d 06 99 9c bd 42 0f f9 3d d6 26 c8 bc
       0.112757035 -0.076463744 0.12161113 -0.02443258
0002b0 8a 3f ce 3d 98 c7 5c bd 98 e5 37 3c ce 82 46 bd
       0.10070713 -0.053901285 0.011224173 -0.04846459
0002c0 03 4d 9a bd 0b 5e 3b 3d b4 e4 d8 3d 34 58 cc bd
       -0.0753422 0.045743983 0.10590497 -0.09977761
0002d0 76 d4 b4 3d 18 2f 12 3d e0 80 54 3d cf 17 f3 bc
       0.08829586 0.035689443 0.051880717 -0.029674439
0002e0 a0 a0 00 be 18 bd 97 3d ed 09 d3 3d 7e a6 c7 3d
       -0.12561274 0.07409114 0.103046276 0.09748553
0002f0 e8 a0 70 3d 9d a3 b0 3c 75 34 c0 3d 00 d3 1d bd
       0.058747202 0.021562392 0.093850054 -0.038531303
000300 98 3a bd 3d bc 21 f0 3d 20 ae 62 3d 40 93 e8 bc
       0.092396915 0.11725184 0.05534184 -0.028390527
000310 68 54 89 3d 38 a8 06 bd f0 13 35 3c 3a 0a b3 3d
       0.06705552 -0.03287527 0.011052117 0.08742185
000320 c0 23 cd 3d c4 ee 07 bd f0 2e a4 bc fc 27 69 3d
       0.100165844 -0.03318669 -0.020041913 0.056922898
000330 5c ee c7 bd ec 02 d1 3d ac 4b bb bd b4 8b 76 3d
       -0.0976226 0.102056354 -0.09145293 0.060191825
000340 32 a6 87 bd a6 7f 95 bd 24 bd 65 bd 80 f9 4d 3b
       -0.06623496 -0.07299738 -0.05608858 0.0031429231
000350 b0 52 7f bc d8 c0 eb bc c0 c9 1e bb c8 0c 02 3d
       -0.015583679 -0.028778479 -0.002422914 0.03175047
000360 70 1c 4f 3c ec 32 15 bd e4 ba b0 3d e0 c1 81 3c
       0.012641057 -0.036425516 0.086293966 0.015839517
000370 02 9f 9f bd ca 21 e0 3d 0c 43 01 bd 58 8a 72 bd
       -0.07794 0.10943945 -0.03155808 -0.059213966
000380 a0 b0 e1 3d 8a a4 d5 3d 34 12 37 3d c8 b7 d4 3d
       0.11020017 0.10431774 0.044695094 0.10386616
000390 80 13 47 3d 34 44 eb 3d ae b3 a7 bd f6 f6 ec bd
       0.04860258 0.11487618 -0.08188568 -0.115705416
0003a0 ca d5 e8 bd 76 4c 88 bd c0 37 68 3d 4e af cb bd
       -0.11368902 -0.06655209 0.056693792 -0.09945546
0003b0 a8 60 ac 3c e0 09 d0 bb 0a 1d ca bd c6 eb b6 bd
       0.021042183 -0.0063488334 -0.0986882 -0.08931689
0003c0 e4 dc 75 bd aa 4b e9 bd f6 50 d7 bd 90 34 bb 3c
       -0.06002511 -0.11391385 -0.10513489 0.022852212
0003d0 48 3a e1 3c 4a 8c bc bd 14 0f d0 3d 18 d3 be bd
       0.027493611 -0.092064455 0.10159126 -0.09317607
0003e0 fa 93 b3 3d 88 da bb 3c 76 28 b2 bd e0 97 c0 bb
       0.08768459 0.022931352 -0.086991236 -0.00587748
0003f0 50 cd 17 bc de 19 d9 bd 86 aa e6 bd 3a 9d e9 bd
       -0.009265259 -0.10600637 -0.112629935 -0.11406942

bias f4 [32]
000000 21 0b 67 be c0 2d 8f bd ed 58 f8 3c 82 39 c5 3d
       -0.22562839 -0.06991148 0.03031584 0.09630109
000010 5c 5c d8 3d 0b 41 aa be ce 45 d9 bd 90 b8 c6 3c
       0.10564491 -0.3325275 -0.10609017 0.024257928
000020 d3 d3 af 3e d8 97 72 3d 48 f1 90 3c 82 4e d9 3d
       0.34341297 0.05922684 0.017693177 0.10610677
000030 65 0f fb 3d 18 99 49 3d ae dc 1d bb 23 21 7e 3d
       0.12258796 0.049218267 -0.0024087834 0.06204332
000040 78 7b a8 3d fe 08 91 bd da 04 c5 bd 31 c3 f8 3d
       0.08226675 -0.07081793 -0.09620066 0.12146605
000050 98 9e f9 3c 50 ac e6 3c 7e 3b fb bd fb 7d d7 3d
       0.030471131 0.028158337 -0.122672066 0.10522076
000060 c8 e5 80 3e 63 1d f2 3c a0 32 59 3e ae 1c 17 3e
       0.2517531 0.029555028 0.21210718 0.14757034
000070 fb 49 aa 3d ee 46 89 3e d0 19 83 3d 74 e7 a0 bc
       0.08314892 0.26811928 0.06401408 -0.019641615

weight f4 [190, 32]
000000 a5 87 99 3b ce 07 c5 bd f3 ca 07 3e 8a 62 d9 3d
       0.0046853595 -0.09620629 0.13261013 0.10614498
000010 12 15 0d 3e 27 83 39 be b2 65 56 bd 9a c0 d8 3d
       0.13777569 -0.18116437 -0.052343078 0.10583611
000020 05 d5 1b bd 54 ad f9 3d 37 6e 5c 3d 01 3a 2a be
       -0.038044948 0.12191263 0.053816047 -0.16623689
000030 7c 2e 15 bb 10 12 d7 3d 31 df 2d be f0 ab c7 3d
       -0.0022763303 0.10501492 -0.16979672 0.09749591
000040 a4 93 2c 3e 1f 40 29 3d 49 fd 89 3d 3c 8e 33 be
       0.16853195 0.041320916 0.067377634 -0.17534727
000050 f4 73 8f 3d dc ab 07 bc b7 08 81 3c e1 f0 01 be
       0.07004538 -0.008280721 0.015751226 -0.12689544
000060 3b ca e3 bd 4e c3 6d bc d1 a7 9e 3d dd cb 6f bd
       -0.11122557 -0.014511896 0.07746852 -0.05854403
000070 d4 d9 8e 3d 8a f3 13 bd 3a ca 1d be ed 0a 9a bd
       0.06975141 -0.03612093 -0.15409175 -0.07521615
000080 d1 6b 5e be 13 26 63 bc a1 d4 88 bc 19 a6 eb 3d
       -0.21720816 -0.013864058 -0.016702952 0.1150629
000090 93 94 b0 3d 74 4b 61 bd fd 31 c3 bd 35 d6 ab bd
       0.08622088 -0.0550036 -0.09531019 -0.08390466
0000a0 bf a8 2a be fd 50 44 bc 0a 11 05 be 36 5a d5 bc
       -0.16665934 -0.0119822 -0.12994781 -0.026043992
0000b0 1a 1b 93 3d 74 95 81 3d 6c 20 06 3d b6 59 1f be
       0.071829036 0.06327334 0.032745764 -0.15561566
0000c0 91 fd 97 3d 7e e4 2b 3e b3 ee de 3d 23 c6 e2 3d
       0.07421411 0.16786382 0.10885372 0.11072948
0000d0 7b 10 92 3d 89 ae f2 bc eb 0b 10 3e 71 e4 00 3d
       0.0713205 -0.02962424 0.14067046 0.03146786
0000e0 1c 03 f2 bd b2 3d 0c bd 4c 90 02 3e 34 7d b7 3d
       -0.11816999 -0.034238525 0.12750357 0.089594275
0000f0 df 78 a7 3d 18 b5 54 bc 48 04 1d bd e9 00 32 3e
       0.08177351 -0.012982629 -0.03833416 0.1738316
000100 d5 62 9c 3d 8f 1f 45 3d d1 27 0e 3e dc d9 03 3e
       0.07636038 0.0481258 0.13882376 0.12876076
000110 b6 1b 00 be 55 1d 90 bc c7 ed a6 bd 8b 4b 6d bc
       -0.12510571 -0.017592112 -0.08150821 -0.014483343
000120 01 b2 cc bd 8b 38 5f 3d 70 1e d9 3d 7d ca d2 bd
       -0.09994889 0.054497283 0.106015086 -0.10292528
000130 0e b2 05 3e 6b ec 1d bd 20 f6 fe bb 8c 36 15 3d
       0.13056204 -0.038555544 -0.007780805 0.036428973
000140 80 71 a0 bd da 65 27 3d 5a 3f 30 be 2e b3 c8 3d
       -0.078341484 0.040868618 -0.17211667 0.09799801
000150 05 e6 50 3d d6 14 76 bd fd cd ad 3d a5 f4 f2 3d
       0.051000614 -0.060078464 0.08486555 0.118630685
000160 05 50 ff 3d 56 2a f6 bd 6f 05 30 3d 2b a0 18 be
       0.124664344 -0.12019794 0.042973932 -0.14904849
000170 4d 4b 9b 3d e5 da 91 3d 10 93 21 be cd a8 27 be
       0.07582722 0.07121829 -0.15778756 -0.16372986
000180 70 29 b2 bd 1d 69 ad bd 51 40 da bd 20 3c 9c 3d
       -0.0869931 -0.084673144 -0.10656799 0.076286554
000190 63 66 23 be d3 52 09 3e ee 2d 00 be 2b ad 03 be
       -0.15957026 0.13410501 -0.12517521 -0.12859027
0001a0 e7 0f 19 bd 30 2a 8a bb 0b c4 03 3e 21 27 79 3d
       -0.03736868 -0.004216455 0.12867753 0.06082833
0001b0 55 6b 51 3c 93 77 a9 bd 7c b5 0d 3e 1d ad 1f bd
       0.012781938 -0.0827476 0.13838762 -0.038983453
0001c0 83 e6 e4 3c f7 a0 d5 bd 8e a8 29 be 48 67 13 3d
       0.027941948 -0.10431092 -0.16568205 0.03598717
0001d0 47 57 07 3e 64 e1 52 bd 4b 05 95 3b e4 9b 28 be
       0.13216887 -0.05148448 0.00454775 -0.16465718
0001e0 9a 66 de bc ac 65 2a 3e 18 0f 24 bd 38 08 89 bd
       -0.027148534 0.16640347 -0.040053457 -0.06691021
0001f0 e0 e4 69 bd a3 9e cc 3d 7a e4 19 3d 11 b0 04 be
       -0.057103038 0.09991195 0.037571408 -0.12957789
000200 ec 4f 7d be b6 23 30 3d 11 c0 bd 3c 88 5c 00 bd
       -0.24737519 0.043002807 0.023162873 -0.031338245
000210 3a 76 ab bd 84 03 78 bd 6d 2b d2 3d 74 a9 80 3d
       -0.08372159 -0.060550228 0.10262189 0.062823206
000220 92 2d 59 3d a9 1c 16 3d 93 db 21 3e 66 6e 1d 3e
       0.053021975 0.036648426 0.15806417 0.15374145
000230 c6 a5 e0 bc 68 60 0e 3e 8c e7 31 3e ca e6 eb 3d
       -0.027422797 0.13903964 0.17373484 0.11518629
000240 1b b3 6a bd 0f e3 0d be d0 6e 7d 3b 55 b7 78 bd
       -0.057299715 -0.13856147 0.0038670786 -0.060721714
000250 bf 6b bd bc d6 24 0e be bf 3a 26 3e 28 38 3b be
       -0.023122666 -0.1388124 0.16233347 -0.1828314
000260 79 84 87 3d 9c bc fc 3d 03 13 80 bd 13 16 24 be
       0.06617064 0.12340662 -0.06253626 -0.16024046
000270 ec dd 7d 3c 22 98 9e 3c bc 77 d0 3d b2 38 27 be
       0.015494805 0.019359652 0.101790875 -0.16330221
000280 fa fd 46 bd 71 04 39 3d 64 e4 af 3d 0f 7a a5 3c
       -0.048582055 0.04517025 0.08588484 0.020199804
000290 32 0a 0c 3e a4 73 ce 3d da 69 32 be 67 4c a2 3c
       0.13675764 0.100806504 -0.17423192 0.019811822
0002a0 65 fb 35 3d 8d 7c 26 bd 07 52 01 3e 71 dc bb 3d
       0.0444292 -0.040646125 0.12628947 0.09172905
0002b0 dc 98 15 3d 36 31 17 3e 22 97 26 be e0 56 30 3d
       0.03652273 0.14764866 -0.1626859 0.0430516
0002c0 04 e2 be bd 0b 20 2c bd a4 81 2d bd e1 66 ba 3c
       -0.09320453 -0.042022746 -0.042359963 0.022754135
0002d0 8b 4b 1c 3e 71 23 55 bd 36 b0 ec bd cc f0 94 bd
       0.15263192 -0.052035753 -0.11557047 -0.07272491
0002e0 42 b2 14 be 4f dd f7 bd f1 29 51 3d 27 1f 6b bd
       -0.14521125 -0.12102758 0.05106539 -0.057402756
0002f0 0d ff 11 be 79 8a cb 3c 49 0b f3 bd 83 ce c6 bc
       -0.1425745 0.024846302 -0.11867387 -0.024268394
000300 7c aa 12 bd 13 66 1d 3e ca 81 14 3e db 7b 02 3d
       -0.035807118 0.1537097 0.14502636 0.0318564
000310 26 67 8b bd b2 54 0c bd ac 04 18 3e 63 50 98 3c
       -0.068067834 -0.03426046 0.14845532 0.018593019
000320 73 59 72 3d c7 74 b6 3c 6c 47 33 3e e0 cd 0f be
       0.059167337 0.02227248 0.17507714 -0.14043379
000330 f4 b9 51 3d f6 8e ce 3d c1 8c 17 3e 9d 20 25 3e
       0.05120273 0.100858614 0.14799787 0.16125722
000340 78 35 26 be 98 99 9c 3d 2f d3 97 3c 49 33 7e 3d
       -0.16231334 0.07646483 0.018533317 0.062060628
000350 2b 80 62 3d 1d e8 16 3e d7 89 83 3c e0 ad 29 be
       0.05529801 0.14736982 0.016056938 -0.16570234
000360 ea c3 7e bd ab fc 25 be 9a d7 07 bd 12 09 f5 bd
       -0.062198557 -0.16209666 -0.033164598 -0.11964621
000370 bc f3 3c bd 3a 97 33 bd 96 f5 22 be f5 a9 07 3c
       -0.04613088 -0.043845393 -0.15913996 0.008280267
000380 8c 20 b1 bd 0c 94 98 3b b4 b3 84 3d 9b aa 1c 3e
       -0.08648786 0.0046563204 0.06479588 0.15299456
000390 30 fa 25 be 8a 25 04 3e 27 2c 05 bc fd d4 22 3e
       -0.1620872 0.12904945 -0.0081282025 0.15901561
0003a0 07 4d 87 bd db 04 08 3e 48 28 09 3e 6d 52 5d 3d
       -0.06606489 0.13283102 0.13394272 0.054033685
0003b0 b1 0a 90 3d 6d ff 14 3e bc c3 4f bd 17 4e 1f be
       0.07033289 0.14550562 -0.050723776 -0.15557133
0003c0 c9 cc fa 3d 99 5e 78 bc b9 9b e9 3d 8b ea d3 3c
       0.12246091 -0.015159273 0.11406655 0.025868675
0003d0 7e d8 a9 bd b6 e0 2d be e4 4e 41 bd 16 c1 23 3d
       -0.08293246 -0.16980252 -0.047194377 0.039979063
0003e0 d2 21 9f bc 56 c4 f5 bd 7d f8 ae 3d 1b 9d 3a be
       -0.019425306 -0.12000339 0.08543489 -0.18223993
0003f0 8b 1f 19 3d 75 6f bf bd 46 ca c2 3c 4c bf 2d 3e
       0.037383597 -0.093474306 0.023778092 0.16967505

bias f4 [190]
000000 9f 3f ea bd a9 2f e1 3b 0a a3 06 3d 53 cf 0d 3e
       -0.11437916 0.0068721366 0.03287033 0.13848619
000010 93 76 53 bd c0 96 17 be 7f eb 10 3c 58 ad fa bc
       -0.051626753 -0.148036 0.008845209 -0.030600235
000020 5e 2e 6a 3c bc bf 03 bd 43 2e e3 bd f0 23 77 bc
       0.014293281 -0.032165274 -0.11092808 -0.015084252
000030 91 90 26 3e 75 b9 c0 bd 30 f5 aa bd 96 94 28 be
       0.16266085 -0.09410373 -0.08347547 -0.16462931
000040 78 8c f6 3d 6a e7 43 be f8 0d 85 3d 99 9c d1 3d
       0.12038511 -0.19131246 0.06496805 0.10234947
000050 e3 1a ef 3d 46 39 c4 bd 2e 96 dd bd 6d 8e 3d be
       0.1167505 -0.095812365 -0.1081966 -0.18511362
000060 54 11 99 3d 0f 65 14 be e5 ae c5 bd 6b 77 b5 bd
       0.07474008 -0.14491676 -0.09652499 -0.08860668
000070 f1 92 ad 3b 70 6b 13 3e c1 b7 8e bc 7b 3f 5f 3d
       0.005297058 0.14396453 -0.017421605 0.0545039
000080 a1 5e e6 3c e8 97 4c be c4 b4 1e bc 39 22 9a 3d
       0.028121294 -0.19979823 -0.009686653 0.07526059
000090 eb 89 b8 bd 32 7d 17 3e ca cb e3 3d d4 ba 12 be
       -0.09010681 0.14793852 0.11122854 -0.14329082
0000a0 c8 91 f4 3d 12 b6 01 3e ba 3d f6 3c ed 1e 1d 3e
       0.11941868 0.1266711 0.03005873 0.15343828
0000b0 50 78 38 3e 9b 70 db bd 20 9c 1a 3c 67 47 c1 3e
       0.18014646 -0.10714837 0.009436637 0.37749788
0000c0 d1 30 e9 3d b0 b7 1c be 25 fc b6 3e 26 3a 35 3e
       0.11386264 -0.15304446 0.35739246 0.17697963
0000d0 ca 40 b1 3e 22 00 48 3e ad 43 04 3e d3 c3 00 3e
       0.34619743 0.195313 0.12916441 0.12574701
0000e0 76 5c 68 3e b9 3e 14 be e0 40 6a 3e fb f9 48 3d
       0.22691521 -0.14477052 0.2287631 0.049066525
0000f0 23 6d 07 be eb b1 f1 3d b2 04 bb 3d 66 1b 62 3e
       -0.13225226 0.11801513 0.09131755 0.22080764
000100 a6 a9 9b 3e dc 31 a5 3e 83 b7 0d be 25 81 5a 3e
       0.3040287 0.32264602 -0.13839535 0.21338327
000110 39 85 14 3e b4 24 e8 3d 55 f9 93 bd e7 8a a4 bd
       0.14503945 0.113351256 -0.07225291 -0.08034306
000120 a5 a9 32 3e c2 2c 92 3e f9 d2 fa bd ad 8f bb 3d
       0.17447527 0.28549773 -0.12247271 0.09158263
000130 8d bb ae bd 74 ad d4 bd 1f 51 7c 3e 72 1f 84 3d
       -0.08531866 -0.10384646 0.2464032 0.0645131
000140 e5 8c ef bc 57 8a ef 3d 14 db 16 3c 83 0b a5 bc
       -0.029241988 0.11696308 0.009207506 -0.02014709
000150 28 b4 2d 3e 65 93 cd 3c 33 31 7a 3d fc 47 53 3d
       0.16963255 0.025094697 0.061082076 0.05158232
000160 56 d9 01 be a3 c3 4c 3e 35 a4 27 3e 0a 65 45 3c
       -0.12680563 0.19996504 0.16371234 0.012048015
000170 bd 5b 1e 3c 8f f3 21 3e 95 d0 bc 3d 89 e5 19 3c
       0.009665427 0.15815566 0.09219471 0.009393104
000180 86 1a 3b 3e 95 b6 22 be 27 3b 50 3e a1 c1 d1 3b
       0.18271837 -0.15889962 0.20335065 0.006401256
000190 d2 95 a0 3e 65 6e c2 bd a0 7b f1 bd e8 ac 0f 3e
       0.31364304 -0.09493712 -0.11791158 0.14030802
0001a0 21 a5 d5 3d 7b d3 e8 3d 34 65 b1 3d 6b 40 9f 3b
       0.104318865 0.11368462 0.08661881 0.004859974
0001b0 0e df cc 3e e4 bc d6 bd 22 4b cc 3d 8d 72 b3 bd
       0.40013927 -0.10485247 0.09975268 -0.08762083
0001c0 5e fe 79 3e 81 4e 71 3d 23 f3 66 3e b9 93 08 3e
       0.2441344 0.058912758 0.22553687 0.13337602
0001d0 af 3b d6 3d f3 42 0e be e3 39 08 3d aa 08 44 3e
       0.104606025 -0.13892727 0.03325833 0.1914393
0001e0 0c 93 bb 3e 19 a2 86 bd cc 2c 66 3e b3 70 f1 bd
       0.36635625 -0.065738864 0.22478026 -0.11789074
0001f0 c8 f7 a3 bd 73 22 08 be 86 1a 7b 3d 5a 02 eb 3d
       -0.08006245 -0.13294391 0.06130459 0.11475058
000200 9e 81 59 3e 17 ce 9a 3e e4 98 aa bc e9 cd 73 3e
       0.21240851 0.3023536 -0.020824857 0.23809017
000210 a6 bc 9d 3e 6d ac 96 3d ce 00 a3 3e 48 d5 ae bb
       0.3080799 0.07357106 0.3183655 -0.0053354837
000220 c2 12 6a 3e 0c 3e 88 3e b2 4b 07 be 15 a8 94 3e
       0.22858718 0.26609838 -0.13212469 0.29034486
000230 88 36 a1 bd fc 0c 98 3e ea a7 69 3d 3c fb 5f 3e
       -0.07871729 0.29697406 0.0570449 0.21873182
000240 b3 9f 40 3e b4 6e 3f 3e e1 55 65 3e 3c 94 a7 3d
       0.1881092 0.18694574 0.22396041 0.0818257
000250 42 b3 3e 3d 37 d4 da bd 97 4c 9c 3e d6 ab dd bd
       0.046557672 -0.10685008 0.30527183 -0.10823791
000260 9a db 4d 3e 60 ef be 3d 64 c7 51 3e 2d cf 24 be
       0.20103303 0.09323001 0.20486218 -0.16094656
000270 46 c9 5d 3e 93 9c 24 3e cb 21 af 3c 81 12 7a 3e
       0.21658811 0.16075353 0.021378418 0.24421121
000280 8f e0 9e bc 5b fb 04 3e b3 39 2c bd 45 7f 76 3c
       -0.019394187 0.1298651 -0.042047214 0.015044992
000290 0b 30 7b 3e 41 e0 45 bc 0d c2 69 3e af f1 92 3c
       0.24530046 -0.012077392 0.22827931 0.01793751
0002a0 17 1d 91 bb f5 4b ea bd 25 67 16 3e 28 2c 74 3e
       -0.0044285166 -0.11440269 0.14687784 0.2384497
0002b0 46 57 19 3d a5 ae 17 3e 32 61 20 3e d0 72 b7 3d
       0.037436746 0.14812715 0.15662077 0.089574456
0002c0 19 9d 58 3e 81 de 27 3d 98 18 02 3d 46 99 db 3d
       0.21153678 0.04098368 0.031761736 0.10722594
0002d0 19 82 9e 3c 82 8b 66 3e 05 f6 89 3e 57 86 4c bd
       0.019349145 0.22514156 0.2694551 -0.049932804
0002e0 8a 82 53 3e b2 99 b9 bd 1e 1a 2d 3e 0e 49 69 3e
       0.20655265 -0.09062518 0.16904494 0.22781774
0002f0 61 95 71 3e 3d 1a ab bc
       0.2359214 -0.020886535
