model.pth (torch, 70452 bytes, 6 tensors)

weight f4 [64, 1]
000000 88 0f 0f 3f 31 08 4c 3f 8a e9 5f 3f a8 90 6b 3f
       0.55883074 0.797 0.8746573 0.920176
000010 98 a7 70 bf a3 ed 9e 3e 90 88 85 bd c8 94 40 bf
       -0.9400573 0.31040677 -0.06520188 -0.7522702
000020 2c bf 76 3e 2c 41 59 3e 50 1a 57 bf 3c 79 5c bf
       0.24096364 0.21216267 -0.84024525 -0.8612249
000030 3b 4c 8c 3e b4 1d 3f bf 78 64 5a be dd e0 dd 3e
       0.2740191 -0.746547 -0.21327388 0.4333562
000040 23 1e 3b 3f a0 dd ab be cf a4 61 3f 88 87 ff 3e
       0.7309286 -0.33567524 0.881421 0.4990809
000050 7e 10 47 bf 48 f9 1c be 16 d2 cd 3e bf 00 1a 3f
       -0.7775954 -0.15329468 0.40199345 0.6015739
000060 54 cb c3 be be a7 31 bf 92 1d 1f 3f ea 61 0b bf
       -0.38241065 -0.6939658 0.62154496 -0.5444628
000070 b7 fd 50 3e 19 fc 41 3e 04 da c5 3d f8 72 86 be
       0.20409285 0.18943824 0.09660724 -0.2625959
000080 f2 96 41 3f 3c da 11 3f ee d3 5d bf 33 93 f6 3e
       0.7562095 0.56973624 -0.86651504 0.4815918
000090 f0 ae 52 3e f5 74 25 3f a0 85 98 be 70 fe f9 bd
       0.20574546 0.6463159 -0.29789448 -0.12206733
0000a0 56 9c 44 bf f3 71 38 bc f0 61 59 3f 4e 8d 3a bf
       -0.7680105 -0.011257636 0.84915066 -0.72871864
0000b0 58 7b b5 3e 20 97 9e be 15 e8 62 3f 2d 98 66 3e
       0.35445666 -0.30974674 0.8863538 0.22518988
0000c0 9e 7b 2d 3f 58 fc 06 be 58 62 5e be 8f 8b 02 3f
       0.6776675 -0.13182199 -0.21717203 0.509942
0000d0 32 82 1e 3f d0 a1 66 bf 9c 67 0d bf 08 10 ef 3c
       0.6191741 -0.90090656 -0.5523622 0.029182449
0000e0 19 36 0a 3c 07 e1 26 3f 30 c3 2a bf c3 16 f2 bb
       0.008435749 0.65187114 -0.6670408 -0.0073879673
0000f0 6d 72 3e 3e 60 fd 46 bf 44 cd 63 3f 90 1e 6e be
       0.18598337 -0.7773037 0.88985085 -0.23253846

bias f4 [64]
000000 09 40 8e bf 54 ef 5d 3f cc 3e 76 3e ee 24 91 be
       -1.1113292 0.8669331 0.24047393 -0.28348488
000010 c8 f6 40 3e 68 1a 53 3f 90 a5 43 3e b0 36 40 3f
       0.1884414 0.8246217 0.19106126 0.75083447
000020 20 05 9e 3e 5f 46 51 bf 2a dc 27 bf 00 84 f3 3d
       0.30863285 -0.81748 -0.6557032 0.118904114
000030 76 9f 95 3f e0 63 b9 3e ae 4b 57 bf 7a fa 0a bf
       1.1689289 0.3620901 -0.84099853 -0.54288447
000040 37 60 b2 3e 58 94 2c be 32 41 30 bf b0 f7 8e be
       0.3483903 -0.16853464 -0.6884948 -0.27923346
000050 88 89 58 be d8 26 97 3e 3b ed 03 3f 94 1d 2e 3f
       -0.21146214 0.29521823 0.5153386 0.6801388
000060 3c f8 3d 3f 84 4f f9 be d2 13 29 3e 90 09 bc bd
       0.742069 -0.48693478 0.16511467 -0.091815114
000070 5a ee 56 3f c2 60 c8 be 67 48 77 bf 64 4b 05 3f
       0.83957446 -0.3913632 -0.9659485 0.5206816
000080 ed b8 42 bf 4b c2 0b bf 00 c3 eb 3b 7c 5c 97 3f
       -0.76063424 -0.5459334 0.0071948767 1.1825099
000090 61 2c 69 bf 98 38 90 be d8 f3 28 3e 22 60 3d bf
       -0.9108334 -0.28168178 0.16499269 -0.7397481
0000a0 54 df 03 bf 97 f9 93 3f 7b 8d 9a bd 00 e2 d7 3b
       -0.51512647 1.1560544 -0.075465165 0.0065882206
0000b0 22 e2 cf 3d a0 6e 56 3f ee 03 57 be 18 76 2c bf
       0.10150553 0.8376255 -0.20997593 -0.67367697
0000c0 73 94 4d 3e 28 85 c0 be 8c a8 b5 be 7f 0c 6b bf
       0.2007616 -0.3760159 -0.35480154 -0.9181594
0000d0 fd 24 21 3f 04 c4 7b 3f e0 3a c0 3e fd c5 24 3f
       0.62947065 0.9834597 0.37544918 0.64364606
0000e0 83 2e 66 bf c9 c0 82 3f e0 41 60 3d ae 8c 7f 3f
       -0.8991472 1.0215083 0.054750323 0.99824035
0000f0 c0 3c cd bc 00 fe e6 bd 23 8c 9c 3e 40 93 fb be
       -0.025053382 -0.112789154 0.30575666 -0.4913578

weight f4 [64, 64]
000000 6d 0f 51 bc c5 77 9f 3d 09 1b e8 3c 2d 9a ba bb
       -0.012760025 0.07786516 0.028333204 -0.0056946487
000010 74 16 c5 bd d0 11 93 3d f0 72 6a bd 38 1e cc 3d
       -0.09623423 0.07181132 -0.05723852 0.09966701
000020 7b 53 b8 bc 05 74 1b bd a0 ee ed 3d ea ea f4 3d
       -0.022500744 -0.03795244 0.1161778 0.11958869
000030 4c 86 6c 3d 20 5e e9 3b 38 31 b4 3d 38 be d8 bd
       0.057745263 0.0071218163 0.0879845 -0.10583156
000040 ef 95 bb bd 74 86 46 bd d7 bf be bd 35 33 e5 bd
       -0.09159457 -0.04846807 -0.09313934 -0.111914076
000050 f0 50 80 3d 74 d7 e8 3d fd 8b d1 3b 20 38 3a 3d
       0.062654376 0.113692194 0.0063948617 0.04546368
000060 5c 55 8a bd a0 5c bb bb 04 ff 86 3d 90 4c ce 3c
       -0.06754562 -0.005717829 0.06591609 0.025182992
000070 47 d6 83 3d 22 4f 75 3d f4 25 84 bd 28 6c d1 bc
       0.064373545 0.05988992 -0.064525515 -0.025564268
000080 54 0f 30 bd 66 77 db 3d ec ef f1 bd 7a 46 07 3e
       -0.042983368 0.10716133 -0.118133396 0.13210478
000090 e4 50 32 3d 99 45 9b bd 98 5f 20 3d a0 0c 97 3b
       0.043534175 -0.07581634 0.039153665 0.0046096593
0000a0 60 e0 cf 3c 24 b4 9e 3e 2f 0e 9e bd 24 fa c6 3d
       0.025375545 0.3099681 -0.07717549 0.09715679
0000b0 b0 23 c1 3b f8 ab 9e bc dd 95 95 3d d8 d1 6f bc
       0.005894147 -0.01936911 0.07303975 -0.014637433
0000c0 7a 78 b4 3d fe d1 f0 bd 00 43 3d bb da 11 75 bc
       0.088120416 -0.11758803 -0.0028879046 -0.014957869
0000d0 9a db ac 3d a4 f7 91 3d c6 d1 c4 bd 5e 69 02 3e
       0.08440323 0.07127312 -0.096103236 0.12735507
0000e0 b9 56 74 3d cb a8 49 bc 4c 84 0d bd 44 75 1b 3e
       0.059653018 -0.01230831 -0.034549996 0.15181452
0000f0 72 41 02 bd 28 e7 2b 3d 5c c4 ac 3d d0 84 8c bd
       -0.031800695 0.041968495 0.0843589 -0.068612695
000100 c4 24 2c bd 6c bc fc bd c0 9b 4e 3d 90 42 b4 bd
       -0.04202725 -0.12340626 0.050441504 -0.08801758
000110 ba d6 8d bd 48 34 8a 3d 78 58 bf bd 92 fd d7 bd
       -0.069257215 0.06748253 -0.09343046 -0.105464116
000120 ea a9 b3 3d 10 e5 44 bd de f8 93 3d 00 e2 08 3c
       0.08772643 -0.048070014 0.07225202 0.008354664
000130 a0 81 7f 3d 6e 57 c3 3d 90 6b 88 3d 7c 39 ee bd
       0.06237948 0.0953816 0.06661141 -0.11632058
000140 92 88 cb bd 46 f8 b3 3d 7e 62 8f bd 7e 29 88 3d
       -0.09938158 0.08787589 -0.07001208 0.06648539
000150 6c b0 4f 3d 70 73 33 3c 3e a8 b1 3d 40 28 ec 3c
       0.05070536 0.010952815 0.08674668 0.028827786
000160 00 23 2d 3a 00 38 ab bd a0 15 ec bb aa 02 cd bd
       0.00066046417 -0.083602905 -0.0072047263 -0.10010274
000170 22 55 f9 3d 3c 06 d8 3d e0 ff f1 3c cc a1 1e bd
       0.12174441 0.10548064 0.029540956 -0.03872852
000180 60 41 13 3c 00 ec 3a bd a2 d0 dc 3d cc 9d 69 bd
       0.008987755 -0.045635223 0.10781981 -0.057035252
000190 c0 47 d7 3b 92 80 e4 bd 78 3d 47 3d 16 31 91 bd
       0.0065698326 -0.11157335 0.048642606 -0.070894405
0001a0 8e 57 e3 3d 6c 44 05 3d a8 bd 2e bd f8 52 41 3d
       0.11100684 0.032535955 -0.04266134 0.047198266
0001b0 72 8b ba 3d 40 3c d2 3b f0 8d 1d bd d4 1a 59 3d
       0.09108628 0.0064158738 -0.03846544 0.0530041
0001c0 d2 ee dd bd b0 5f 65 3d c8 56 ec 3d 70 f2 bf 3c
       -0.10836567 0.055999458 0.1153999 0.023431033
0001d0 58 f4 2f bd d4 c6 87 3d 44 6e ba 3d 82 cb c1 3d
       -0.042957634 0.0662972 0.09103063 0.09462644
0001e0 80 59 7d bb 8e c3 ee 3d 18 5b 80 3c 94 d8 51 3d
       -0.0038658082 0.11658393 0.015668437 0.051231936
0001f0 a8 1f 44 3d aa eb dd bd b0 9e aa bc b4 38 88 3d
       0.047881752 -0.10835965 -0.020827621 0.0665144
000200 93 3c fc 3d 54 56 7f bc 47 67 48 bd 14 d1 cb 3c
       0.12316241 -0.015584547 -0.048926618 0.02487997
000210 f4 76 1b 3d 84 29 39 bd b2 39 9a 3d ac 10 91 3d
       0.03795524 -0.045205608 0.07530536 0.07083258
000220 6a 18 92 bc bb 2d 04 3e c0 9e 4e bd e8 04 19 3d
       -0.017833907 0.1290807 -0.050444365 0.037358195
000230 ce 8a 0d be 82 84 cd bd 38 2b 7a 3d de 71 04 3d
       -0.13822481 -0.100350395 0.061076373 0.032335155
000240 03 b4 6a bd e0 af f7 3c e1 bb fe 3d 87 fd d8 3d
       -0.05730058 0.03023523 0.12438179 0.105952315
000250 c4 dc 0e 3d fc 3e 88 bd 83 1e b4 3d fa 51 aa bd
       0.034878507 -0.06652638 0.08794882 -0.08316417
000260 c0 c6 2d 3b d8 aa 8e bd eb 95 88 bd 34 29 85 3d
       0.002651617 -0.069661796 -0.066692196 0.065019995
000270 ac a3 3c bc 10 d2 03 bd 43 39 0b 3d ca bd f4 bd
       -0.011513632 -0.032182753 0.033990156 -0.11950262
000280 1f 1c 7b 3d d6 4e c1 3c c8 b6 9d bd 51 c0 b0 bd
       0.061306115 0.023597162 -0.077008784 -0.086304314
000290 af 04 e1 3d 54 e6 50 bd c8 01 01 3d e0 c5 0a 3c
       0.109872214 -0.051000908 0.03149584 0.008470029
0002a0 86 3d ec bd 1d d6 a6 be d6 d0 c8 bd 94 da 4a bd
       -0.11535172 -0.3258523 -0.09805457 -0.04952486
0002b0 64 28 cf bd 9c 0d 6e 3d 8e 22 f8 3d a6 3d 39 3d
       -0.10115126 0.058118448 0.12115966 0.04522481
0002c0 b1 e8 b3 3d 40 dd cb 3d 3c 1a 05 bd 68 d6 cd 3d
       0.08784617 0.099543095 -0.032495722 0.1005066
0002d0 cb 1e d0 3d 12 d6 87 bd 10 cc c2 3c fd 67 f5 bc
       0.10162123 -0.066326275 0.023778945 -0.029956812
0002e0 69 7e 54 bd a3 3d a3 3c 16 f6 f3 bd d2 dd 30 be
       -0.051878367 0.019926852 -0.119121715 -0.17272118
0002f0 12 5b ac bd 90 e8 ef bc 4e f0 de bd d0 dc ed 3c
       -0.08415808 -0.0292857 -0.10885678 0.029035956
000300 22 e8 e1 3d e4 10 80 3d 98 b0 61 bd 52 5b ac bd
       0.11030604 0.06253222 -0.055100054 -0.084158555
000310 04 62 31 bd b0 3c a1 bd 3a 04 ed bd 8c f7 57 bd
       -0.043306366 -0.07872903 -0.11573072 -0.052726313
000320 84 e1 d3 3d a0 29 9a 3c 80 a1 45 bc d0 43 b9 3d
       0.10345748 0.018818676 -0.01206243 0.09046137
000330 e0 60 01 3d 4e 2f ca 3d 60 66 d5 bb 88 43 95 bd
       0.031586528 0.09872304 -0.006512448 -0.07288271
000340 b0 8b 36 bc 08 38 22 bd 20 83 a8 3b 94 c0 9d bd
       -0.0111417025 -0.039604217 0.0051425844 -0.07702747
000350 26 6f 89 bd c4 00 d5 3d 04 b7 d5 3d 20 95 f4 3d
       -0.06710653 0.10400537 0.10435298 0.11942506
000360 1e 55 b0 bd 78 c4 aa 3d c0 35 b0 bc 24 40 8e bd
       -0.08609985 0.08338255 -0.021510005 -0.069458276
000370 02 e1 a1 bd aa 6d ce bd 40 c4 64 bd 30 17 2d 3d
       -0.07904245 -0.100795105 -0.05585122 0.04225844
000380 9a f5 c3 bd 12 76 ca 3d 3e 84 ba 3d 24 fc d1 3d
       -0.09568329 0.098858014 0.091072544 0.1025317
000390 3e 97 fe bd 32 70 80 bd 98 b2 e0 bc 62 fb 9e bd
       -0.12431191 -0.062713996 -0.02742891 -0.07762791
0003a0 90 47 40 bc 58 93 8c 3d e0 c8 1d bc be b8 cb 3d
       -0.011735812 0.06864041 -0.009630412 0.09947346
0003b0 7a 69 b8 bd 18 7c f6 3d b8 ac 85 3c d6 ce 8c 3d
       -0.09004493 0.12035388 0.01631771 0.06875388
0003c0 02 2d 94 bd c0 bb 10 3b dc dc c8 bd 60 5c 24 3d
       -0.07235147 0.0022084564 -0.098077506 0.04012716
0003d0 50 7c bf bd cc 72 05 3d 12 f7 f3 3d 18 cb 97 3d
       -0.093498826 0.032580182 0.11912359 0.07411784
0003e0 18 28 cb 3d 00 8e 13 bc 64 a4 7b bd 20 38 0d bd
       0.09919757 -0.009006023 -0.061436072 -0.034477353
0003f0 6a 22 b7 bd 8a 11 b9 bd 10 8c 10 3d 9e aa c7 bd
       -0.08942111 -0.090365484 0.035289824 -0.097493395

bias f4 [64]
000000 d5 8b 09 3e 28 aa 0c 3d 87 89 41 bd 70 ba 99 3c
       0.13432248 0.03434196 -0.047250297 0.018765658
000010 00 eb d2 3c 47 07 0b bd 36 b8 f0 3d 2a b5 fa bd
       0.025746822 -0.033942487 0.117538854 -0.122415856
000020 5e ad 70 3e e0 61 8e bc e4 53 6f 3e fc 40 a6 bb
       0.23503634 -0.017380655 0.23371845 -0.0050736647
000030 b0 d6 8e 3c 30 f8 c2 3e 10 84 c1 bd 3c c1 54 bd
       0.017436355 0.38079977 -0.09449017 -0.051942095
000040 aa e8 d5 bd 3d 16 a7 bd e6 a7 b4 be de ad aa 3d
       -0.10444768 -0.081585385 -0.35284346 0.08333944
000050 7d fc 85 be 7e f5 86 bd 17 17 52 be e2 68 86 3d
       -0.26169196 -0.06589793 -0.2051662 0.065629736
000060 5d d7 21 be f0 37 47 3d 00 30 a5 3b e4 66 5c 3e
       -0.15804811 0.04863733 0.0050411224 0.21523625
000070 54 e8 1e 3e 27 d5 c4 3e c0 c0 0c bc f4 46 0e 3d
       0.15518314 0.38443872 -0.008590877 0.034735635
000080 a3 4e ba 3d e8 03 55 bd 00 03 89 3b 20 60 45 3c
       0.0909703 -0.05200568 0.004181266 0.012046844
000090 0e 27 ab bd d0 df 66 bd a3 7f 85 be cc 28 36 bd
       -0.083570585 -0.056365788 -0.26073942 -0.0444725
0000a0 60 3b 9b 3b b2 f0 8e 3d 9f c7 52 3c 28 2e ed bd
       0.0047373027 0.06979503 0.012864976 -0.11581069
0000b0 30 ba 44 bc c5 15 32 3e 6c 86 e5 bd 16 14 92 bd
       -0.012007281 0.17391117 -0.112072796 -0.07132737
0000c0 7d e0 96 be 7d 3b c6 3e 75 cb 7f 3e 69 bd a4 bc
       -0.29468146 0.3871726 0.24979956 -0.020109849
0000d0 40 db 73 3e 90 e0 02 bc a2 33 c4 3d e4 be a7 3e
       0.23814106 -0.00798811 0.09580161 0.32762825
0000e0 20 08 7e 3e 9c 6a ab 3d b0 ec af 3c 00 6d 57 3a
       0.24807787 0.083699435 0.021475166 0.00082178414
0000f0 19 9e 64 3e 78 37 af 3d cb 18 a6 3e ce 8e ca bd
       0.22325934 0.08555502 0.3244079 -0.09890519

weight f4 [190, 64]
000000 21 69 c0 3d 08 7c b8 3c a1 c4 0c be 24 2c 90 3d
       0.09395052 0.02252008 -0.13746883 0.07039669
000010 70 75 82 3c 36 8d 89 3d 50 75 43 bd a6 89 8a bd
       0.01592514 0.06716387 -0.0477193 -0.067645356
000020 1c 00 4b bd ea fb 8f bd 09 5f e8 3d 6f b9 a7 bd
       -0.04956065 -0.07030471 0.113462515 -0.081896655
000030 e0 92 02 3d aa c7 68 3d 22 28 ee 3d 88 d2 df 3d
       0.031878352 0.05683104 0.116287485 0.109288275
000040 a0 9e da bd dc 1c 22 bd 0a 08 91 3d 12 5c 8f 3d
       -0.106747866 -0.039578304 0.070816115 0.06999983
000050 7e e2 01 3e 64 f7 07 3d d2 58 91 3d 28 4a 88 3d
       0.12684056 0.033194914 0.07097019 0.06654769
000060 b8 be 7b 3d 82 58 db bd 40 7b 4c bd 24 14 84 3d
       0.06146118 -0.10710241 -0.049922228 0.06449154
000070 49 e3 ac bd 5f c7 e0 bd e6 fb f6 3d a2 88 96 3d
       -0.08441789 -0.10975527 0.120597646 0.073502794
000080 5e 45 32 bd c0 04 53 bd 80 35 fd bd fc ac bb 3d
       -0.043523185 -0.0515182 -0.1236372 0.091638535
000090 50 ec bb 3d a8 cf b3 3c a1 8c 7f bd a0 16 34 bc
       0.091759324 0.021949604 -0.062389974 -0.010991722
0000a0 80 f8 29 3b 69 50 89 bc 21 07 b0 3d ec cb 7c bd
       0.002593547 -0.016761975 0.0859511 -0.061717913
0000b0 f8 b0 28 3d 82 1b 28 3d d2 d7 8b 3d d5 fc 16 bd
       0.041184396 0.04104186 0.06828274 -0.036862213
0000c0 7f 86 db bd bd 75 c6 bd 76 7c 40 3d 79 15 a6 ba
       -0.107190125 -0.096904255 0.046993695 -0.0012671194
0000d0 0b c1 bd 3c 68 00 8e bd 2a 0d d1 bd 7b 42 9d bd
       0.02316334 -0.06933671 -0.10207589 -0.07678696
0000e0 a1 0d 92 3d 42 ba fa 3d a0 eb 42 bc a2 a4 90 bd
       0.07131506 0.12242557 -0.011896998 -0.07062651
0000f0 be f8 42 bc fc ea b7 bd 1e 95 ed bc be ad ce bd
       -0.011900125 -0.089803666 -0.029001769 -0.100917324
000100 b1 87 dd bd 08 79 79 bd 65 e3 a6 bd a0 1a 91 bd
       -0.10816897 -0.06090644 -0.08148841 -0.070851564
000110 c0 53 2f 3d a8 2a 0e ba cc 8a fe 3d 47 32 f9 3d
       0.04280448 -0.00054232264 0.12428817 0.12167793
000120 06 3b 80 bd c4 38 01 bd 61 c6 a9 3b 99 e9 26 3d
       -0.06261258 -0.031548277 0.0051811193 0.04075012
000130 1c f9 c3 3d 82 bd 05 3e 00 0e a8 bb 70 8d 93 3d
       0.09568998 0.13060573 -0.005128622 0.072047114
000140 a8 a6 94 bc e7 a3 fc bc 74 b7 a7 3d 68 b1 3b 3d
       -0.018145874 -0.030839873 0.08189288 0.045823485
000150 bd 96 d4 bd f0 9a d7 3d fb 22 8d 3d a0 3b 0b 3d
       -0.103803135 0.10527599 0.068914376 0.03399241
000160 f3 17 9f 3d a0 83 c6 3c a6 ea d4 bd 5b d3 ea bb
       0.0776824 0.024232686 -0.10396318 -0.007166309
000170 6b 26 a7 3d f3 93 8f 3c 08 ac 6c bd 00 d0 f2 3d
       0.081616245 0.017526602 -0.05778125 0.11856079
000180 b2 46 8b bc 14 9a 26 3d 40 9b 27 bd 20 b2 5e 3c
       -0.017001484 0.040674284 -0.040919542 0.013592273
000190 50 0e 97 bd 20 f0 dc bc d7 0b d2 bd a0 a8 ab 3b
       -0.07375777 -0.02696997 -0.102561645 0.0052386075
0001a0 40 69 37 3c 80 15 81 bc ba 4a 7c bd 40 fb 41 3c
       0.011194527 -0.015757322 -0.061594702 0.011839688
0001b0 c2 b7 ad 3d 80 9f 2a bd 70 db 05 3c 1e 72 64 bd
       0.08482315 -0.041656017 0.008169994 -0.055772893
0001c0 d6 9c 37 bd d1 8f 93 bc fb 5c a2 bd e7 67 a1 3d
       -0.044827305 -0.018012913 -0.07927891 0.07881146
0001d0 eb 24 3c bd 70 24 02 3d 80 a7 76 3d 12 c8 b8 3c
       -0.045933645 0.03177303 0.060218334 0.022556338
0001e0 5f 51 c9 3c 80 3b 73 bd 36 ba 8e bd 6a 3a a8 bd
       0.024574934 -0.059382915 -0.06969111 -0.082142666
0001f0 61 43 d6 bd e0 d9 e1 3c 3d 54 76 3d c0 03 8f bc
       -0.1046207 0.027569711 0.06013893 -0.017457843
000200 61 7a d3 bd 28 4b 40 bd 34 62 c1 3b 50 b8 a1 3d
       -0.10326076 -0.046946675 0.0059015993 0.07896483
000210 50 e7 59 bd 09 24 e8 3c b8 a2 85 3d 96 20 bc bd
       -0.053199112 0.028337495 0.06525177 -0.09185903
000220 64 f3 9a bd c0 f1 f5 bd 7a 8c bf 3d 85 93 84 3d
       -0.07565954 -0.12009001 0.09352966 0.064734496
000230 78 59 9d 3d cc fb b2 3d 00 c5 52 3d 34 ae f7 bd
       0.076830804 0.08739433 0.051457405 -0.120937735
000240 e0 9e 80 3c 03 f0 ba bc 67 cf c8 3d 42 5c ad 3d
       0.015700758 -0.022819525 0.09805184 0.084648624
000250 af 57 a7 bb 62 0a b2 3d f5 73 a8 bd c0 9e 6e 3c
       -0.0051068882 0.086933866 -0.08225242 0.014564216
000260 33 6a af bd d6 a2 c0 bd 78 20 07 3d 6f 03 69 3d
       -0.08565178 -0.094060585 0.03298995 0.05688804
000270 d8 6d bc bd e1 cd db 3d f2 02 c4 3d 15 58 5a 3d
       -0.092006385 0.10732628 0.09570874 0.053306658
000280 6a 8b 34 bd d8 f7 92 3d f8 88 cf 3c e2 6c b9 bd
       -0.044078268 0.07176179 0.025333866 -0.09053971
000290 3a a9 d8 3d 7c a5 aa bd 13 12 ad bd 98 67 ff bd
       0.105791524 -0.08332345 -0.08450713 -0.12470931
0002a0 50 30 44 bd a2 8a d8 bd c6 6b 3e 3d e8 43 88 3d
       -0.047897637 -0.10573317 0.0464895 0.06653577
0002b0 d0 e2 1f bd 3c de cf 3c f0 da 28 3c 58 43 00 bd
       -0.039034665 0.025374524 0.010306105 -0.031314224
0002c0 3f 56 5d bd 34 a4 c3 bd d0 54 e4 3c 9d 6c e5 3c
       -0.05403733 -0.09552804 0.027872473 0.028005892
0002d0 fb 40 6f bc 38 05 83 3c ec f2 ed 3d f7 4f 8e 3d
       -0.014602895 0.0159937 0.11618599 0.06948846
0002e0 8f f8 1a bd 24 3f c3 bd 62 ff ac 3d 42 86 a0 3d
       -0.0378347 -0.095335275 0.08447148 0.07838108
0002f0 54 2e d3 bd 06 a3 d0 bd 08 0b 58 3d 40 63 8c 3b
       -0.10311571 -0.10187344 0.052744895 0.0042842925
000300 f4 65 e0 bd 3c 77 28 bd 5f 4c a1 b9 0c ff 25 3d
       -0.10956946 -0.041129336 -0.00030765214 0.040526435
000310 08 b7 ad bc ec 9e 84 bc 54 7f 80 bd 3e cf 8b bd
       -0.02120544 -0.016189061 -0.06274286 -0.06826638
000320 c6 3c c9 bd 7a 24 a0 bd 12 67 d2 bc 7d a7 ea 3d
       -0.09826045 -0.07819457 -0.025683913 0.11457727
000330 24 ea 64 3d c6 13 bc 3c a2 41 80 bd 80 3c c7 3b
       0.055887356 0.022958647 -0.062625185 0.00608021
000340 c0 f1 8f 3c f3 8c e2 bc d7 41 47 3d 54 85 ec bd
       0.01757133 -0.0276551 0.048646774 -0.11548868
000350 45 94 48 3d 2c 38 5b 3d 8e 6c 05 bc 96 0b 8c 3d
       0.048969526 0.053520367 -0.008143557 0.06838147
000360 5e 8f 8d 3d 38 68 b2 3d 00 75 7c 3c 0f 7f 13 bd
       0.06912111 0.087112844 0.015408754 -0.036009844
000370 d1 ba eb 3d 92 72 88 bd d6 b2 9e bd 91 2f d4 3d
       0.11510242 -0.066624776 -0.07748954 0.10360635
000380 47 32 43 bb 40 95 5c bd d2 73 97 3d a8 83 0f 3d
       -0.0029784606 -0.053853273 0.07395138 0.035037667
000390 06 97 97 bd 20 47 fb bb f1 86 d6 bd ec cb a4 3d
       -0.07401852 -0.007668391 -0.10474957 0.080467075
0003a0 24 3c 33 3d e4 85 4d bd 6b 51 c9 bd c0 51 5a bd
       0.043758526 -0.050176516 -0.09829982 -0.05330062
0003b0 00 3c dc bd 76 e9 d3 3d 50 94 92 bd 62 c2 da bd
       -0.107536316 0.103472635 -0.071571946 -0.10681607
0003c0 98 ac 68 3c 05 6d 81 3c 1f d5 2d 3d ac 30 b9 bd
       0.014201306 0.015799055 0.042439576 -0.090424865
0003d0 36 b7 cb 3d 5c b2 1f bd 1a a0 e6 bd 17 53 cf bd
       0.09947054 -0.038988456 -0.11261006 -0.1012327
0003e0 47 00 8e bc b4 6b 5d 3d cc ca a2 3d aa fd e1 bd
       -0.017334117 0.05405779 0.07948837 -0.11034711
0003f0 a5 79 58 3d f8 5c e7 3d 31 21 8a bc f4 e8 b3 bd
       0.052850384 0.11297029 -0.01686153 -0.08784667

bias f4 [190]
000000 58 87 f2 3c 2b 87 3e 3d 2f fe 3d be 0f 2a 12 3e
       0.029605553 0.046515625 -0.18553995 0.14273857
000010 3c af 8e be 22 10 db bd 3b b5 02 be 81 c4 43 bc
       -0.27868068 -0.106964365 -0.12764446 -0.011948706
000020 6d fe 09 bd 02 91 53 be 46 4b 58 3b 33 5d 21 3d
       -0.033689905 -0.20660785 0.003300385 0.039395522
000030 e7 7b b8 3d cf 67 9a 3e e9 2d ec ba ed ba 47 be
       0.090080075 0.30157325 -0.0018019053 -0.195049
000040 3e 68 db bc b3 63 08 bd fd c4 ca 3d 3f 89 cf 3c
       -0.026783105 -0.033298206 0.09900854 0.025333999
000050 e9 0d b5 3d 80 1c 28 3d db 75 c9 bd dd 2e ff 3c
       0.08840544 0.041042805 -0.09836932 0.031150276
000060 81 99 1f 3d b3 b0 06 bd 53 db 10 be 71 60 02 3c
       0.038964752 -0.032883357 -0.14146166 0.007957564
000070 e7 94 bc bd dc 1e 27 be 28 d4 69 be 13 9e 21 bd
       -0.09208088 -0.16320366 -0.22834837 -0.039457392
000080 4b 01 a5 3d 3f e1 b6 3d 9b fc 47 3e 85 79 82 3c
       0.08056887 0.08929681 0.19529955 0.015927086
000090 6c 1a ae bd 48 18 35 3d 5a cf 97 bb 94 09 81 3e
       -0.08501133 0.04421261 -0.0046328725 0.2520262
0000a0 5b ee b8 bc c9 c4 06 3e 41 9b d2 3d b2 62 3f 3e
       -0.022574594 0.13161005 0.102835186 0.18689993
0000b0 93 fa 61 3e ee 48 73 3e 07 33 60 3e 9c c6 ad 3e
       0.22068243 0.23758289 0.21894465 0.3394059
0000c0 ca c3 5f 3e 14 b4 b6 3e fa ea fb 3d 12 ec ad 3d
       0.21852031 0.35684264 0.123006776 0.084922925
0000d0 53 8d 45 3e 16 6f 4e 3e 4b 67 51 3e 96 5a f8 3d
       0.19292192 0.20159563 0.2044956 0.12126653
0000e0 bc 85 0a 3e 2c 00 06 3e 0f f8 9e 3e 7f 1c ed 3d
       0.13527578 0.13086003 0.3104863 0.11577701
0000f0 16 ce 07 3e 67 30 b9 3e 42 ba 81 3e b8 c0 05 3e
       0.1326221 0.3616974 0.25337416 0.13061798
000100 c4 ef 1a 3e 5c 97 bb 3d 97 21 82 3e 1e 3a e6 3d
       0.15130526 0.09159729 0.25416252 0.11241554
000110 b1 54 07 3e 7e 10 3e 3e 63 93 2b 3e 67 bb 2c 3e
       0.13215901 0.18560979 0.16755442 0.16868363
000120 4b a5 9f 3d 8a 96 ec 3d 1b 4d 39 3d e3 a9 f3 3d
       0.07795199 0.115521505 0.04523955 0.11897638
000130 78 98 4e 3e 55 3d 89 3d 33 10 93 3b ab bf 0b 3b
       0.2017535 0.06701151 0.004488015 0.002132396
000140 ec 0e 79 3e 97 c6 cd 3c 77 b0 2c 3e 85 52 86 3e
       0.24322098 0.02511911 0.16864191 0.26234832
000150 85 36 ec bb d3 5d 9a 3d 73 89 ec ba bf ae a6 3d
       -0.0072086477 0.07537427 -0.0018046334 0.08138799
000160 e9 d7 7d 3e b3 71 b1 3d 22 93 08 3e 79 91 8b 3e
       0.24789394 0.086642645 0.13337377 0.27259424
000170 7d a6 8c 3d a6 0c f6 3d 15 76 45 3e 6d c8 22 3d
       0.068676926 0.12014131 0.19283326 0.039741922
000180 7e eb 15 3e ce c7 43 3e 09 4c 1b 3e 8b 28 40 3e
       0.14640614 0.19119188 0.15165724 0.18765466
000190 9b fe 85 3e ed 5d 40 3e eb b8 35 3e e1 57 c9 3d
       0.2617081 0.1878583 0.17746322 0.09831215
0001a0 f2 38 5a 3e 27 f5 99 3d 39 16 08 3e 3c 2f a3 3c
       0.21310785 0.07517462 0.13289727 0.019919984
0001b0 ff 5f 9f 3e 22 14 4c 3e 26 ba a1 3d b4 c1 13 3e
       0.31127927 0.19929555 0.07896833 0.1442936
0001c0 33 28 a4 3e 2b e0 8b 3e b1 28 f2 3d f6 dc 54 3e
       0.3206192 0.27319464 0.118241675 0.20787415
0001d0 91 94 1a 3e bb b5 ae 3e b9 d6 1e 3e 46 22 5e 3d
       0.15095736 0.34123024 0.15511598 0.054231904
0001e0 ef 6e 91 3e 0e 7b 30 3e 4c f5 3c 3e ef 1f 3e 3e
       0.28404948 0.17234442 0.18452948 0.18566869
0001f0 bc d2 90 3e d5 ce 69 3e a2 4b 80 3e 12 6b 41 3e
       0.28285778 0.22832806 0.25057703 0.188885
000200 3f 03 b5 3d 84 f0 19 3e 70 4d 7b 3e 57 55 6c 3d
       0.0883851 0.15033156 0.24541259 0.057698574
000210 a6 aa 54 3e 2c e5 dc 3d 66 da 11 3e ed b4 63 3e
       0.20768222 0.107858986 0.14243469 0.22236986
000220 d7 b5 8d 3d dc 7c 1d 3e 67 f2 16 3e d2 19 57 3e
       0.06919449 0.15379661 0.14740907 0.21005943
000230 8c b1 47 3e 2a 2c 8f 3e bc 4f 30 3d e0 83 05 3e
       0.19501323 0.27963382 0.04304479 0.13038588
000240 37 02 08 3e 3f 38 20 3e fb 0f 55 3e 04 d9 34 3e
       0.13282095 0.15646456 0.20806877 0.1766091
000250 42 a1 38 3d 34 c8 86 3e 47 5c 35 3e 63 5b 94 3e
       0.045075662 0.26324618 0.17710982 0.28975973
000260 1a 76 65 3e e5 0a 4d 3e d1 1a 35 3e 16 29 2a 3e
       0.22408333 0.20023687 0.17686011 0.16617236
000270 c2 80 1f 3e 8a 92 64 3e a8 91 46 3e 53 1c 77 3e
       0.15576461 0.22321525 0.19391501 0.24131899
000280 56 5e 23 3e 18 a4 fb 3d a4 09 60 3e 20 41 17 3d
       0.15953955 0.12287158 0.21878678 0.036927342
000290 4b e0 40 3c c7 2d 2d 3e 6d 3b e6 3c 2b 94 78 3e
       0.011772226 0.16911994 0.028104508 0.24275272
0002a0 9c 6f c7 3d e5 79 52 3e dc 3c a8 3c 42 ec 91 3d
       0.09738085 0.20554312 0.020536833 0.07125141
0002b0 2e be cb 3d e9 05 3d 3e 42 1f 16 3e 9b 49 cb 3d
       0.09948383 0.18459286 0.14660361 0.099261485
0002c0 4e af 60 3e 37 32 2f 3e 34 83 1f 3e 28 b1 f7 3d
       0.21941873 0.17108999 0.15577394 0.12094337
0002d0 be 5c 38 3e 36 78 66 3e 16 e8 0e 3c ce 07 f2 3d
       0.18004128 0.22506794 0.008722326 0.11817895
0002e0 11 a4 42 3e a6 8a 83 3e 0f 73 83 bc 98 d1 8b 3e
       0.19007899 0.25691718 -0.016046075 0.27308345
0002f0 c0 3d 34 bb c8 cc c6 3d
       -0.0027502626 0.09707028
