model.pth (torch, 301393 bytes, 19 tensors)

weight f4 [64, 1]
00000000: d8cc 7cbe a45e 40bf 3520 ad3e afee bfbb
00000010: 8b90 003f e559 803e 7486 4ebf 3538 013e
00000020: 506e 42bf 0ff3 083f 1472 5fbf d886 6abe
00000030: 6854 e13e 75cb 373f f8ca 3ebe da58 003f
00000040: 6743 2c3f f4a4 b1be 7edd 56bf df76 8d3e
00000050: 58f8 88be 4ad4 343f a2e1 3bbf 5254 19bf
00000060: b229 28bf 08dc 69bf 0dea f43e b0cb eebd
00000070: 2740 5f3f 7417 6fbf 5c43 14bf 2f5a 113f
00000080: c22d 47bf 9059 333e f82e 70bf d84a 7dbf
00000090: cd5c f83e 8836 45bf d1ba bb3e 9135 2d3f
000000a0: 56ca 2cbf e0d6 8ebe 4cd5 773f 940b 6a3e
000000b0: dcc6 50bf dee1 113f 3522 3d3e 3433 3b3f
000000c0: 599d 683f 3faf 713f da47 b43e 4e48 5f3f
000000d0: 8e53 8b3d a84c ecbe fc29 03bf 89be 403f
000000e0: 1cd0 4c3f e0cc 5ebd 4ea8 2abf 7ebd f53e
000000f0: 2ae8 69bf d12a f73e 2006 3c3f b7ed 7b3f
-0.24687517 -0.7514441 0.33813635 -0.0058573107 0.50220555 0.25068584 -0.8067391 0.12619098
-0.75949574 0.5349588 -0.87283444 -0.22903001 0.4400971 0.71794826 -0.18632114 0.50135577
0.6729035 -0.34696162 -0.8393172 0.27629754 -0.2675197 0.7063643 -0.73391163 -0.5989429
-0.6568862 -0.91351366 0.47834817 -0.11659944 0.87207264 -0.9339516 -0.5791528 0.56778234
-0.77804196 0.17514634 -0.9382167 -0.9894233 0.485083 -0.77036333 0.36665967 0.6765986
-0.6749624 -0.27898312 0.9680984 0.22855979 -0.81553435 0.5698527 0.1847008 0.73125005
0.90865093 0.9440803 0.35211068 0.87219703 0.06803046 -0.46152234 -0.5123594 0.75290734
0.8000505 -0.054394603 -0.6666306 0.47996134 -0.9136988 0.48274854 0.73446846 0.984096

bias f4 [64]
00000000: 00f8 2dbc 349e cd3e e81a 433f 6146 483f
00000010: 00da 093f e5a7 57bf 9232 2c3f 5bac bcbe
00000020: 88e8 20be 7575 febe 2ae4 033f fcef c2be
00000030: bace 90bd 47e2 803f 566a 503f 7299 b8be
00000040: bf66 243f f0c2 87be 48c6 fa3e 0414 843f
00000050: 9213 49bf 8a58 333f c008 313f 7445 87be
00000060: 203f ddbd d480 a1be 8942 633f 0229 0fbf
00000070: 2fac fcbe 80a4 f3bc b6f2 7b3f 59cd 72bf
00000080: 20be 803d 7c32 9fbf 02cf 0f3f 6ea9 64bf
00000090: 8ce5 85bf 4c9c f53e dc5c fabb dd96 e73a
000000a0: ac71 793f e041 803d 9adb 01bf 61a9 9e3e
000000b0: e0d0 53bd d787 843f c95c 7fbf aad3 35bf
000000c0: 4d2b 913e 01b6 d73d 58c0 8e3d bbd8 e83e
000000d0: 191d 2ebf e85e 5a3e 3201 77bf 3da6 8b3f
000000e0: a647 8d3e 0064 08be 5639 133f e3a6 7bbf
000000f0: e811 3d3e aaaf 713f 9f72 0b3f 7829 fc3e
-0.01061821 0.40159762 0.7621293 0.7823239 0.53848267 -0.8424056 0.67264664 -0.36850247
-0.15713704 -0.49698988 0.51520026 -0.3807372 -0.0707068 1.0069054 0.81412256 -0.3605457
0.6421928 -0.26515913 0.48979402 1.0318608 -0.78545487 0.70056975 0.69153976 -0.26420176
-0.10803056 -0.315436 0.887734 -0.5592195 -0.49350116 -0.029741526 0.9841722 -0.94844586
0.062862635 -1.2437282 0.56175244 -0.8932103 -1.0460677 0.47970808 -0.007640464 0.0017668862
0.97439075 0.06262565 -0.5072571 0.309886 -0.05171287 1.0353955 -0.99750954 -0.710261
0.28353348 0.10532761 0.069702804 0.45477852 -0.6801315 0.21325266 -0.964862 1.0910107
0.27593726 -0.13319397 0.5750936 -0.98301524 0.18463862 0.9440867 0.5447177 0.49250388

weight f4 [64, 64]
00000000: f8b5 b03c 3268 aa3d 88ff c33c 667b 843d
00000010: 0c27 39bd 789d c93c 9c32 a5bd 80bc 953a
00000020: ac85 e63d bcc3 56bd 0633 eabd 3016 143d
00000030: f848 7d3d 1033 4e3d 1efb a2bd 6ce7 753d
00000040: 98ac a63c 1090 6c3d fac8 e53d 28e9 aebd
00000050: 507f ce3c 68d2 11bd 40dc dc3d 407e 5dbc
00000060: 7091 bbbc 16b9 86bd 9068 8d3d 1845 203d
00000070: c862 9d3d aa21 d43d 28f1 d2bc 825c 99bd
00000080: 54ec f6bd 5801 aa3d 10ea 3fbc e8c8 813c
00000090: 18c0 f9bc 9e8c c0bd 4a3c 933d c4fb 6ebd
000000a0: aaf4 bdbd f003 6fbc 86f7 debd 96cb de3d
000000b0: 906a 393c dcaa 5fbd e47c 6f3d e0e8 f43c
000000c0: 14eb 0fbd 20d4 e23b f4f9 a23d 6c5a 103d
000000d0: 5c0c 713d 003e 27ba 769c c7bd 74f5 7d3d
000000e0: 9a7e 80bd f4fa 82bd 10c4 7c3d 3011 eebd
000000f0: 50e7 333c 9af3 f4bd 602e 553c 800c 94bc
00000100: b677 b1bd a0f5 9f3c 6497 aa3d 40e0 09bd
00000110: 9856 f8bd 407f 50bc f8d4 8bbc e2e8 8f3d
00000120: 2035 d73d aedd 93bd 7a3c aa3d a292 9e3d
00000130: f419 31bd d83d cdbc 781e afbd 3a32 c2bd
00000140: 5ccf e2bd 7050 393d 30c5 a43d b8cf aabc
00000150: 40f4 88bb 70ed 8dbd 3465 64bd 1059 0ebd
00000160: 20c0 ad3b caa3 cc3d 0027 673b 5658 893d
00000170: b8ac 72bd 2046 6ebc f810 da3c b8c2 3dbd
00000180: 8849 063d b03e f0bc 58f9 c6bd 981b 2d3d
00000190: 20ae 9fbc 221d cf3d 7c1e 933d 4a61 a13d
000001a0: 2ed4 983d 8c25 01bd e0ed 633c f621 eabd
000001b0: 2a5a ee3d ac35 fcbd 06b5 ce3d 0428 7d3d
000001c0: c08a 5a3d 2065 c5bc 082e 2a3d e0b2 b23d
000001d0: 3059 02bd dc34 03bd 8c88 353d 1c38 abbd
000001e0: a0ba e53b fc62 23bd 206d 82bd a887 ac3d
000001f0: 9cc6 b03d cefe fa3d 92bf 81bd 884e 75bd
00000200: 789b eebd 9e73 aabd 4ce3 41bd 16ac c63d
00000210: 6c69 1bbd b4f6 89bd eaf9 dcbd 5847 a03c
00000220: 46ff 92bd e0fc 4d3c 502b 74bc a0a9 cb3c
00000230: f843 a83d 3c1c ffbd d06d a9bc 50cd 9f3c
00000240: 14bf 303d d05b 593d f4a2 5ebd 507c 5b3c
00000250: 7e0e 98bd e0ef 4e3d 8046 ba3c 083f a2bc
00000260: a06a 7abd 60e2 a1bb 8812 cabc 4c38 413d
00000270: 1cab 403d 1a6c f73d 28c6 39bd 606f 29bc
00000280: 1c79 20bd e4f0 1d3d ae0d 9bbd e027 dfbc
00000290: bc87 2abd 58f1 f3bd 3e5e 97bd dc20 2ebd
000002a0: 2881 983d c8d6 44bd e80e abbd ecef 393d
000002b0: e4e5 323d aa92 afbd 62a1 90bd 50f8 083d
000002c0: 1655 99bd 168a 953d 0840 213d 107a 11bc
000002d0: 6045 7c3d c00e 503d defe c73d 6ebb f3bd
000002e0: 3063 04bc 6013 d53c e82a 83bc 0c1e a83d
000002f0: 6087 373c e20a e23d 22d5 e1bd da78 af3d
00000300: 70ed ddbd 00c7 bbbd 6a60 ccbd b53e 5cbe
00000310: 0279 c9bd a23a d53d c419 d83d b042 ab3d
00000320: 2ee8 d6bd 6c22 f4bd 40b4 05bd 483d d13c
00000330: 7089 ce38 dcf1 e3bd 74b0 a6bd c312 49bd
00000340: 76da 433d dc06 c13d 76f1 c2bd 538b 943d
00000350: 6acb d73d cb28 4c3c d0da 3cbc 64ce 1fbd
00000360: 8ca9 1a3d f881 353d 713f debd a09f cbbd
00000370: 2d9d d73d b466 f2bd 201e d13c 4bfc d93d
00000380: fcae 2b3d a5f1 f2bd 6032 bfbd c042 80bb
00000390: 06f6 983d 74d8 aabd 1a6c d33d d4e8 9bbd
000003a0: 9842 66bd 2617 b43d 79a8 01be 3859 c9bc
000003b0: d86d d53c fac5 f8bd 239a c93d b1ac 703d
000003c0: 3232 d1bc c022 3c3d c840 2a3d 457e b9bc
000003d0: 6615 173d 569c cb3d 583f 82bd 02ac bf3c
000003e0: fc75 843d f24e ff3d 989a a4bc 2592 aa3d
000003f0: a471 083d 9d33 4e3d d8b0 de3d a6f3 0c3d
0.021571144 0.08320655 0.023925558 0.06468849 -0.045203254 0.02461122 -0.080662936 0.0011423975
0.11255965 -0.05243276 -0.11435513 0.036153972 0.061837167 0.050341666 -0.07958053 0.060035154
0.020345971 0.057754576 0.11219974 -0.08540565 0.025207192 -0.03560105 0.10784197 -0.01351887
-0.022896498 -0.06578271 0.06904709 0.039128393 0.07684857 0.103579834 -0.025749758 -0.074883476
-0.12056795 0.083010375 -0.01171352 0.01584287 -0.030487105 -0.094018206 0.071892336 -0.05834557
-0.092751816 -0.014588341 -0.10887055 0.10878675 0.01131691 -0.054606304 0.058468714 0.0298962
-0.035136297 0.00692226 0.07957831 0.035242483 0.058849677 -0.0006379783 -0.097466394 0.06200166
-0.06274147 -0.06395522 0.061710417 -0.11624372 0.010980442 -0.11960526 0.013011545 -0.018072367
-0.08665411 0.019526303 0.08329657 -0.033661127 -0.121258914 -0.012725651 -0.017069325 0.07026841
0.1050818 -0.072200164 0.08312316 0.07742812 -0.04323764 -0.025053903 -0.08550733 -0.09482236
-0.11074707 0.045242727 0.08045423 -0.020851001 -0.0041795075 -0.06930053 -0.055760577 -0.034752905
0.005302444 0.09992178 0.0035271049 0.06706302 -0.05924675 -0.014543086 0.02661942 -0.046328276
0.03278497 -0.029326767 -0.09715527 0.042262644 -0.019492209 0.101129785 0.07183549 0.078798845
0.07462345 -0.031529948 0.013911694 -0.11432259 0.11638291 -0.123149246 0.10093121 0.06180574
0.05335498 -0.024096072 0.041547805 0.08725524 -0.031823337 -0.032032833 0.044319674 -0.083603114
0.007010773 -0.03988932 -0.0636847 0.08424312 0.08631632 0.122556314 -0.06335367 -0.059889346
-0.11650747 -0.083228335 -0.047335908 0.097007915 -0.037942335 -0.06736508 -0.10789855 0.01956527
-0.07177596 0.012572497 -0.014902905 0.024861157 0.08216089 -0.12456557 -0.020682245 0.01950708
0.043150976 0.053066075 -0.054354623 0.013396338 -0.07424639 0.05052173 0.022738695 -0.019805446
-0.06113684 -0.004940316 -0.02466704 0.04717283 0.047038183 0.120811656 -0.045354992 -0.010341495
-0.039178 0.03855981 -0.075709686 -0.027240694 -0.041633353 -0.11911267 -0.07391022 -0.042511806
0.074465096 -0.048056394 -0.083524525 0.045394823 0.043676272 -0.08572896 -0.07062031 0.033439934
-0.07486932 0.073017284 0.039367706 -0.0088792 0.0615896 0.050795317 0.09765409 -0.11900984
-0.008080289 0.026010215 -0.01601167 0.08208856 0.0112017095 0.11037232 -0.1102698 0.085679725
-0.10836303 -0.091688156 -0.09979327 -0.21508296 -0.098375335 0.10411574 0.105517894 0.08362329
-0.104935035 -0.11920628 -0.032642603 0.025541916 9.848445e-05 -0.111301154 -0.081391245 -0.04909016
0.047815762 0.094251364 -0.09518711 0.072531365 0.10536845 0.012460898 -0.011526778 -0.03901519
0.03775935 0.0443134 -0.10851944 -0.099425554 0.10528026 -0.11835995 0.02552706 0.10643824
0.041914925 -0.11862496 -0.0933578 -0.003914207 0.074688 -0.083420664 0.10323353 -0.07612768
-0.056215852 0.08793478 -0.12661923 -0.024578676 0.026053354 -0.12147136 0.09843852 0.05875844
-0.02553663 0.045931578 0.041565686 -0.022643218 0.03688564 0.09941928 -0.06359738 0.02339745
0.06467816 0.124662295 -0.020093247 0.08328656 0.0333115 0.05034219 0.10873574 0.03441205

bias f4 [64]
00000000: a286 85bd 2047 afbb 6c58 7e3d f301 c3bd
00000010: 6498 cd3e a0ca 51bd 48e1 573d 3e95 e63d
00000020: a04c 443c a4a2 f03d a0c8 adbb 17c3 79be
00000030: c803 8bbc 1cf5 dfbd 5b83 983d c028 42bd
00000040: 803a c83d 88f7 ecbd ec3f 82bd 80f3 17bd
00000050: 0e02 983d d441 2cbd 10c5 673c 0044 9f3d
00000060: afa1 8ebe 3427 233e 8404 b13d 004e c3bd
00000070: 8222 d13d a3b9 a03e 20a2 f63b 0fae 613e
00000080: 3818 843e 8039 1dbc 2de4 993e e051 36bd
00000090: c015 233d 00d0 6eb9 c0f2 613e 60f5 f73b
000000a0: c430 243e 1e19 c33d 56df 883d 38c8 6f3e
000000b0: 9a93 c33a a824 883d 60aa 953d 4a51 fdbd
000000c0: 80ce 0b3b 8d00 9fbd 04e7 a33e 6e34 9ebd
000000d0: 40a4 54bb c02f 09bd 00b4 403e c640 a63e
000000e0: a095 b03d 3631 f13d ea4f c43d cb8f babe
000000f0: e8f0 9a3d dcb9 90bd d02c f1bd f5ed fd3d
-0.0651982 -0.005349055 0.062096044 -0.09521856 0.40155327 -0.05121863 0.05270508 0.112589344
0.011981159 0.11749771 -0.0053034574 -0.24390827 -0.016969576 -0.10935423 0.07446929 -0.047402143
0.09776783 -0.1157065 -0.063598484 -0.037097454 0.07422267 -0.042054966 0.014146104 0.07776642
-0.2785773 0.15932924 0.086434394 -0.09536362 0.1021166 0.3139163 0.007526651 0.22039054
0.25799727 -0.009596229 0.30056897 -0.044511676 0.039815664 -0.00022774935 0.22065258 0.007567093
0.16034228 0.09526275 0.06683223 0.23416221 0.0014921308 0.066476166 0.07307887 -0.1236902
0.00213328 -0.07763777 0.32012188 -0.07724844 -0.0032446533 -0.033492804 0.18818665 0.32471293
0.08622289 0.11776964 0.09585555 -0.3643783 0.075654805 -0.070667 -0.117761254 0.12398902

weight f4 [190, 64]
00000000: 10c9 7bbc c083 32bc 74d8 97bd 8400 b53b
00000010: 3fe3 823d d04e bdbc b4ad 3fbd 1411 80bd
00000020: a6c1 ebbd 46bc b8bd 406d 34bb 837c b3bc
00000030: 543b b33d eafa d7bd 4e58 633c 7c79 373d
00000040: fe72 653d f27a eebd 260f dfbd ceb2 973d
00000050: 8076 eb3a f481 123d 700f 8d3c ba8f f7bd
00000060: 769a 53bd 1045 96bc 80b9 c53d da59 9a3d
00000070: 8ebc d6bd 4e6a c53c e461 09bd b435 61bd
00000080: 3d04 253d d037 dbbd f1c0 babb b01f 8f3d
00000090: a7b0 d33c 8042 e6bd 2671 67bd 9eeb 8b3d
000000a0: 6d59 9e3c c8bb f0bc bcc7 7ebd bf58 b93c
000000b0: 01ab 0ebd dbf6 4ebd b87a 233d 1a29 ff3d
000000c0: 5887 2e3d 1468 183c 4f6f 753d 8249 e6bd
000000d0: 48d6 a33d d060 c23c 82b6 d1bc d3b6 de3c
000000e0: b65f e73d a41c 05bd 5009 a43d 0b5f ae3c
000000f0: d000 0d3d c0e7 bcbb 941e 0d3d 211b e7bd
00000100: 38d8 fdbc 98bf 92bc 682d 0c3d 65f4 a8bd
00000110: e140 e63c 9057 163d 24a3 26bd bfaf 0dbc
00000120: d0c5 bebd 8e3e c23d 7869 b03c 576b b13d
00000130: 605d b7bc 1c34 f1bd 679e 043e 74ba 6abd
00000140: 92c3 8a3c a22f b0bd 0048 95bc 54b6 983d
00000150: 905f e6bc 04c0 85bd 005a 2fbc 18d4 ea3c
00000160: 0bc3 81bd 7352 77bd e27e 813d 10be 903d
00000170: ba6a 81bd f880 573d 9485 21bd 3ad4 08bd
00000180: fb1a 3abc 20a0 60bc d4b2 5d3d 2627 b83d
00000190: 878c 8ebd 96f1 fd3d e270 023e 864e 87bd
000001a0: e2c9 fdbc 129b d73d a92b eeb9 ebcb e1bd
000001b0: 515b 55bd bbce 5f3d 9699 893d 9ceb f23d
000001c0: 28e2 473d 1059 143c d79f 0ebd eeff bbbd
000001d0: 2475 06bd 009c 00ba c0ae 93bc 4621 373c
000001e0: ea2a 8cbd b408 613d 5482 4b3d 1594 da3d
000001f0: 762e ac3d 0a05 90bd 1f74 253d 3687 043e
00000200: 90f7 2cbd fc4c 9abd 6023 493d af3a d3bd
00000210: 602b 04be 50fb f73d d247 d63d 1b3e d13c
00000220: f2e4 e1bd 38b8 98bd 00e5 f1bc cbae 24bd
00000230: c005 99bd e877 d8bd b84e f8bd e6c6 e4bd
00000240: a758 7c3d 7490 11bd 5098 c5bd 4011 d9bb
00000250: 8ab3 9b3d a8d1 7b3d 00a2 bf3d 00f0 f6bb
00000260: 2929 80bd 931f 51bc 8067 1f3d 5c78 04bd
00000270: 82d1 b0bd 68d6 b5bd 6ccc 393d c7cf 4f3d
00000280: d6d5 c8ba faa6 a73d 39f1 933d 305f 8dbd
00000290: 3a5b d13c d488 f1bd 2635 fd3c 6059 8dbd
000002a0: daf8 143d 9c55 6abd 641b be3d f03b 503d
000002b0: a8a6 863c 456f abbd 5e82 c53d b2fd a2bd
000002c0: 2027 fc3d db78 263d b4f6 ac3d 3a3a e3bd
000002d0: b0c1 763d dc65 0b3d 3216 12bd ac56 b6bd
000002e0: e4e8 38bd d2f1 98bd 0c6b b73d f5fa f53d
000002f0: 18e6 8ebc c2fa fcbd ff2b 4cbd 682f a43d
00000300: 80e6 533c c0c0 ebbd 2cc7 033d ee74 493c
00000310: a27a a13d 38a7 dc3d 30ab 0dbd 157e 373d
00000320: 7422 2bbd a0d2 eb3b b2dd a03d ea44 303c
00000330: 128f 8ebd 407a f73b e1ad 953d 8073 65bd
00000340: 125f c0bd b8d8 b3bc a661 a13d a8c6 ff3d
00000350: 0003 053a 9838 19bd 90c4 32bd 84e2 74bd
00000360: e0eb 71bd 2e68 42bd 583e cf3c 3a29 e03d
00000370: 2e39 abbd ed65 5f3d 34ad 5b3d fa46 3f3d
00000380: 48c3 d7bc 8469 4fbd b87d 8bbd e659 a43d
00000390: 12e4 47bc a8e8 51bd 3ef9 bebd b49e c9bd
000003a0: 4214 c53d a057 e4bd 0569 d2bc af4d ce3d
000003b0: 220c a2bd e7f9 50bd 803f 7e3b 2c95 4fbd
000003c0: 98f7 a0bc 5db7 c43d 6cbc 16bd e0cf 7f3d
000003d0: 941b 453d 40c4 dcbc 39c1 bd3c c6dc 4dbd
000003e0: b43d 6cbd f81e eabc 5ee2 b73d b2ca 78bd
000003f0: 90c1 233c 9273 823d 906c cbbd 2705 82bc
-0.015367761 -0.010895669 -0.07414332 0.005523743 0.06391 -0.02310887 -0.046796516 -0.062532574
-0.11511545 -0.09020285 -0.0027530938 -0.021909958 0.0875155 -0.10545905 0.013876034 0.04479359
0.05601787 -0.11644544 -0.10891561 0.07407151 0.0017964393 0.035768464 0.017219275 -0.120879605
-0.051660977 -0.018343478 0.09654522 0.07536669 -0.10485183 0.024098542 -0.03354062 -0.054982856
0.040287245 -0.10704005 -0.00569927 0.06988466 0.02584107 -0.112431526 -0.05650439 0.0683205
0.01932975 -0.029386416 -0.0622022 0.022625325 -0.03483105 -0.05052839 0.039911956 0.124590114
0.042609543 0.009302158 0.059920605 -0.11244489 0.07999855 0.023727804 -0.025599722 0.027186787
0.11297552 -0.032498017 0.08009589 0.021285554 0.034424603 -0.0057649314 0.03445299 -0.11284471
-0.03098689 -0.017913625 0.03422299 -0.082497396 0.028107109 0.0367046 -0.040682927 -0.008647858
-0.093150735 0.094845876 0.021534666 0.086630516 -0.022383392 -0.11777517 0.1295105 -0.05730672
0.016938958 -0.08602835 -0.018222809 0.07456651 -0.02812174 -0.06530765 -0.01070261 0.028665587
-0.063360296 -0.060381364 0.06323029 0.070675015 -0.063191846 0.05261323 -0.03943403 -0.03340552
-0.011358972 -0.013710052 0.054125622 0.08991842 -0.06960397 0.123995945 0.12738374 -0.06606774
-0.030980054 0.10527624 -0.00045427427 -0.110252224 -0.05208904 0.054640513 0.06718747 0.11861345
0.048799664 0.009054437 -0.034820404 -0.09179674 -0.032826558 -0.00049060583 -0.018027663 0.011177367
-0.06844123 0.05493994 0.049684837 0.10672776 0.08407299 -0.07032211 0.040393945 0.12942204
-0.04222828 -0.07534215 0.049106 -0.103139274 -0.12907171 0.12108481 0.104629174 0.02554231
-0.11029996 -0.07457012 -0.029528141 -0.040205758 -0.074718 -0.10569745 -0.121243894 -0.11170749
0.061607983 -0.03553815 -0.09648192 -0.006624371 0.07602604 0.06147924 0.09357071 -0.0075359344
-0.06257851 -0.012763876 0.038917065 -0.032341346 -0.086337104 -0.08878785 0.045360968 0.05073526
-0.0015322517 0.08186145 0.07223744 -0.06902921 0.025556196 -0.11793676 0.030909132 -0.069018126
0.036370136 -0.05721055 0.09282568 0.05083841 0.01643689 -0.08370832 0.09644006 -0.07958545
0.1231215 0.0406426 0.084454924 -0.1109509 0.06024331 0.034032688 -0.0356657 -0.0890325
-0.045143977 -0.074679986 0.089559644 0.12010757 -0.017443702 -0.12352516 -0.049846645 0.080168545
0.012933373 -0.115113735 0.032172367 0.012295945 0.078847185 0.10774082 -0.034587085 0.044797976
-0.041780904 0.0071967393 0.07854785 0.010758618 -0.06960882 0.007552415 0.073085554 -0.056018353
-0.09393133 -0.021953925 0.07879953 0.124890625 0.00050739944 -0.037407488 -0.043644488 -0.059786335
-0.05906284 -0.047462635 0.025298283 0.10945363 -0.083605155 0.054540563 0.053631976 0.046698548
-0.026338235 -0.050637737 -0.06811088 0.08024959 -0.012200372 -0.05124727 -0.09324883 -0.09844723
0.096230045 -0.11149526 -0.025684843 0.10073411 -0.079124704 -0.051019575 0.0038795173 -0.05067937
-0.019649312 0.09605286 -0.036800787 0.062454104 0.048122004 -0.026949048 0.023163425 -0.050259374
-0.057676032 -0.02857922 0.08978723 -0.06074018 0.009994879 0.063696995 -0.09932816 -0.015871597

bias f4 [190]
00000000: e5aa b8bd 6486 7b3d 605b 80bd 2dc8 0fbe
00000010: e347 27be 58be d9bd 65bb 46bd 29ed 5d3d
00000020: b0f0 be3c 4988 21bc 826b f93d 4284 163d
00000030: 7415 a73d 0f17 aebd 8c5f e23d fec7 43bd
00000040: 7d1a b8bc 0329 a6bc ed98 76bd e66d 21be
00000050: 0084 42be 5d99 043e ff0d dd3d 1eb3 123e
00000060: 23b0 423d f5d2 2abd 8751 9ebc 86b2 e23d
00000070: fa35 073e 5370 073e 74a3 963d d78b 133e
00000080: 6e7f 963d e513 07bc 553a d63d 2fbc 4ebd
00000090: e40f 64bd 4233 b73d 24bd 9dbb 053c 50be
000000a0: b91d a3bd 3965 a9bc 4d26 e33d 293d 873e
000000b0: 9e67 7c3e ff9d 0f3e 7cea a63e 6ada 073e
000000c0: a1b1 803e 5809 a63e 30a7 893e ccd4 5a3e
000000d0: cfba b73e f2a6 943e fa9a af3e 3676 783e
000000e0: 3b62 a03e 4bfa c43e c261 6f3e a8fc b93e
000000f0: 9661 683e 9770 a43e 7e86 b83e f500 9f3e
00000100: dcfe f83d d217 c13e 8213 c13e 88f0 533e
00000110: 5718 743e afd9 843e ffbe 9e3d 9c53 a03e
00000120: f4d1 433e e9c1 063e 4d68 833e f6f9 8e3e
00000130: 4ae4 3b3e 653a 9d3e 32bd 7e3e f29d a03d
00000140: b091 a23e 4a67 573e b7d8 443d 1426 3a3e
00000150: 6ea1 b43e a3b5 573e 9fcc 413e e7d7 bd3d
00000160: 894b 8a3e fbef 683e 3229 403e 37a4 d03d
00000170: 6e8f 6a3e 07a5 5a3e 3dd5 b13e ea7d b13e
00000180: 6ef1 373e d25d 553e 9457 553e c536 b43e
00000190: 760e 5f3e 5845 883e ae4a 913e e34a 433e
000001a0: b843 533e 87c2 463e 4ad9 783e 17ef 3e3e
000001b0: 81ef 9e3e 41bd b13e 1193 da3d d98f a63e
000001c0: 7462 d83d aac5 733d 13f5 3c3e e75d e13d
000001d0: 88a6 403e bb10 e13d 5160 853e d5fc 5f3e
000001e0: d6ad 6d3e 1d0b 953e 8b00 b53e 8eaf 5f3e
000001f0: 757b 8a3d 0920 683e 20a4 bf3e 0e22 023e
00000200: faad 923e 0eb2 ec3d 79ce 933e 2f47 933e
00000210: 8b31 f83d 5414 cb3d 7d9a 723e e4a5 8b3e
00000220: 857b 7c3e 61ed a63e 17da 5e3e b50a 313e
00000230: f673 1e3e b042 b73e b752 943e e43e 6d3e
00000240: 0e6e 363e c46f 893e 9022 4a3e 9b77 6c3e
00000250: 41e7 443e cb1c 623e 9796 863e 01c8 8f3e
00000260: fc53 963e c7d9 a13e 378d 353e 19e7 4e3e
00000270: f75e 9e3e d4b0 843e 0560 133e a5ff 8a3e
00000280: 24f0 3a3e b100 f33d 55f4 9d3e aad2 ad3d
00000290: 029e 2e3e c6e6 cc3e e757 503e 4537 643e
000002a0: 28fd 3d3e 6a27 d53d d7d1 2b3e cc7b 523e
000002b0: 4d4e 883e e479 1b3e f455 5f3e 8d0b 943e
000002c0: 665c 4a3e 5c66 623e f8a9 103e e501 853e
000002d0: 4a91 db3d 8994 ac3e b7db 303e 8a71 773e
000002e0: b5e9 693e ba90 4a3e 5188 883e 276d a03e
000002f0: d560 d53d f1d0 3c3e
-0.090169705 0.06140746 -0.062674284 -0.14041205 -0.16336016 -0.10632008 -0.048518557 0.05418125
0.023308128 -0.009859153 0.121787086 0.036747225 0.08158389 -0.08500492 0.1105338 -0.04779815
-0.022473568 -0.020283228 -0.060204435 -0.15764579 -0.18995667 0.12949128 0.10793685 0.1432614
0.04753126 -0.04170509 -0.019325985 0.11069207 0.13204184 0.13226442 0.07355395 0.14408813
0.07348524 -0.008244489 0.10460345 -0.050472435 -0.055679217 0.089453235 -0.004813807 -0.20335396
-0.079646535 -0.02067815 0.1109129 0.2641385 0.24648902 0.14025114 0.32600772 0.13266912
0.2513552 0.32429004 0.26885366 0.21370238 0.3588471 0.2903362 0.34297925 0.24263844
0.31324944 0.38472208 0.23377135 0.36325574 0.22693476 0.3211715 0.3604011 0.31055418
0.121579856 0.37713486 0.37710196 0.20697224 0.2383741 0.2594733 0.07751273 0.3131379
0.1912306 0.13159908 0.25665513 0.2792508 0.18348804 0.30708614 0.2487686 0.07842626
0.31751776 0.21035495 0.048058238 0.18178588 0.3527941 0.21065383 0.18925713 0.09269696
0.27010754 0.22747795 0.18765715 0.101875715 0.22906277 0.21352015 0.34733 0.34666377
0.17963192 0.20836571 0.2083419 0.35198036 0.2178286 0.26615405 0.2837729 0.19071536
0.20631301 0.19410144 0.24301639 0.18645893 0.31042102 0.34714702 0.10672582 0.32531622
0.105656534 0.05951468 0.18452863 0.110042386 0.18813527 0.10989519 0.26050046 0.21873792
0.23210844 0.2911004 0.35351977 0.21844313 0.06761829 0.2266847 0.37429905 0.12708303
0.2864836 0.11557399 0.28868464 0.28765246 0.121188246 0.09915987 0.23691745 0.27275002
0.24656494 0.3260298 0.21762882 0.1728924 0.15473923 0.35793066 0.28969356 0.23168522
0.1781542 0.26843083 0.19739747 0.23092501 0.19228841 0.22081296 0.26286766 0.28082278
0.2936095 0.31611463 0.1772965 0.20205344 0.30931827 0.2591616 0.14392097 0.27148166
0.18255669 0.11865366 0.30850473 0.084874466 0.17052463 0.40019816 0.20346032 0.22286709
0.18553603 0.10407908 0.16779266 0.20555037 0.2662224 0.15183216 0.21810132 0.28915063
0.1976181 0.2210936 0.14127338 0.25978008 0.10721071 0.33707073 0.17271315 0.24164405
0.22843058 0.19781771 0.266665 0.31333277 0.1041886 0.1843908

data f4 [10, 191]
00000000: 0000 2041 0000 0000 0000 0000 0000 0000
00000010: 0000 0000 0000 0000 0000 0000 0000 0000
00000020: 0000 0000 0000 0000 0000 0000 0000 0000
00000030: 0000 0000 0000 0000 0000 0000 0000 0000
00000040: 0000 0000 0000 0000 0000 0000 0000 0000
00000050: 0000 0000 0000 0000 0000 0000 0000 0000
00000060: 0000 0000 0000 0000 0000 0000 0000 0000
00000070: 0000 0000 0000 0000 0000 0000 0000 0000
00000080: 0000 0000 0000 0000 0f7e e237 c77f 8139
00000090: 7233 dc3a 0af4 093c d05f e83c 7efe 9b3d
000000a0: b266 243e 8ae9 923e e3e3 eb3e e0ba 2e3f
000000b0: 2cb9 723f c6f8 a03f 8597 ca3f 67f1 f63f
000000c0: 7fa5 0f40 d9e8 2140 4d9e 3040 ee5f 3c40
000000d0: 6328 4540 15e4 4a40 041d 4e40 3ca5 4e40
000000e0: 48c4 4d40 4faf 4b40 3f1e 4840 9032 4440
000000f0: 467d 3f40 5d31 3a40 e291 3440 60cc 2e40
00000100: 5c1f 2940 334e 2340 1d57 1d40 d717 1740
00000110: 378d 1040 e831 0a40 272f 0440 80b8 fb3f
00000120: 7ee2 f03f ee24 e63f 8063 dd3f 1a6b d53f
00000130: a051 ce3f a8aa c83f 5892 c43f 863d c13f
00000140: a395 bf3f 8fc5 be3f da01 bf3f 821c c03f
00000150: 0fba c23f ee93 c53f ce36 c93f 13f0 cd3f
00000160: bd6f d23f 1096 d73f 9ad0 dc3f 5ed5 e13f
00000170: f8fa e63f ff7a eb3f 7fdd ef3f 2bdf f33f
00000180: 29cd f63f 75ad f93f b7f1 fb3f af3f fd3f
00000190: e3dd fd3f d80c fe3f 6ceb fd3f 8b38 fd3f
000001a0: 99f2 fb3f c232 fa3f ff22 f83f 0a6a f63f
000001b0: c2dd f33f de3c f13f 946b ee3f 3109 eb3f
000001c0: 6f49 e83f 014e e53f c51e e23f 9f58 df3f
000001d0: 4293 dc3f 80f0 d93f 7c9c d73f 0ed7 d43f
000001e0: 1406 d33f 3107 d13f 325a cf3f e0da cd3f
000001f0: 2fa5 cc3f 39b7 cb3f 3e77 ca3f b51a ca3f
00000200: a2f0 c93f 2b6d c93f 4774 c93f b570 c93f
00000210: 3a79 c93f d2c2 c93f 5534 ca3f 8a5a ca3f
00000220: e2ae ca3f 6309 cb3f 282c cb3f d064 cb3f
00000230: 5855 cb3f 5166 cb3f 054f cb3f c53a cb3f
00000240: 5fb3 ca3f ab98 ca3f 5304 ca3f 1152 c93f
00000250: c899 c83f cfbd c73f ae0f c73f d6e6 c53f
00000260: 9d2c c53f 2238 c43f 3cd8 c23f 3cbe c13f
00000270: 49be c03f 317b bf3f fe60 be3f 302a bd3f
00000280: f705 bc3f 88f7 ba3f 15e0 b93f 8ae9 b83f
00000290: 5b9a b73f 14e7 b63f b2f2 b53f de02 b53f
000002a0: 560b b43f dd7a b33f 1e88 b23f 17ef b13f
000002b0: d465 b13f c8d1 b03f bf29 b03f 45d7 af3f
000002c0: 3047 af3f 78b7 ae3f 5a65 ae3f 53b3 ad3f
000002d0: 492c ad3f 94dd ac3f 7429 ac3f 1edc ab3f
000002e0: b075 ab3f 7b13 ab3f 427c aa3f da00 aa3f
000002f0: 6d71 a93f 73db a83f ba30 a83f 0000 a041
00000300: 0000 0000 0000 0000 0000 0000 0000 0000
00000310: 0000 0000 0000 0000 0000 0000 0000 0000
00000320: 0000 0000 0000 0000 0000 0000 0000 0000
00000330: 0000 0000 0000 0000 0000 0000 0000 0000
00000340: 0000 0000 0000 0000 0000 0000 0000 0000
00000350: 0000 0000 0000 0000 0000 0000 0000 0000
00000360: 0000 0000 0000 0000 0000 0000 0000 0000
00000370: 0000 0000 0000 0000 0000 0000 0000 0000
00000380: 9c53 c936 20f0 c037 0b60 4a39 acc5 a73a
00000390: 0a9d d73b ba69 b33c 5c3a 663d c556 f03d
000003a0: f31b 563e 5666 aa3e 774d f83e 7574 2c3f
000003b0: a629 623f b744 8e3f 65ab ab3f d4b6 c73f
000003c0: a9d8 e03f 7924 f63f f8aa 0340 2fdd 0940
000003d0: dc46 0e40 01a5 1040 2998 1140 624a 1140
000003e0: 92cd 0f40 ba81 0d40 7b9f 0a40 cf4b 0740
000003f0: e9d6 0340 bf2a ff3f 8ae7 f63f 5bd3 ee3f
10.0 0.0 0.0 0.0 0.0 0.0 0.0 0.0
0.0 0.0 0.0 0.0 0.0 0.0 0.0 0.0
0.0 0.0 0.0 0.0 0.0 0.0 0.0 0.0
0.0 0.0 0.0 0.0 0.0 0.0 0.0 0.0
0.0 0.0 2.7e-05 0.000247 0.00168 0.00842 0.028366 0.076169
0.160548 0.286938 0.460723 0.682539 0.948138 1.257592 1.582749 1.929242
2.244476 2.529837 2.759662 2.943355 3.08059 3.170171 3.220521 3.228835
3.215105 3.182575 3.126846 3.065586 2.992021 2.909263 2.821404 2.731224
2.642539 2.551648 2.458442 2.36083 2.258619 2.159296 2.065378 1.966568
1.881912 1.798002 1.729599 1.667331 1.611866 1.567708 1.535716 1.50969
1.496754 1.490404 1.492244 1.50087 1.521303 1.543577 1.571985 1.608889
1.644035 1.684267 1.725116 1.764324 1.804534 1.839691 1.873947 1.905248
1.928136 1.950606 1.968314 1.978506 1.983334 1.984767 1.983747 1.978288
1.968341 1.954674 1.938568 1.925111 1.905205 1.88467 1.862658 1.836218
1.814741 1.791443 1.766564 1.744892 1.723244 1.702652 1.684463 1.662813
1.648623 1.633032 1.61994 1.608242 1.598791 1.591529 1.581764 1.57894
1.577656 1.573644 1.573861 1.573752 1.574012 1.576258 1.579722 1.580888
1.583462 1.586224 1.587285 1.589014 1.588542 1.58906 1.588349 1.587731
1.583599 1.582784 1.578257 1.572817 1.567193 1.56048 1.555166 1.546107
1.540424 1.532963 1.522224 1.513618 1.505807 1.495947 1.487335 1.47785
1.468932 1.460679 1.452151 1.444627 1.434398 1.428927 1.421469 1.41415
1.406596 1.402187 1.394779 1.390109 1.38592 1.381402 1.376274 1.373757
1.36936 1.364974 1.362468 1.357035 1.352914 1.350512 1.345015 1.342655
1.339529 1.336532 1.331917 1.328151 1.323774 1.319197 1.313987 20.0
0.0 0.0 0.0 0.0 0.0 0.0 0.0 0.0
0.0 0.0 0.0 0.0 0.0 0.0 0.0 0.0
0.0 0.0 0.0 0.0 0.0 0.0 0.0 0.0
0.0 0.0 0.0 0.0 0.0 0.0 0.0 0.0
6e-06 2.3e-05 0.000193 0.00128 0.00658 0.021901 0.056208 0.117353
0.209091 0.332812 0.484966 0.673652 0.883448 1.111472 1.341168 1.560267
1.756612 1.922988 2.05731 2.154125 2.223075 2.260071 2.274912 2.270165
2.246922 2.211043 2.165984 2.114002 2.059992 1.993492 1.928941 1.865825

exp_avg f4 [64, 1]
00000000: 0000 0000 0000 0000 38a3 05bd 28d2 53be
00000010: 0c10 46bb 82ba 043d 0000 0000 3abe e03c
00000020: 0000 0000 c11a e9bb 0000 0000 0000 0000
00000030: f386 96bb b394 bcbc 0000 0000 0b47 b73c
00000040: 1812 48bc 0000 0000 0000 0000 63d3 42bc
00000050: 0000 0000 f65d b9ba 0000 0000 0000 0000
00000060: 0000 0000 0000 0000 3e34 e2bb 0000 0000
00000070: fbc2 d33c 0000 0000 0000 0000 ae38 ce3c
00000080: 0000 0000 e875 a03d 0000 0000 0000 0000
00000090: f9c7 203d 0000 0000 6267 88bb 0f39 dbbb
000000a0: 0000 0000 0000 0000 e249 623b f11b e13b
000000b0: 0000 0000 84c9 dfbc a2a7 c83c cfbc b33c
000000c0: 5fdd 7ebb 4949 6f3c e4de 273c 4ee6 bbbc
000000d0: 5288 fc3d 0000 0000 0000 0000 1827 74bc
000000e0: fca8 bd3b 0000 0000 0000 0000 cd54 ea3a
000000f0: 0000 0000 7997 1fbd 98fa 38bc 4430 4dbc
0.0 0.0 -0.03262636 -0.20685637 -0.0030221967 0.03240443 0.0 0.027434457
0.0 -0.007113785 0.0 0.0 -0.004593724 -0.023020124 0.0 0.022372743
-0.012211345 0.0 0.0 -0.011891219 0.0 -0.0014142382 0.0 0.0
0.0 0.0 -0.0069032004 0.0 0.02584981 0.0 0.0 0.025173511
0.0 0.07834989 0.0 0.0 0.03925321 0.0 -0.004162715 -0.0066901515
0.0 0.0 0.00345289 0.006869786 0.0 -0.02731777 0.024493996 0.021940617
-0.0038889272 0.014604875 0.010246012 -0.022936966 0.123306885 0.0 0.0 -0.014901899
0.005787967 0.0 0.0 0.0017878056 0.0 -0.038962815 -0.011290215 -0.012523714

exp_avg_sq f4 [64, 1]
00000000: 0000 0000 0000 0000 826d 233e d176 f140
00000010: d63c c33a b2e8 653e 0000 0000 cb6c e53d
00000020: 0000 0000 1fd8 963b 0000 0000 0000 0000
00000030: b211 563b 6ead cd3d 0000 0000 6ac5 d63d
00000040: cbfd c43c 0000 0000 0000 0000 9a8c 1d3d
00000050: 0000 0000 f708 3a3b 0000 0000 0000 0000
00000060: 0000 0000 0000 0000 ae7c 363c 0000 0000
00000070: c8a6 e63d 0000 0000 0000 0000 7db6 fd3d
00000080: 0000 0000 6690 993f 0000 0000 0000 0000
00000090: 9c92 953e 0000 0000 e5ca 1e3c 1eba ab3b
000000a0: 0000 0000 0000 0000 ae1b db3a f000 883b
000000b0: 0000 0000 f237 093e 3fef 043e 5039 b13d
000000c0: 70b6 113b 0186 233d 6b4c 633c 1779 c73d
000000d0: 33eb 3c40 0000 0000 0000 0000 1765 603d
000000e0: 94ae d33b 0000 0000 0000 0000 0fbe 033b
000000f0: 0000 0000 a48e 8d3e d2ea 923c 323a 293d
0.0 0.0 0.15959743 7.545754 0.001489545 0.22452047 0.0 0.11202391
0.0 0.0046034004 0.0 0.0 0.0032664356 0.10042845 0.0 0.104868725
0.0240468 0.0 0.0 0.038464166 0.0 0.002838669 0.0 0.0
0.0 0.0 0.011138124 0.0 0.1126228 0.0 0.0 0.123883225
0.0 1.1997192 0.0 0.0 0.29213417 0.0 0.0096919285 0.0052406928
0.0 0.0 0.0016716623 0.0041505024 0.0 0.13400248 0.1298189 0.086535096
0.0022233985 0.039922718 0.0138732 0.09739893 2.9518554 0.0 0.0 0.054783907
0.0064600203 0.0 0.0 0.0020102297 0.0 0.2764789 0.017934237 0.041315265

exp_avg f4 [64]
00000000: 0000 0000 0000 0000 9a39 4c39 c4e8 163a
00000010: 5f02 2937 5124 bc39 0000 0000 7b52 72b9
00000020: 0000 0000 28f1 123a 0000 0000 0000 0000
00000030: 656a 2d35 8eac ec37 0000 0000 77f9 6939
00000040: f618 8bb8 0000 0000 0000 0000 3610 3cb8
00000050: 0000 0000 e4f5 4eb9 0000 0000 0000 0000
00000060: 0000 0000 0000 0000 70e4 cbb8 0000 0000
00000070: a40c a2b9 0000 0000 0000 0000 8cf5 c938
00000080: 0000 0000 34af 9838 0000 0000 0000 0000
00000090: ce5a a2b9 0000 0000 e39e 97b9 98c6 de39
000000a0: 0000 0000 0000 0000 08ce 5739 0f42 30b9
000000b0: 0000 0000 7693 1339 d100 ba39 afab 56b9
000000c0: b0de 6239 f00a 3638 8524 8db9 57f2 c0b8
000000d0: 2a2c ef39 0000 0000 0000 0000 16dd 04b9
000000e0: 12c7 de38 0000 0000 0000 0000 34d2 9738
000000f0: 0000 0000 0a63 6237 c9ee 2239 3460 acb9
0.0 0.0 0.00019476414 0.00057567307 1.0073737e-05 0.00035885212 0.0 -0.00023109645
0.0 0.0005605393 0.0 0.0 6.4602347e-07 2.8213744e-05 0.0 0.00022313544
-6.632686e-05 0.0 0.0 -4.483779e-05 0.0 -0.00019737292 0.0 0.0
0.0 0.0 -9.722344e-05 0.0 -0.00030908466 0.0 0.0 9.6301635e-05
0.0 7.280559e-05 0.0 0.0 -0.00030966703 0.0 -0.00028919344 0.00042491104
0.0 0.0 0.0002058075 -0.00016809277 0.0 0.00014073946 0.00035477293 -0.00020472587
0.00021635997 4.3402368e-05 -0.00026920825 -9.200413e-05 0.00045618537 0.0 0.0 -0.00012670862
0.00010622865 0.0 0.0 7.2393945e-05 0.0 1.3493709e-05 0.00015538478 -0.00032878073

exp_avg_sq f4 [64]
00000000: 0000 0000 0000 0000 de79 7e38 5bee 5c3b
00000010: 03fe 2335 1c64 1b39 0000 0000 aa66 1e38
00000020: 0000 0000 a31d 3337 0000 0000 0000 0000
00000030: 86df 1636 5aba 5838 0000 0000 2ec4 9238
00000040: a86e 5737 0000 0000 0000 0000 5247 cc37
00000050: 0000 0000 d946 9536 0000 0000 0000 0000
00000060: 0000 0000 0000 0000 7902 0437 0000 0000
00000070: 9c94 1f38 0000 0000 0000 0000 bd7b 8f38
00000080: 0000 0000 3844 203a 0000 0000 0000 0000
00000090: f055 f738 0000 0000 6b4f 8337 1926 8636
000000a0: 0000 0000 0000 0000 b64c 3836 9dd9 b035
000000b0: 0000 0000 5734 6738 ce48 b638 4424 0238
000000c0: 7643 9135 e281 b037 661c 5236 fd27 6638
000000d0: 84d6 cb3a 0000 0000 0000 0000 217b 1638
000000e0: 29ae b636 0000 0000 0000 0000 6889 fb35
000000f0: 0000 0000 7551 1339 f95c b236 a8fb 2338
0.0 0.0 6.0671817e-05 0.0033711407 6.109187e-07 0.00014819246 0.0 3.776575e-05
0.0 1.0676132e-05 0.0 0.0 2.248185e-06 5.1671967e-05 0.0 6.998364e-05
1.2840763e-05 0.0 0.0 2.4351906e-05 0.0 4.448794e-06 0.0 0.0
0.0 0.0 7.868389e-06 0.0 3.8046957e-05 0.0 0.0 6.8418194e-05
0.0 0.0006113681 0.0 0.0 0.00011793885 0.0 1.5653399e-05 3.9979464e-06
0.0 0.0 2.7462788e-06 1.3176356e-06 0.0 5.5123437e-05 8.691997e-05 3.102819e-05
1.0822976e-06 2.1041316e-05 3.1308969e-06 5.4873515e-05 0.0015551602 0.0 0.0 3.587746e-05
5.4442976e-06 0.0 0.0 1.8740948e-06 0.0 0.00014049358 5.315637e-06 3.90966e-05

exp_avg f4 [64, 64]
00000000: 0000 0000 0000 0000 0000 0000 0000 0000
00000010: 0000 0000 0000 0000 0000 0000 0000 0000
00000020: 0000 0000 0000 0000 0000 0000 0000 0000
00000030: 0000 0000 0000 0000 0000 0000 0000 0000
00000040: 0000 0000 0000 0000 0000 0000 0000 0000
00000050: 0000 0000 0000 0000 0000 0000 0000 0000
00000060: 0000 0000 0000 0000 0000 0000 0000 0000
00000070: 0000 0000 0000 0000 0000 0000 0000 0000
00000080: 0000 0000 0000 0000 0000 0000 0000 0000
00000090: 0000 0000 0000 0000 0000 0000 0000 0000
000000a0: 0000 0000 0000 0000 0000 0000 0000 0000
000000b0: 0000 0000 0000 0000 0000 0000 0000 0000
000000c0: 0000 0000 0000 0000 0000 0000 0000 0000
000000d0: 0000 0000 0000 0000 0000 0000 0000 0000
000000e0: 0000 0000 0000 0000 0000 0000 0000 0000
000000f0: 0000 0000 0000 0000 0000 0000 0000 0000
00000100: 0000 0000 0000 0000 0000 0000 0000 0000
00000110: 0000 0000 0000 0000 0000 0000 0000 0000
00000120: 0000 0000 0000 0000 0000 0000 0000 0000
00000130: 0000 0000 0000 0000 0000 0000 0000 0000
00000140: 0000 0000 0000 0000 0000 0000 0000 0000
00000150: 0000 0000 0000 0000 0000 0000 0000 0000
00000160: 0000 0000 0000 0000 0000 0000 0000 0000
00000170: 0000 0000 0000 0000 0000 0000 0000 0000
00000180: 0000 0000 0000 0000 0000 0000 0000 0000
00000190: 0000 0000 0000 0000 0000 0000 0000 0000
000001a0: 0000 0000 0000 0000 0000 0000 0000 0000
000001b0: 0000 0000 0000 0000 0000 0000 0000 0000
000001c0: 0000 0000 0000 0000 0000 0000 0000 0000
000001d0: 0000 0000 0000 0000 0000 0000 0000 0000
000001e0: 0000 0000 0000 0000 0000 0000 0000 0000
000001f0: 0000 0000 0000 0000 0000 0000 0000 0000
00000200: 0000 0000 0000 0000 0000 0000 0000 0000
00000210: 0000 0000 0000 0000 0000 0000 0000 0000
00000220: 0000 0000 0000 0000 0000 0000 0000 0000
00000230: 0000 0000 0000 0000 0000 0000 0000 0000
00000240: 0000 0000 0000 0000 0000 0000 0000 0000
00000250: 0000 0000 0000 0000 0000 0000 0000 0000
00000260: 0000 0000 0000 0000 0000 0000 0000 0000
00000270: 0000 0000 0000 0000 0000 0000 0000 0000
00000280: 0000 0000 0000 0000 0000 0000 0000 0000
00000290: 0000 0000 0000 0000 0000 0000 0000 0000
000002a0: 0000 0000 0000 0000 0000 0000 0000 0000
000002b0: 0000 0000 0000 0000 0000 0000 0000 0000
000002c0: 0000 0000 0000 0000 0000 0000 0000 0000
000002d0: 0000 0000 0000 0000 0000 0000 0000 0000
000002e0: 0000 0000 0000 0000 0000 0000 0000 0000
000002f0: 0000 0000 0000 0000 0000 0000 0000 0000
00000300: 0000 0000 0000 0000 cf90 033c 8063 9db9
00000310: 205e 453c cd69 cc3b 0000 0000 9b22 4d3b
00000320: 0000 0000 99c2 553c 0000 0000 0000 0000
00000330: 05bb 2e3c 65b1 8c3c 0000 0000 6009 483c
00000340: f65b 843c 0000 0000 0000 0000 8a50 d43b
00000350: 0000 0000 1ee7 8a3c 0000 0000 0000 0000
00000360: 0000 0000 0000 0000 6ec2 3a3c 0000 0000
00000370: 72be ad3c 0000 0000 0000 0000 4e4e 643c
00000380: 0000 0000 9121 933b 0000 0000 0000 0000
00000390: 68d4 433c 0000 0000 e766 113c a924 863c
000003a0: 0000 0000 0000 0000 38cd c03c cd4d b33b
000003b0: 0000 0000 f48f 5e3c e617 993b 0f2d 923c
000003c0: 6cb1 b33c 570a bb3c e870 0b3c dd2e ac3c
000003d0: dbea e93a 0000 0000 0000 0000 a97c 933c
000003e0: 6c33 9e3c 0000 0000 0000 0000 7c97 413c
000003f0: 0000 0000 6a51 3c3c aab9 903c 444f c23c
0.0 0.0 0.0 0.0 0.0 0.0 0.0 0.0
0.0 0.0 0.0 0.0 0.0 0.0 0.0 0.0
0.0 0.0 0.0 0.0 0.0 0.0 0.0 0.0
0.0 0.0 0.0 0.0 0.0 0.0 0.0 0.0
0.0 0.0 0.0 0.0 0.0 0.0 0.0 0.0
0.0 0.0 0.0 0.0 0.0 0.0 0.0 0.0
0.0 0.0 0.0 0.0 0.0 0.0 0.0 0.0
0.0 0.0 0.0 0.0 0.0 0.0 0.0 0.0
0.0 0.0 0.0 0.0 0.0 0.0 0.0 0.0
0.0 0.0 0.0 0.0 0.0 0.0 0.0 0.0
0.0 0.0 0.0 0.0 0.0 0.0 0.0 0.0
0.0 0.0 0.0 0.0 0.0 0.0 0.0 0.0
0.0 0.0 0.0 0.0 0.0 0.0 0.0 0.0
0.0 0.0 0.0 0.0 0.0 0.0 0.0 0.0
0.0 0.0 0.0 0.0 0.0 0.0 0.0 0.0
0.0 0.0 0.0 0.0 0.0 0.0 0.0 0.0
0.0 0.0 0.0 0.0 0.0 0.0 0.0 0.0
0.0 0.0 0.0 0.0 0.0 0.0 0.0 0.0
0.0 0.0 0.0 0.0 0.0 0.0 0.0 0.0
0.0 0.0 0.0 0.0 0.0 0.0 0.0 0.0
0.0 0.0 0.0 0.0 0.0 0.0 0.0 0.0
0.0 0.0 0.0 0.0 0.0 0.0 0.0 0.0
0.0 0.0 0.0 0.0 0.0 0.0 0.0 0.0
0.0 0.0 0.0 0.0 0.0 0.0 0.0 0.0
0.0 0.0 0.0080301305 -0.00030019507 0.012046367 0.0062381984 0.0 0.0031301144
0.0 0.013046884 0.0 0.0 0.010664706 0.017174432 0.0 0.012209266
0.016157132 0.0 0.0 0.0064793276 0.0 0.016955908 0.0 0.0
0.0 0.0 0.011398895 0.0 0.021208975 0.0 0.0 0.013934685
0.0 0.0044900854 0.0 0.0 0.011952497 0.0 0.0088746315 0.016374903
0.0 0.0 0.023535356 0.005471921 0.0 0.013584126 0.0046720384 0.017843751
0.021935187 0.022832079 0.008510806 0.02101844 0.0017846482 0.0 0.0 0.018003779
0.01931163 0.0 0.0 0.011815902 0.0 0.01149402 0.017666657 0.023719437

exp_avg_sq f4 [64, 64]
00000000: 0000 0000 0000 0000 0000 0000 0000 0000
00000010: 0000 0000 0000 0000 0000 0000 0000 0000
00000020: 0000 0000 0000 0000 0000 0000 0000 0000
00000030: 0000 0000 0000 0000 0000 0000 0000 0000
00000040: 0000 0000 0000 0000 0000 0000 0000 0000
00000050: 0000 0000 0000 0000 0000 0000 0000 0000
00000060: 0000 0000 0000 0000 0000 0000 0000 0000
00000070: 0000 0000 0000 0000 0000 0000 0000 0000
00000080: 0000 0000 0000 0000 0000 0000 0000 0000
00000090: 0000 0000 0000 0000 0000 0000 0000 0000
000000a0: 0000 0000 0000 0000 0000 0000 0000 0000
000000b0: 0000 0000 0000 0000 0000 0000 0000 0000
000000c0: 0000 0000 0000 0000 0000 0000 0000 0000
000000d0: 0000 0000 0000 0000 0000 0000 0000 0000
000000e0: 0000 0000 0000 0000 0000 0000 0000 0000
000000f0: 0000 0000 0000 0000 0000 0000 0000 0000
00000100: 0000 0000 0000 0000 0000 0000 0000 0000
00000110: 0000 0000 0000 0000 0000 0000 0000 0000
00000120: 0000 0000 0000 0000 0000 0000 0000 0000
00000130: 0000 0000 0000 0000 0000 0000 0000 0000
00000140: 0000 0000 0000 0000 0000 0000 0000 0000
00000150: 0000 0000 0000 0000 0000 0000 0000 0000
00000160: 0000 0000 0000 0000 0000 0000 0000 0000
00000170: 0000 0000 0000 0000 0000 0000 0000 0000
00000180: 0000 0000 0000 0000 0000 0000 0000 0000
00000190: 0000 0000 0000 0000 0000 0000 0000 0000
000001a0: 0000 0000 0000 0000 0000 0000 0000 0000
000001b0: 0000 0000 0000 0000 0000 0000 0000 0000
000001c0: 0000 0000 0000 0000 0000 0000 0000 0000
000001d0: 0000 0000 0000 0000 0000 0000 0000 0000
000001e0: 0000 0000 0000 0000 0000 0000 0000 0000
000001f0: 0000 0000 0000 0000 0000 0000 0000 0000
00000200: 0000 0000 0000 0000 0000 0000 0000 0000
00000210: 0000 0000 0000 0000 0000 0000 0000 0000
00000220: 0000 0000 0000 0000 0000 0000 0000 0000
00000230: 0000 0000 0000 0000 0000 0000 0000 0000
00000240: 0000 0000 0000 0000 0000 0000 0000 0000
00000250: 0000 0000 0000 0000 0000 0000 0000 0000
00000260: 0000 0000 0000 0000 0000 0000 0000 0000
00000270: 0000 0000 0000 0000 0000 0000 0000 0000
00000280: 0000 0000 0000 0000 0000 0000 0000 0000
00000290: 0000 0000 0000 0000 0000 0000 0000 0000
000002a0: 0000 0000 0000 0000 0000 0000 0000 0000
000002b0: 0000 0000 0000 0000 0000 0000 0000 0000
000002c0: 0000 0000 0000 0000 0000 0000 0000 0000
000002d0: 0000 0000 0000 0000 0000 0000 0000 0000
000002e0: 0000 0000 0000 0000 0000 0000 0000 0000
000002f0: 0000 0000 0000 0000 0000 0000 0000 0000
00000300: 0000 0000 0000 0000 6ac1 4f3c 3798 4d37
00000310: 07c9 dc3c 8216 c13b 0000 0000 304f c63a
00000320: 0000 0000 6cf4 ec3c 0000 0000 0000 0000
00000330: 91b5 a33c 41a4 633d 0000 0000 eb8f d03c
00000340: b7b8 453d 0000 0000 0000 0000 c7ba 103c
00000350: 0000 0000 c8fe 593d 0000 0000 0000 0000
00000360: 0000 0000 0000 0000 c9ae cc3c 0000 0000
00000370: 30b7 9e3d 0000 0000 0000 0000 4837 023d
00000380: 0000 0000 9e8d 273b 0000 0000 0000 0000
00000390: 650d bb3c 0000 0000 7007 643c e069 423d
000003a0: 0000 0000 0000 0000 90b9 c33d b4ff b83b
000003b0: 0000 0000 e090 113d 7298 453b 9f87 5c3d
000003c0: 3b25 b13d 29c7 bd3d 48a6 533c b1f0 a33d
000003d0: 384e b439 0000 0000 0000 0000 7604 7b3d
000003e0: 795b 893d 0000 0000 0000 0000 750a b83c
000003f0: 0000 0000 78bc d13c 463e 6a3d 7994 d03d
0.0 0.0 0.0 0.0 0.0 0.0 0.0 0.0
0.0 0.0 0.0 0.0 0.0 0.0 0.0 0.0
0.0 0.0 0.0 0.0 0.0 0.0 0.0 0.0
0.0 0.0 0.0 0.0 0.0 0.0 0.0 0.0
0.0 0.0 0.0 0.0 0.0 0.0 0.0 0.0
0.0 0.0 0.0 0.0 0.0 0.0 0.0 0.0
0.0 0.0 0.0 0.0 0.0 0.0 0.0 0.0
0.0 0.0 0.0 0.0 0.0 0.0 0.0 0.0
0.0 0.0 0.0 0.0 0.0 0.0 0.0 0.0
0.0 0.0 0.0 0.0 0.0 0.0 0.0 0.0
0.0 0.0 0.0 0.0 0.0 0.0 0.0 0.0
0.0 0.0 0.0 0.0 0.0 0.0 0.0 0.0
0.0 0.0 0.0 0.0 0.0 0.0 0.0 0.0
0.0 0.0 0.0 0.0 0.0 0.0 0.0 0.0
0.0 0.0 0.0 0.0 0.0 0.0 0.0 0.0
0.0 0.0 0.0 0.0 0.0 0.0 0.0 0.0
0.0 0.0 0.0 0.0 0.0 0.0 0.0 0.0
0.0 0.0 0.0 0.0 0.0 0.0 0.0 0.0
0.0 0.0 0.0 0.0 0.0 0.0 0.0 0.0
0.0 0.0 0.0 0.0 0.0 0.0 0.0 0.0
0.0 0.0 0.0 0.0 0.0 0.0 0.0 0.0
0.0 0.0 0.0 0.0 0.0 0.0 0.0 0.0
0.0 0.0 0.0 0.0 0.0 0.0 0.0 0.0
0.0 0.0 0.0 0.0 0.0 0.0 0.0 0.0
0.0 0.0 0.012680391 1.22543925e-05 0.026951326 0.0058925757 0.0 0.0015129801
0.0 0.028925143 0.0 0.0 0.019984039 0.055576567 0.0 0.02545925
0.04827186 0.0 0.0 0.008833594 0.0 0.053221494 0.0 0.0
0.0 0.0 0.024985688 0.0 0.07749784 0.0 0.0 0.031791
0.0 0.0025566588 0.0 0.0 0.022833535 0.0 0.013917789 0.04746425
0.0 0.0 0.095568776 0.0056457166 0.0 0.035538554 0.003015068 0.053840276
0.08649679 0.092665024 0.0129180625 0.080048926 0.00034390553 0.0 0.0 0.06128355
0.067069 0.0 0.0 0.022465924 0.0 0.025602564 0.057188295 0.10184569

exp_avg f4 [64]
00000000: 0000 0000 0000 0000 0000 0000 c0b6 51b9
00000010: bcdd 5839 0000 0000 0000 0000 6315 c1ba
00000020: 0000 0000 0000 0000 0000 0000 23cd a2b9
00000030: 0000 0000 0000 0000 0400 0000 0000 0000
00000040: 01e3 4339 0000 0000 0000 0000 0000 0000
00000050: 0000 0000 0000 0000 0000 0000 0000 0000
00000060: 3fab f2b9 c5b9 e738 0000 0000 0000 0000
00000070: 0000 0000 92d6 9239 0000 0000 55fe b539
00000080: 283c a839 0000 0000 526e 3d38 0000 0000
00000090: 946f 5938 0000 0000 92dd bb39 0000 0000
000000a0: 8398 2b39 0000 0000 0400 0000 ad6c 8239
000000b0: dd81 13b8 a41a 9cb6 0000 0000 0000 0000
000000c0: 0000 0000 1cc2 a2b9 31b8 af39 0000 0000
000000d0: 0000 0000 0000 0000 ee36 3539 bc16 2dbb
000000e0: 0000 0000 0000 0000 0000 0000 284c 29ba
000000f0: 0000 0000 0000 0000 0400 0000 e6a9 b838
0.0 0.0 0.0 -0.00019999873 0.00020681968 0.0 0.0 -0.0014731105
0.0 0.0 0.0 -0.00031051887 0.0 0.0 6e-45 0.0
0.00018681215 0.0 0.0 0.0 0.0 0.0 0.0 0.0
-0.00046285425 0.000110495406 0.0 0.0 0.0 0.00028007157 0.0 0.00034712502
0.00032088277 0.0 4.5163855e-05 0.0 5.1840747e-05 0.0 0.00035832502 0.0
0.00016364646 0.0 6e-45 0.00024876502 -3.5168476e-05 -4.6522637e-06 0.0 0.0
0.0 -0.0003104367 0.00033515834 0.0 0.0 0.0 0.00017281968 -0.0026411256
0.0 0.0 0.0 -0.00064581865 0.0 0.0 6e-45 8.80545e-05

exp_avg_sq f4 [64]
00000000: 0000 0000 0000 0000 0000 0000 02cc 1c38
00000010: c09d ec38 0000 0000 0000 0000 8eb2 3d39
00000020: 0000 0000 0000 0000 0000 0000 c4bd 0839
00000030: 0000 0000 0000 0000 d769 ea33 0000 0000
00000040: 909a 2538 0000 0000 0000 0000 0000 0000
00000050: 0000 0000 0000 0000 0000 0000 0000 0000
00000060: 3ca8 9839 01ab 1e38 0000 0000 0000 0000
00000070: 0000 0000 6923 ce38 0000 0000 2639 0839
00000080: 35ab c738 0000 0000 1c2e 9937 0000 0000
00000090: 8ae6 1b37 0000 0000 f1ad a639 0000 0000
000000a0: b2c9 e537 0000 0000 4905 1c2f 0d5a 0339
000000b0: 5e59 af37 f2ce 8836 0000 0000 0000 0000
000000c0: 0000 0000 5d71 0f39 e508 6a38 0000 0000
000000d0: 0000 0000 0000 0000 fec7 4b38 ad15 a439
000000e0: 0000 0000 0000 0000 0000 0000 502f 083a
000000f0: 0000 0000 0000 0000 8054 1431 f872 8937
0.0 0.0 0.0 3.7383295e-05 0.0001128274 0.0 0.0 0.00018090961
0.0 0.0 0.0 0.00013040664 0.0 0.0 1.0915726e-07 0.0
3.9483013e-05 0.0 0.0 0.0 0.0 0.0 0.0 0.0
0.00029117044 3.7829395e-05 0.0 0.0 0.0 9.829441e-05 0.0 0.0001299126
9.520949e-05 0.0 1.8260493e-05 0.0 9.2923965e-06 0.0 0.00031791584 0.0
2.7392849e-05 0.0 1.4189995e-10 0.0001252668 2.090324e-05 4.0772074e-06 0.0 0.0
0.0 0.00013679774 5.579823e-05 0.0 0.0 0.0 4.858523e-05 0.00031296667
0.0 0.0 0.0 0.00051950384 0.0 0.0 2.1584867e-09 1.638521e-05

exp_avg f4 [190, 64]
00000000: 0000 0000 0000 0000 0000 0000 fc33 96b8
00000010: cc9e cfb8 0000 0000 0000 0000 495b cab7
00000020: 0000 0000 0000 0000 0000 0000 f8a4 e7b8
00000030: 0000 0000 0000 0000 0400 0000 0000 0000
00000040: 50ff 99b7 0000 0000 0000 0000 0000 0000
00000050: 0000 0000 0000 0000 0000 0000 0000 0000
00000060: 0cdf 16b9 6bb8 1fb8 0000 0000 0000 0000
00000070: 0000 0000 f02a 11b8 0000 0000 aa16 c8b8
00000080: 394a 97b7 0000 0000 6453 55b8 0000 0000
00000090: e7b1 d2b8 0000 0000 6803 b737 0000 0000
000000a0: 2e6d 5fb8 0000 0000 0400 0000 8f46 edb6
000000b0: 49a8 2db8 d5e2 b3b8 0000 0000 0000 0000
000000c0: 0000 0000 cd53 ceb8 0484 c2b8 0000 0000
000000d0: 0000 0000 0000 0000 f13a 9cb8 4f7c b3b7
000000e0: 0000 0000 0000 0000 0000 0000 2d60 14b9
000000f0: 0000 0000 0000 0000 0400 0000 c8c6 a2b7
00000100: 0000 0000 0000 0000 0000 0000 3fa8 c5b5
00000110: 4e33 4fb6 0000 0000 0000 0000 c7ef 02b4
00000120: 0000 0000 0000 0000 0000 0000 3907 17b6
00000130: 0000 0000 0000 0000 0400 0080 0000 0000
00000140: 5e32 65b5 0000 0000 0000 0000 0000 0000
00000150: 0000 0000 0000 0000 0000 0000 0000 0000
00000160: 3127 44b6 bc58 bbb5 0000 0000 0000 0000
00000170: 0000 0000 a72f bfb5 0000 0000 612d 58b6
00000180: 49ff 88b5 0000 0000 4408 deb5 0000 0000
00000190: ae00 36b6 0000 0000 6212 bcb3 0000 0000
000001a0: 5460 e2b5 0000 0000 0400 0080 20b8 47b5
000001b0: f390 68b5 f820 1fb6 0000 0000 0000 0000
000001c0: 0000 0000 d916 07b6 7576 43b6 0000 0000
000001d0: 0000 0000 0000 0000 525f 1ab6 fe9f cdb3
000001e0: 0000 0000 0000 0000 0000 0000 f0ce 40b6
000001f0: 0000 0000 0000 0000 0400 0080 a819 2bb5
00000200: 0000 0000 0000 0000 0000 0000 4ff9 b7b8
00000210: 7fcb feb8 0000 0000 0000 0000 f894 1ab8
00000220: 0000 0000 0000 0000 0000 0000 89ca 0db9
00000230: 0000 0000 0000 0000 0400 0000 0000 0000
00000240: 495a bdb7 0000 0000 0000 0000 0000 0000
00000250: 0000 0000 0000 0000 0000 0000 0000 0000
00000260: 49a8 38b9 7926 44b8 0000 0000 0000 0000
00000270: 0000 0000 978d 32b8 0000 0000 eecc f5b8
00000280: e6c0 bab7 0000 0000 86d8 82b8 0000 0000
00000290: 5414 01b9 0000 0000 d7a6 de37 0000 0000
000002a0: dc04 89b8 0000 0000 0400 0000 3609 14b7
000002b0: 73f7 54b8 a571 dcb8 0000 0000 0000 0000
000002c0: 0000 0000 06a1 fcb8 5fbd eeb8 0000 0000
000002d0: 0000 0000 0000 0000 43a5 bfb8 4935 09b8
000002e0: 0000 0000 0000 0000 0000 0000 839a 35b9
000002f0: 0000 0000 0000 0000 0400 0000 3120 c7b7
00000300: 0000 0000 0000 0000 0000 0000 c106 01b6
00000310: 7db6 0ab6 0000 0000 0000 0000 a8de 4533
00000320: 0000 0000 0000 0000 0000 0000 9ea6 46b6
00000330: 0000 0000 0000 0000 0400 0000 0000 0000
00000340: 134a 6cb4 0000 0000 0000 0000 0000 0000
00000350: 0000 0000 0000 0000 0000 0000 0000 0000
00000360: 503f 81b6 9736 35b5 0000 0000 0000 0000
00000370: 0000 0000 f05d 0fb5 0000 0000 9417 fbb5
00000380: da78 08b4 0000 0000 d5e6 87b5 0000 0000
00000390: c4d8 1ab6 0000 0000 c0fd 6935 0000 0000
000003a0: ec02 92b5 0000 0000 0400 0000 4afa 1434
000003b0: 6b33 96b5 f81d 02b6 0000 0000 0000 0000
000003c0: 0000 0000 1fef 30b6 b773 01b6 0000 0000
000003d0: 0000 0000 0000 0000 b864 d1b5 6abe 7332
000003e0: 0000 0000 0000 0000 0000 0000 e746 7eb6
000003f0: 0000 0000 0000 0000 0400 0000 c1f6 c4b4
0.0 0.0 0.0 -7.16224e-05 -9.9001074e-05 0.0 0.0 -2.4122784e-05
0.0 0.0 0.0 -0.00011045666 0.0 0.0 6e-45 0.0
-1.835791e-05 0.0 0.0 0.0 0.0 0.0 0.0 0.0
-0.00014388206 -3.8080307e-05 0.0 0.0 0.0 -3.4610683e-05 0.0 -9.540965e-05
-1.8035165e-05 0.0 -5.086082e-05 0.0 -0.00010046717 0.0 2.1816886e-05 0.0
-5.3269025e-05 0.0 6e-45 -7.0713645e-06 -4.1403142e-05 -8.577636e-05 0.0 0.0
0.0 -9.8384546e-05 -9.275231e-05 0.0 0.0 0.0 -7.449638e-05 -2.1396349e-05
0.0 0.0 0.0 -0.00014150208 0.0 0.0 6e-45 -1.940447e-05
0.0 0.0 0.0 -1.472661e-06 -3.0875267e-06 0.0 0.0 -1.2194424e-07
0.0 0.0 0.0 -2.2504958e-06 0.0 0.0 -6e-45 0.0
-8.538244e-07 0.0 0.0 0.0 0.0 0.0 0.0 0.0
-2.9229088e-06 -1.3958411e-06 0.0 0.0 0.0 -1.4244478e-06 0.0 -3.2212922e-06
-1.0207087e-06 0.0 -1.6542695e-06 0.0 -2.712051e-06 0.0 -8.757776e-08 0.0
-1.6866347e-06 0.0 -6e-45 -7.4401214e-07 -8.6637664e-07 -2.3712037e-06 0.0 0.0
0.0 -2.0129867e-06 -2.9126215e-06 0.0 0.0 0.0 -2.3003272e-06 -9.575159e-08
0.0 0.0 0.0 -2.8730683e-06 0.0 0.0 -6e-45 -6.37398e-07
0.0 0.0 0.0 -8.772557e-05 -0.00012149568 0.0 0.0 -3.68552e-05
0.0 0.0 0.0 -0.00013522258 0.0 0.0 6e-45 0.0
-2.2572598e-05 0.0 0.0 0.0 0.0 0.0 0.0 0.0
-0.00017610299 -4.6765872e-05 0.0 0.0 0.0 -4.2570373e-05 0.0 -0.000117206815
-2.2262753e-05 0.0 -6.239214e-05 0.0 -0.00012309971 0.0 2.6542153e-05 0.0
-6.533574e-05 0.0 6e-45 -8.823632e-06 -5.0775194e-05 -0.000105115854 0.0 0.0
0.0 -0.00012046289 -0.000113839975 0.0 0.0 0.0 -9.138372e-05 -3.271297e-05
0.0 0.0 0.0 -0.00017319065 0.0 0.0 6e-45 -2.3737639e-05
0.0 0.0 0.0 -1.922643e-06 -2.0669825e-06 0.0 0.0 4.607014e-08
0.0 0.0 0.0 -2.9601283e-06 0.0 0.0 6e-45 0.0
-2.2006161e-07 0.0 0.0 0.0 0.0 0.0 0.0 0.0
-3.85187e-06 -6.7507193e-07 0.0 0.0 0.0 -5.340835e-07 0.0 -1.870782e-06
-1.2709953e-07 0.0 -1.0125465e-06 0.0 -2.3073962e-06 0.0 8.716852e-07 0.0
-1.0878698e-06 0.0 6e-45 1.3874629e-07 -1.1190835e-06 -1.9388954e-06 0.0 0.0
0.0 -2.636523e-06 -1.9289853e-06 0.0 0.0 0.0 -1.5601026e-06 1.4187757e-08
0.0 0.0 0.0 -3.789022e-06 0.0 0.0 6e-45 -3.6687382e-07
