model.pth (torch, 926418 bytes, 18 tensors)

weight f4 [50, 1]
000000 20 d0 c1 bd 30 a5 90 be 17 2f bc 3d 10 8b 49 bf
       -0.09463525 -0.28251028 0.09188669 -0.7872782
000010 58 b9 77 bf ae f9 2c bf 70 21 2b bf b4 92 e3 be
       -0.9676719 -0.6756848 -0.66847897 -0.44447863
000020 70 85 25 be 30 e0 06 3d dd b3 50 3f 48 96 f3 be
       -0.16164184 0.032928646 0.8152445 -0.47575593
000030 8c d5 97 3e 52 8a 66 bf e4 0e 1a bf 1f b6 25 3e
       0.2965511 -0.9005481 -0.6017897 0.16182755
000040 c0 6b 1f be 5f 9f 61 3e 2e 2c 0f 3e 54 ce d2 be
       -0.15568447 0.22033451 0.13981697 -0.4117304
000050 80 d3 f2 be 40 11 2f bf 0b 43 46 3e 44 57 30 bf
       -0.47426987 -0.68385696 0.19361512 -0.68883157
000060 94 d3 2b bf 5e 86 73 bf 54 fd 51 bf ff 39 34 3e
       -0.6711972 -0.95126903 -0.82027173 0.17600249
000070 f4 13 8c 3c f4 9a 37 3e 1c d8 fe be 2c fb cd be
       0.017099358 0.17930204 -0.49774253 -0.4023069
000080 88 a4 a0 be 80 15 26 bf c6 30 14 3f e2 bb 98 bc
       -0.31375527 -0.64876556 0.5788692 -0.018644277
000090 87 b3 37 3f fa 8b fa 3e 00 48 ba bb c2 8d 0b bf
       0.7175831 0.4893492 -0.0056848526 -0.5451318
0000a0 2a 60 03 bf 38 70 9a be b6 68 75 bf b4 49 8e be
       -0.5131861 -0.3016374 -0.958629 -0.27790606
0000b0 64 40 e7 be ae ff d1 3e f5 93 83 3e 0c fe 3d bf
       -0.45166314 0.4101538 0.2569882 -0.7421577
0000c0 af d9 f0 3e 3c 02 ba be
       0.4704108 -0.3632983

bias f4 [50]
000000 d4 f2 ef 3e 80 84 17 3e 9b 7b c1 3f 60 13 1e 3e
       0.4686495 0.14796638 1.5115846 0.15437078
000010 e6 08 2a 3f 82 6e 3e 3f f0 91 c9 be 28 4c 9e be
       0.6641983 0.7438737 -0.39369154 -0.30917478
000020 bc e9 16 3f bf 6a 1f bf 75 7e 9c bf 38 c1 ad 3e
       0.589504 -0.62272257 -1.2226092 0.33936477
000030 4b 87 51 3f 0c fc 82 be 68 95 17 3e fb dd 2e bf
       0.81847066 -0.25582922 0.14803088 -0.68307465
000040 20 03 b2 bd 37 db 22 3f 1a 3c b7 3e 98 db 84 be
       -0.08692002 0.63615745 0.3578804 -0.25948787
000050 e0 23 33 3d c8 1d b4 be 2e 0c c6 bf 50 e3 ef bd
       0.043735385 -0.3517897 -1.5472467 -0.11713278
000060 f6 d8 71 3f 56 5a 67 3f 26 51 14 bf 12 4f 9c bf
       0.9447168 0.90372217 -0.5793632 -1.221163
000070 f8 6a 00 bf 80 f9 59 bf 40 72 e9 3c 64 eb f6 3e
       -0.5016322 -0.8514633 0.028496861 0.48226464
000080 0e 33 01 bf d8 d0 e0 be bc a0 41 3f 41 97 e0 3f
       -0.5046853 -0.43909335 0.75635886 1.7546159
000090 90 ca fa be 90 99 85 3f 20 35 38 bd 88 f8 25 be
       -0.48982668 1.0437489 -0.04497254 -0.16208088
0000a0 80 9a 3b bd 8c 44 d7 be b0 b2 ef be 80 ad b6 bc
       -0.04580164 -0.42044485 -0.46816015 -0.022299528
0000b0 dc 89 42 3f 4e b3 b0 bf c3 3c b8 be 08 22 77 be
       0.75991607 -1.380472 -0.35983858 -0.24134076
0000c0 ad d7 00 3f 7c 32 0d 3f
       0.50329095 0.5515516

weight f4 [50, 50]
000000 1c 35 66 3b 66 d5 7f 3d 46 f0 67 3d 7b 58 9d bd
       0.003512687 0.062459372 0.056625627 -0.07682892
000010 49 cd a9 3d 5a 09 ae 3d 8e fb c2 bd 32 b5 e3 bd
       0.08291108 0.084978774 -0.095206365 -0.11118545
000020 65 27 09 be d1 aa 04 be df 8d ef bd ca b0 a9 3d
       -0.13393934 -0.12955786 -0.11696982 0.08285673
000030 6a 58 d0 3d 40 ef 79 bd 37 e5 dd 3d 51 e1 1a bd
       0.10173114 -0.061019182 0.10834735 -0.037812535
000040 a8 30 fd bd e7 b7 96 bd 8b 56 1e bd 27 83 79 3c
       -0.12362796 -0.07359295 -0.038656753 0.015229023
000050 ea cf c5 3c ff 25 5d bd 72 af 95 3d d4 a2 ee bd
       0.024146993 -0.053991314 0.07308854 -0.11652151
000060 d2 df bd bd 9f 2a 79 3c b4 cb f4 bd ad 7e bd 3d
       -0.09271206 0.015207916 -0.11952916 0.09252677
000070 4b 5a 76 bb b6 02 3a bd 52 fa 00 3e 0a eb 5e bd
       -0.003759044 -0.04541274 0.1259549 -0.05442337
000080 61 13 14 bd 39 56 a1 3d 04 03 82 bd d9 ae dd bd
       -0.036151294 0.07877774 -0.063482314 -0.10824365
000090 4b 7a f1 bd a4 d0 ad 3d 6e 33 be 3d 2a 78 a3 bd
       -0.11790904 0.08487061 0.09287153 -0.07981904
0000a0 fc 9b bb bd fd c6 ef 3c c5 58 aa bd 1f 7a 92 bd
       -0.09160611 0.02926969 -0.08317713 -0.07152199
0000b0 56 42 f8 3d 9b 26 65 3d 58 d0 91 3c 90 e6 a0 bc
       0.121220276 0.05594502 0.017799541 -0.01964119
0000c0 8c ab 0b 3e a6 32 54 bd 66 5e 0e 3e 8b 50 08 3e
       0.13639659 -0.051806115 0.13903198 0.13311975
0000d0 6b dd 26 bd 02 b6 51 3d 0d 23 9c bd 8d 8d 26 3c
       -0.040738504 0.051198967 -0.07623873 0.010165584
0000e0 e2 c2 86 bd bd cf 24 bd 97 d5 b9 3d 6b bc 81 3d
       -0.0658014 -0.040237177 0.09073942 0.06334766
0000f0 a1 8d 08 be 28 a3 41 3c 68 f4 e9 bd 24 c6 81 3b
       -0.13335277 0.011818685 -0.1142357 0.003960388
000100 14 05 87 3a be df f3 bd 94 45 08 be ac 66 d8 3d
       0.0010301196 -0.1190791 -0.13307792 0.10566458
000110 83 d4 06 3e 76 07 aa 3d b6 1e 07 3d 45 7b f7 3d
       0.13167004 0.08302204 0.032988273 0.12084059
000120 24 fe a4 3c 69 f6 e4 bd 89 5f 02 be a0 6b f3 bb
       0.020140715 -0.111798115 -0.12731756 -0.0074286014
000130 7c de 89 3d 48 2e e0 bd d4 ba ab bd 92 cd 90 3d
       0.06731889 -0.109463274 -0.08385244 0.070704594
000140 12 9d a9 bd 78 3d f4 3d 99 f1 7f 3d 66 41 c1 3d
       -0.08281912 0.11925787 0.062486265 0.09436302
000150 ac f9 b5 3d 5b 4b d5 3c fd 63 6a bd 1c 63 f8 3d
       0.08885512 0.026036909 -0.057224263 0.121282786
000160 d1 fd e5 bd f3 b3 f1 3b 9a d8 53 bd 70 a4 8e 3d
       -0.11230052 0.007376188 -0.05172024 0.06964958
000170 39 a1 6c 3d c8 fd 2e 3d a3 3b a2 bc e4 c8 8c bd
       0.05777094 0.042722493 -0.019803828 -0.06874254
000180 25 98 eb bc 6b fb a4 bd 94 0b 04 be 04 a5 3f 3d
       -0.028759072 -0.08055767 -0.12895042 0.04678823
000190 85 11 10 be 40 02 d3 bd df 9f 3d 3d 39 e5 05 3e
       -0.14069183 -0.103031635 0.046295043 0.13075723
0001a0 76 df 06 bd 1a b3 8c bc 59 43 94 bd 08 3f e0 3c
       -0.032927953 -0.017175246 -0.07239408 0.027373806
0001b0 4a 6c e0 3b 72 e5 d2 3b 3f bf 95 bd 5a f9 10 bd
       0.0068488466 0.0064360434 -0.07311868 -0.03539405
0001c0 6a e9 0d bd 3f 27 c2 bd 58 0d 67 3d 18 51 71 3c
       -0.03464643 -0.09480142 0.05640921 0.014728807
0001d0 b7 1c 47 bc a5 9b 20 3d f9 a8 97 bb aa 63 1a 3d
       -0.012152842 0.039210934 -0.0046282974 0.037692703
0001e0 94 b7 dd 3d 9f 47 99 3b 5b eb be bd 62 8f 84 bd
       0.108260304 0.0046777274 -0.09322234 -0.064726606
0001f0 0d db 64 3c 46 f6 7c bd 46 d2 67 bc ad 0a 1a bd
       0.013968241 -0.061758302 -0.014149254 -0.037607837
000200 40 27 bd 3d 84 51 bf 3d 46 b6 23 bd 6d f9 b4 bd
       0.09236002 0.0934172 -0.03996875 -0.08836637
000210 26 1a 9e 3d fb 72 07 be 96 93 fd bd d3 5f 05 3e
       0.07719831 -0.13227455 -0.123816654 0.13024835
000220 60 1a a1 bd 4f 08 63 bd 06 3c 6d bd 88 27 c7 bd
       -0.07866359 -0.055427846 -0.05791857 -0.09724337
000230 88 d5 ea bd 2e 67 ca bd 0f 54 8c 3d 6e f6 96 bc
       -0.11466509 -0.09882961 0.068519704 -0.018428054
000240 c1 c2 a4 bd 3d ff 05 be 69 c2 cf bd cc a0 1f bd
       -0.08044959 -0.13085647 -0.10144503 -0.038971707
000250 39 ef ad bc b6 03 0c be 3a 03 62 3c 45 ab 0e 3e
       -0.021232234 -0.1367329 0.013794715 0.13932522
000260 10 ba b0 3d 75 2c 2e bc 4f c7 43 3d 0c 7c 8b bc
       0.086292386 -0.010630717 0.047797497 -0.017026924
000270 ac 2c 2e 3d d1 0d 81 3d da c7 c5 bd 8b dd 08 be
       0.04252307 0.063014634 -0.09657259 -0.13365762
000280 07 6f c8 bd 27 a6 c3 3d 8f f9 9d 3c bf a6 20 bd
       -0.09786802 0.095531754 0.019284038 -0.03922152
000290 44 61 a9 bd dc 91 ec 3c 85 a9 22 bc ff 11 cf bd
       -0.08270505 0.028878145 -0.009928112 -0.10110854
0002a0 71 19 fe bd 0d b7 86 bd 8c 06 03 bd 93 95 40 3d
       -0.12407196 -0.06577883 -0.031988665 0.047017645
0002b0 23 8b 46 bd d5 2d 0e be d9 92 cd ba d1 bd 6b 3d
       -0.048472535 -0.13884671 -0.0015684023 0.05755407
0002c0 4a 13 d6 bc df 84 07 bd 53 ac 61 39 1f 4b 22 bc
       -0.026132245 -0.0330857 0.00021521868 -0.009905606
0002d0 f1 8e 09 3e 14 6e 63 3d bc ba 9d bd a7 58 e3 bc
       0.13433434 0.0555249 -0.077016324 -0.027752234
0002e0 a7 08 d9 bd d9 9f de bd 2e d4 9f bd 27 f9 8a 3d
       -0.105973534 -0.10870332 -0.07804142 0.06785803
0002f0 0a 55 c4 bd ed e3 fc 3d 57 c6 08 3d b1 e5 d0 bd
       -0.095865324 0.12348161 0.033392277 -0.1020006
000300 fd 96 0d be 35 6a 98 3d 81 5e 6e 3d 2a 0a ae bd
       -0.13827129 0.074421324 0.058195595 -0.084980324
000310 07 b2 10 be 5a 61 d7 bd 52 84 00 3e a0 5a 62 bd
       -0.14130412 -0.10516615 0.12550476 -0.055262208
000320 76 8e b2 3c 06 e8 9e 3d ee ed a8 bd 03 d6 da 3d
       0.021796446 0.07759099 -0.082485065 0.10685351
000330 d3 8f b0 3d bf 6c 8c bd 77 0c df 3c 3d cb 1c bd
       0.08621182 -0.06856679 0.027227623 -0.03827976
000340 a4 e6 cf bd 73 71 03 be ba 1e 92 bd 94 a9 69 bd
       -0.10151413 -0.12836246 -0.07134767 -0.057046488
000350 e6 74 96 bd a4 13 c0 39 f7 59 0f 3e e6 b1 22 3d
       -0.07346515 0.00036635727 0.13999163 0.03972044
000360 39 61 0b 3e e0 20 fd 3d d1 f7 9f bd a1 61 ff 3d
       0.13611306 0.12359786 -0.07810939 0.12469793
000370 4c 4b c2 3d 3f a4 1d bd 3d 42 5d bd cb 78 58 bd
       0.09487018 -0.038486715 -0.054018248 -0.052849572
000380 54 e2 00 3d 10 c8 dd 3d 16 6f cd 3d 54 9b 9d 3d
       0.031465843 0.108291745 0.100309536 0.07695642
000390 dd 78 b4 3d 8a bb c0 3b 44 dd d7 bd be d5 f7 bd
       0.08812115 0.0058817314 -0.1054025 -0.12101315
0003a0 d1 4c 2f bd bc 2f 92 bc 2e 70 b2 3d 27 ba 82 3e
       -0.042797867 -0.017845027 0.08712803 0.25532648
0003b0 5f 4a 06 be d7 3f 89 bd b2 dd da 3d 70 c1 4e bd
       -0.13114308 -0.067016296 0.10686816 -0.050477445
0003c0 ec 2c b4 3d ca 61 9e bc 4f 3b 05 3e 7b 9e c4 3d
       0.08797631 -0.019333739 0.13010906 0.0960054
0003d0 b5 a7 da 3d 6a 28 e6 3d 2d af ee 3d c3 c0 e0 3d
       0.10676519 0.11238177 0.11654506 0.109742664
0003e0 7d b9 0b 3e 32 ff ec 3d ad 30 fa 3c 8f 24 c2 ba
       0.13644977 0.11572112 0.030540789 -0.0014811921
0003f0 d7 90 b9 3d 10 61 29 bd b3 ae fb bd e4 bd 46 bd
       0.09060829 -0.04135233 -0.122891806 -0.048520938

bias f4 [50]
000000 5f 06 ce bd a5 94 0f be 60 70 a3 3d fc 86 dc bb
       -0.10059809 -0.14021547 0.07980418 -0.0067299586
000010 e5 55 93 3e b3 49 ed bd 19 56 ab bd b2 56 08 3f
       0.2877647 -0.11586323 -0.08366031 0.53257287
000020 63 7b 25 3f ca ae 4e be 81 47 32 3a 05 c8 28 bd
       0.646414 -0.20183864 0.0006800816 -0.04120638
000030 ae c2 31 bd 6a 22 1c 3d 94 32 c2 bd 53 27 0f 3f
       -0.04339855 0.038118757 -0.09482303 0.5591938
000040 41 06 ab bd 39 3a 6b 3d 46 49 b5 bc 75 01 8f bd
       -0.08350802 0.057428572 -0.022129666 -0.069827
000050 c2 b3 3d bc cd 6d ab 3e 5e 3a 93 3e 4d e7 ba bc
       -0.011578502 0.3348221 0.28755468 -0.022815371
000060 c7 c4 3c 3f e0 9e 0f 3e fb 4d 15 3f e0 5e 04 3d
       0.7373776 0.1402545 0.58322114 0.032317042
000070 28 5a 36 3e 9b 48 4d 3e b2 6c de 3d a4 3d 03 3f
       0.1780783 0.20047228 0.10860576 0.5126593
000080 b4 a9 fd 3d 31 65 3a 3e d8 6a 25 3f c1 ea d7 be
       0.12385884 0.18202664 0.64616156 -0.4217129
000090 6f 92 14 3e 4f d4 98 3d 1e 95 db 3d b5 7f f3 ba
       0.14508985 0.0746237 0.10721801 -0.0018577488
0000a0 b0 5b ac 3d 1f 30 33 bd da c4 05 3e 33 df 03 3f
       0.084159255 -0.043747064 0.13063374 0.5151245
0000b0 71 91 a5 3e 31 e4 77 3c 0f ef 82 3e 37 77 90 3d
       0.32337525 0.015130089 0.25573012 0.070539884
0000c0 c6 1e 86 bc 2b 51 8a 3d
       -0.016372096 0.06753763

weight f4 [190, 50]
000000 c9 ee f6 3a 35 46 03 3e d5 a6 b7 3d 0b 25 d7 3d
       0.0018839474 0.1281975 0.089673676 0.10505112
000010 61 94 68 3c 0b 72 94 bd 82 23 57 bb 7f 94 86 bc
       0.014195533 -0.072483145 -0.003282756 -0.01642823
000020 83 c5 09 3d 42 9a df 3c 85 60 cd 3d 4f 4c 2d bc
       0.033635627 0.027295236 0.10028175 -0.010577275
000030 0d 94 fb bb cd f0 55 3d 5a 89 a8 bd d0 30 33 3d
       -0.007677561 0.0522316 -0.08229323 0.043747723
000040 e3 48 09 be d1 c9 6f bd ae 4d 13 bb 6f a7 99 bd
       -0.1340671 -0.058542076 -0.002247672 -0.075026385
000050 be 99 4e 3b cc 86 cf 3c 2a eb 93 bb f0 04 04 3e
       0.0031524743 0.02533283 -0.0045141177 0.12892509
000060 d3 af 8e bc 23 15 e0 3a 27 65 9d bc cc d3 56 3c
       -0.017417824 0.0017096143 -0.019213272 0.01311202
000070 94 38 82 3c 4e 3e 9c bb f4 f8 0d 3e 03 14 1a 3b
       0.01589612 -0.0047681695 0.138645 0.0023510463
000080 45 cd 3d bd 94 23 a6 bb 9c 04 ed ba bd 4e e0 bb
       -0.04633834 -0.005070159 -0.0018083039 -0.006845324
000090 b2 66 a4 bb 08 ee cc 3d 94 f2 12 bc e1 8f 40 bc
       -0.005017125 0.10006338 -0.008968968 -0.011753053
0000a0 00 32 0d 3e b5 67 a2 bd 81 9e e9 bb e9 5f df bc
       0.13788605 -0.07929937 -0.007129491 -0.027267413
0000b0 ea fa 42 3b 99 79 12 3b ed 29 a0 3c 12 99 0f 3e
       0.0029751607 0.002235031 0.019551242 0.14023235
0000c0 ed f1 9a bd ac 37 75 bd 59 89 c1 bd 17 0d 0e be
       -0.07565675 -0.059867546 -0.09450025 -0.13872181
0000d0 84 f7 6d bb 86 29 8f 3d 68 81 d4 bb 5d 2f 3e bd
       -0.003631086 0.06990342 -0.006485153 -0.046431888
0000e0 ae 88 e2 3c bf 1b dd bb 4b e4 ac 3d 03 80 9b bd
       0.027653065 -0.0067476924 0.08441981 -0.07592776
0000f0 1b 6f a3 3d 18 b6 0e bc fa c5 04 3b f1 2a c1 bd
       0.07980176 -0.008710407 0.0020259605 -0.094320185
000100 32 9f fc 3d 89 d1 16 3d af b0 ed 3d f4 ac 0d be
       0.123350516 0.036820922 0.11605965 -0.13835508
000110 e9 af c0 3b 89 be 10 3d dd 3a 4d bb dc 16 84 3b
       0.005880345 0.03533796 -0.0031315603 0.0040310454
000120 d3 63 20 3b 88 21 e5 bd 4c 6b c0 bd c0 d6 57 3b
       0.0024473562 -0.11188036 -0.09395465 0.0032934397
000130 18 43 93 3c bd ef b4 3d dc 96 ef 3b 1c 04 75 3c
       0.017976329 0.08834789 0.007311685 0.014954593
000140 59 8a f7 3d 20 ef 6c bd 78 c9 1c 3d 0f cf ba bb
       0.120869346 -0.057845235 0.038278073 -0.005700953
000150 13 92 95 bc a2 2b bd 3c 74 06 08 3c 1a ea a5 3c
       -0.01825813 0.023092095 0.00830232 0.02025323
000160 81 45 7d 3d 3e 04 0f bd 17 c3 e6 bd 96 0c ee bc
       0.061833862 -0.034916155 -0.11267679 -0.029058736
000170 a6 01 62 3b 2e 56 cd 3c bb 18 52 3b a8 16 86 bd
       0.0034485846 0.025065508 0.0032058198 -0.0654729
000180 9e a9 88 bc 1b fa f9 bd 11 1e 69 bd 05 ae e2 bd
       -0.016682442 -0.12205907 -0.05691344 -0.11068348
000190 c5 6f ab 3d 85 26 cd 3c 06 df 88 3d ce f6 86 bd
       0.08370928 0.025042782 0.06683163 -0.06590043
0001a0 8d c2 57 3a 3b 94 00 3d f6 c8 04 be f3 a3 b4 bc
       0.00082305894 0.031391364 -0.12967286 -0.022050833
0001b0 4d 83 8f bc 15 bd 61 3d 8f cd d3 bd cb 4c eb 3b
       -0.017518664 0.055111963 -0.103419416 0.0071807853
0001c0 17 5b e3 3b 1a dc c5 bd 6e 27 c2 bd 5f 3c 66 bd
       0.006938349 -0.09661122 -0.09480177 -0.056209918
0001d0 95 93 16 bd 15 15 ca bd 22 08 d1 3b bf d9 ed 3d
       -0.03676184 -0.09867302 0.0063791433 0.116137974
0001e0 54 97 12 3c b3 e3 8b 3c 03 85 6b 3d 5e ab 70 bd
       0.008947212 0.017076349 0.057499897 -0.05875718
0001f0 98 76 88 bd 1f 6f 56 bb f8 c4 3d bc d7 50 b6 bd
       -0.06663245 -0.0032720042 -0.011582606 -0.08902138
000200 bb e8 d0 bb ee 5b a2 3c 31 25 bb bd f3 fd 14 bb
       -0.0063754 0.019819226 -0.09137953 -0.0022734373
000210 93 e5 d5 bd 5c 59 a6 bb 23 92 77 3d 51 3f 6a bd
       -0.104441784 -0.0050765704 0.0604421 -0.05718929
000220 9e e2 26 3c 6e bc 0a 3e 05 e7 2f 3d 09 9e dd bd
       0.010185866 0.13548443 0.042944927 -0.108211584
000230 25 59 bb bc e6 d5 18 3d 17 08 a4 bc fd 10 07 3d
       -0.022869656 0.037313364 -0.020023389 0.032975186
000240 a3 8a 02 3d 03 be 49 3d f5 4b 98 3c 53 ae 0c 3e
       0.031870496 0.049253475 0.018590907 0.13738374
000250 c0 a5 89 bc 0d 7c 0c be 6b c7 7d 3c c9 a6 fb 3d
       -0.016802669 -0.13719197 0.0154894395 0.12287671
000260 2d 53 2a bd 91 a0 4f 3d 29 eb c8 bc 41 6d 01 be
       -0.04158323 0.050690237 -0.024526196 -0.12639333
000270 70 bd ef bc d3 39 24 bd ca c4 37 3d dc 6b 8f 3c
       -0.029265136 -0.040094208 0.044865407 0.017507486
000280 83 d3 99 bd c7 d1 9b bb 4b 1d 0b bd e1 08 b0 3d
       -0.07511046 -0.004755232 -0.033963483 0.085954435
000290 13 f3 f2 3d 3b 25 7c bd 7b f0 04 be 74 65 8c 3d
       0.11862769 -0.061558943 -0.12982361 0.06855288
0002a0 39 90 47 3c 87 c8 d7 bd d8 8a c2 bc 31 de 94 3d
       0.012180381 -0.105362944 -0.023747846 0.07268942
0002b0 98 77 60 3c 35 36 a5 bd 1d 0e 2b 3d d1 2c b6 ba
       0.013700388 -0.0806698 0.041761506 -0.0013898854
0002c0 53 c3 6d bd 67 bd 92 3c c0 a3 be bc cb 7b 03 3d
       -0.058047604 0.01791258 -0.023271441 0.03210048
0002d0 c8 8d 01 be 52 3b 20 bd 52 84 75 bc df 8d df 3b
       -0.12651742 -0.039119072 -0.014985161 0.0068223323
0002e0 e7 06 ab bd d2 f7 88 3d 00 b8 aa 3c d8 9f cb bc
       -0.08350926 0.06687893 0.020839691 -0.024856493
0002f0 8e 3a fe 3d eb d6 b7 bd b1 a9 c0 3b 00 68 01 3e
       0.12413512 -0.08976539 0.005879604 0.12637329
000300 14 f8 ff 3a e3 ba 99 3d 66 75 16 bd 5a 7a 07 be
       0.0019528889 0.07506349 -0.036733054 -0.13230267
000310 15 93 29 3d 6f 9e 87 3d 7b a8 c8 3d 6e 9c e4 3d
       0.041400034 0.06622016 0.0979776 0.11162649
000320 2e de dd bc 9b 14 a0 3d d2 5b 09 3e 4a b6 69 bb
       -0.027083483 0.0781643 0.13413933 -0.0035661631
000330 82 c3 f9 3b 64 6d 16 3d 36 76 19 3d 14 fb b2 3c
       0.0076221833 0.036725417 0.03746625 0.021848239
000340 48 4e 8d bc 0c e8 17 3d a2 25 99 bd 8e ef c0 3c
       -0.017249241 0.03708653 -0.07477881 0.023551729
000350 2b 7d a1 bc e3 17 ff 3d 0d 10 fa bd b4 9e f0 bd
       -0.019713005 0.12455728 -0.12210093 -0.1174902
000360 70 82 e7 3d b5 c6 64 3d b6 54 9a 3b b9 fd fe 3d
       0.11304176 0.055853564 0.0047098054 0.124507375
000370 99 ae bc bb 9c 88 d5 bc d7 70 11 3d 47 a9 f1 bd
       -0.0057581184 -0.026066117 0.035508003 -0.11799865
000380 6b 7e e8 3b d4 ed 50 3b f0 09 3c bd 21 28 8e 3d
       0.0070951483 0.0031880038 -0.045907915 0.06941248
000390 3a a0 db 3a 2b cd f1 bc b0 fd de bd 81 36 6b 39
       0.0016756125 -0.029516777 -0.10888231 0.0002243165
0003a0 ba f4 4f bc 91 ca 8b 3c 44 2a 0b 3d 60 29 a5 bd
       -0.012692625 0.017064365 0.033975855 -0.08064532
0003b0 2f 97 36 bc 29 fb f2 bd 8b db c0 bd f1 87 ed 3d
       -0.011144443 -0.11864311 -0.094168745 0.115981944
0003c0 50 67 f3 bc 44 8d c9 bd 56 64 53 bc dd 6a 8d 3d
       -0.02971235 -0.098413974 -0.01290234 0.06905148
0003d0 80 94 03 3c 5d af 6b 3d 39 8f 50 bd 2d 89 53 bd
       0.008031011 0.057540286 -0.050917838 -0.051644493
0003e0 cb 3f f4 bc 51 74 1c bd c3 98 f9 bd bd 7b 95 bc
       -0.029815575 -0.038196865 -0.1218734 -0.01824748
0003f0 06 c7 17 3c f5 1d 9e bd 50 7c 50 3a 01 3c 7e bd
       0.0092637595 -0.077205576 0.00079530943 -0.062068943

bias f4 [190]
000000 43 a8 85 ba 42 02 ff 3c 88 61 cb 3c fa 86 fc bc
       -0.0010197241 0.031129006 0.02482678 -0.03082608
000010 a0 f5 0f 3c ad e5 5b 3c b0 03 79 bb b4 99 d8 bc
       0.008786589 0.013421458 -0.0037996583 -0.026440479
000020 6b d7 ca bc 8f 45 2f 3c 9a 25 1c 3b 19 2b 75 3d
       -0.024760922 0.010697736 0.0023826123 0.059855554
000030 39 16 07 bc 87 53 5d bd bf d5 9b bd 6d c6 42 bc
       -0.008245044 -0.054034736 -0.07609128 -0.011888129
000040 99 29 a7 3d bd 01 4c 3d f7 54 d2 39 35 78 31 bd
       0.08162231 0.049806345 0.00040117625 -0.04332753
000050 00 c6 ba bc cb b5 ae 3c 89 d4 66 3d 08 80 31 bd
       -0.022799492 0.02132692 0.056355033 -0.04333499
000060 4a 56 6d 3d bd 22 ad 3c 19 a1 31 bd 35 29 fc 3c
       0.05794362 0.021134729 -0.043366525 0.030781368
000070 e5 f0 20 bd 36 b4 c3 3c 05 56 81 3c 99 89 b1 bb
       -0.039292235 0.023889642 0.015788088 -0.0054180142
000080 b2 11 cf 3c b8 02 78 bc ec 7c 1d bd 17 98 ac bc
       0.025276992 -0.015137367 -0.038449213 -0.021068616
000090 89 f5 de 3c 4f fe 72 3c ec fc 3b 3d 8a e9 32 3d
       0.02721669 0.01483114 0.045895502 0.04367975
0000a0 ae 66 95 3d 58 ec 5f 3e 11 27 3e 3e ef 17 ba 3e
       0.07294975 0.21867502 0.1856959 0.36346385
0000b0 e6 c2 f5 3e b7 bc 0d 3f ca ed bf 3e 54 9a bc 3e
       0.48000258 0.5536608 0.37486106 0.36836493
0000c0 e0 fa eb 3e 22 98 c7 3e b3 84 0f 3f ae 21 0d 3f
       0.4608984 0.38983256 0.5606186 0.55129516
0000d0 9a 73 21 3f 4c 7a 1f 3f 74 9d 1a 3f 23 1b e3 3e
       0.6306702 0.62295985 0.60396504 0.4435664
0000e0 6f d4 08 3f f1 93 ee 3e 8c 18 ff 3e b4 ed eb 3e
       0.5344915 0.46597245 0.49823415 0.4607979
0000f0 ee 28 39 3f 15 d0 04 3f cc cf db 3e 7f 7b e8 3e
       0.7232808 0.5188001 0.42931974 0.4540672
000100 74 64 19 3f 69 f4 0e 3f 98 72 00 3f ac a7 f5 3e
       0.59918904 0.5584169 0.50174856 0.47979486
000110 ed 1d 25 3f 4c 82 12 3f b3 f9 05 3f 03 58 d0 3e
       0.6449879 0.5723007 0.52334136 0.40692148
000120 4e 45 89 3e c3 7c bf 3e ce 3c ef 3e 70 3e ef 3e
       0.26810688 0.37399873 0.46726078 0.46727324
000130 93 5a 0b 3f 75 31 c2 3e fb 02 e1 3e c3 f1 d3 3e
       0.5443508 0.37928358 0.43947586 0.41395387
000140 94 4a cd 3e 50 80 e4 3e 30 ae 15 3f dd 15 0e 3f
       0.4009596 0.44629145 0.58468914 0.5550211
000150 08 c7 c8 3e 21 e7 e9 3e 94 56 14 3f 95 f6 00 3f
       0.3921435 0.4568415 0.5794461 0.50376254
000160 0d e3 0e 3f bb bd 0d 3f db 7b f8 3e bd 53 05 3f
       0.558152 0.5536763 0.48531994 0.520809
000170 fe 0f 22 3f 02 85 1a 3f f8 eb 98 3e 19 15 29 3f
       0.6330565 0.60359204 0.2986753 0.6604782
000180 be c1 c0 3e 26 58 f8 3e 57 14 d2 3e ee 4a 1e 3f
       0.37647814 0.48504752 0.41031143 0.61833084
000190 98 ab 22 3f f2 73 e1 3e b8 f9 17 3f d1 12 dc 3e
       0.6354308 0.44033772 0.59365416 0.42983106
0001a0 f6 0f f5 3e 0c 29 00 3f fa 13 fd 3e 51 6a 09 3f
       0.4786374 0.5006263 0.49429303 0.5367785
0001b0 f8 32 da 3e ca c8 e9 3e 4e cc d5 3e 94 08 1d 3f
       0.4261701 0.45661002 0.41757435 0.61341214
0001c0 70 a4 0f 3f 1e 6e 0f 3f 1f d5 fa 3e 84 23 b3 3e
       0.56110287 0.560274 0.48990723 0.34988034
0001d0 cc 79 e3 3e b7 1e 07 3f d8 11 f8 3e 59 7b 15 3f
       0.4442886 0.5278124 0.48451114 0.5839134
0001e0 27 15 d9 3e e2 e6 13 3f 1a 9a 07 3f bd 24 f5 3e
       0.4239895 0.57774174 0.52969515 0.47879592
0001f0 dc 9f 07 3f 0c 23 15 3f d5 66 1d 3f a6 b2 fb 3e
       0.529783 0.582566 0.61485034 0.49159735
000200 1b be 0f 3f 0b c7 0a 3f 2c 32 c4 3e 62 be eb 3e
       0.5614945 0.54209965 0.38319528 0.46043688
000210 57 a9 eb 3e a0 0b 1d 3f dc 5a 0c 3f 15 07 1a 3f
       0.46027634 0.61345863 0.5482614 0.60167056
000220 48 e6 0e 3f fc d8 d9 3e c0 ae d3 3e 17 9f f2 3e
       0.5582013 0.42548358 0.4134426 0.47387
000230 d3 7d a1 3e 9e d6 0b 3f dc 9d bb 3e a4 c0 05 3f
       0.3154131 0.54624355 0.36643875 0.5224707
000240 79 d3 fc 3e a5 98 20 3f 38 ef 21 3f 3b 71 f3 3e
       0.4938009 0.6273292 0.63255644 0.47547325
000250 6f 37 dd 3e d6 3e 04 3f 9d a7 f0 3e a4 02 08 3f
       0.43206355 0.5165838 0.4700288 0.5312903
000260 50 a6 1d 3f 4c 63 21 3f a9 da 19 3f c0 a6 12 3f
       0.615819 0.6304214 0.60099274 0.5728569
000270 6a c2 9b 3e 41 fa ff 3e 02 f4 08 3f 5f 9b 22 3f
       0.30421764 0.49995616 0.53497326 0.6351833
000280 51 44 ff 3e e5 c9 e3 3e e3 db 0b 3f 89 ac 24 3f
       0.4985681 0.4448997 0.54632396 0.6432577
000290 1f 74 1b 3f 1d fd 04 3f 7b ae 09 3f 94 08 0b 3f
       0.6072406 0.5194872 0.5378186 0.54309964
0002a0 de b0 fe 3e 1c 03 11 3f 96 fb fb 3e 09 c8 fa 3e
       0.49744314 0.5664537 0.49215382 0.4898074
0002b0 fa 02 c9 3e 52 33 16 3f 71 88 ec 3e 3c c8 19 3f
       0.39260083 0.5867206 0.46197847 0.6007116
0002c0 a3 b4 ed 3e d3 32 16 3f c2 ec 17 3f c3 46 b2 3e
       0.46426877 0.586713 0.5934564 0.34819612
0002d0 47 8a f1 3e 7e 22 dd 3e f7 25 13 3f 91 d3 02 3f
       0.4717581 0.43190378 0.57479805 0.51104075
0002e0 55 e7 e3 3e e8 1c 00 3f 0c 02 f1 3e 80 fa 03 3f
       0.4451243 0.5004411 0.47071874 0.5155411
0002f0 06 fa 17 3f c6 29 08 3f
       0.5936588 0.5318874

exp_avg f4 [50, 1]
000000 00 00 00 00 00 00 00 00 86 e1 b7 bb 00 00 00 00
       0.0 0.0 -0.0056116013 0.0
000010 00 00 00 00 00 00 00 00 00 00 00 00 00 00 00 00
       0.0 0.0 0.0 0.0
000020 00 00 00 00 54 a5 3b 3c 83 ed 36 3a 00 00 00 00
       0.0 0.0114529915 0.0006978141 0.0
000030 04 26 30 bb 00 00 00 00 00 00 00 00 0c 35 97 3a
       -0.0026878128 0.0 0.0 0.0011536195
000040 00 00 00 00 60 d4 88 ba cf 35 3a ba 00 00 00 00
       0.0 -0.0010439269 -0.0007103355 0.0
000050 00 00 00 00 00 00 00 00 df 2c 8c 3b 00 00 00 00
       0.0 0.0 0.00427781 0.0
000060 00 00 00 00 00 00 00 00 00 00 00 00 4e fd e8 3b
       0.0 0.0 0.0 0.0071102744
000070 5c 51 c0 3a a5 89 6b 39 00 00 00 00 00 00 00 00
       0.0014672684 0.00022462623 0.0 0.0
000080 00 00 00 00 00 00 00 00 93 5a 39 bb 7c 3a 5f bd
       0.0 0.0 -0.0028282746 -0.054499134
000090 6a 97 05 39 d3 d3 6d bb 00 00 00 00 00 00 00 00
       0.00012740275 -0.0036289587 0.0 0.0
0000a0 00 00 00 00 00 00 00 00 00 00 00 00 00 00 00 00
       0.0 0.0 0.0 0.0
0000b0 00 00 00 00 fb 23 8c 3b 38 a9 f5 ba 00 00 00 00
       0.0 0.00427675 -0.0018742448 0.0
0000c0 d5 ca d7 b9 00 00 00 00
       -0.00041159117 0.0

exp_avg_sq f4 [50, 1]
000000 00 00 00 00 00 00 00 00 11 1b 6e 3b 00 00 00 00
       0.0 0.0 0.003633205 0.0
000010 00 00 00 00 00 00 00 00 00 00 00 00 00 00 00 00
       0.0 0.0 0.0 0.0
000020 00 00 00 00 54 0c 52 3c 48 6c 68 39 00 00 00 00
       0.0 0.012820322 0.00022165582 0.0
000030 e3 35 a9 3a 00 00 00 00 00 00 00 00 b6 31 89 3a
       0.0012909736 0.0 0.0 0.0010467086
000040 00 00 00 00 91 b7 85 39 90 a3 e6 38 00 00 00 00
       0.0 0.00025504504 0.000109977205 0.0
000050 00 00 00 00 00 00 00 00 bf fb 17 3b 00 00 00 00
       0.0 0.0 0.0023190824 0.0
000060 00 00 00 00 00 00 00 00 00 00 00 00 f5 3e 46 3b
       0.0 0.0 0.0 0.0030249928
000070 62 25 ff 39 86 37 04 39 00 00 00 00 00 00 00 00
       0.00048665243 0.00012609185 0.0 0.0
000080 00 00 00 00 00 00 00 00 42 99 bd 3a b5 a2 98 3e
       0.0 0.0 0.001446523 0.29811636
000090 36 61 84 39 5d 6b ad 3a 00 00 00 00 00 00 00 00
       0.0002524943 0.0013230849 0.0 0.0
0000a0 00 00 00 00 00 00 00 00 00 00 00 00 00 00 00 00
       0.0 0.0 0.0 0.0
0000b0 00 00 00 00 8f cc ad 3a c3 d3 85 39 00 00 00 00
       0.0 0.0013259816 0.00025525512 0.0
0000c0 44 f9 d5 38 00 00 00 00
       0.00010203061 0.0

exp_avg f4 [50]
000000 00 00 00 00 00 00 00 00 51 dd 4f b8 00 00 00 00
       0.0 0.0 -4.9558763e-05 0.0
000010 00 00 00 00 00 00 00 00 00 00 00 00 00 00 00 00
       0.0 0.0 0.0 0.0
000020 00 00 00 00 65 46 73 39 2d 9a f0 35 00 00 00 00
       0.0 0.0002320051 1.7926264e-06 0.0
000030 2e 2f b4 b7 00 00 00 00 00 00 00 00 ba b6 1b 37
       -2.1479642e-05 0.0 0.0 9.281264e-06
000040 00 00 00 00 fd b6 85 b7 4e 42 00 b7 00 00 00 00
       0.0 -1.5940046e-05 -7.644832e-06 0.0
000050 00 00 00 00 00 00 00 00 be 18 e4 37 00 00 00 00
       0.0 0.0 2.719124e-05 0.0
000060 00 00 00 00 00 00 00 00 00 00 00 00 73 64 ac 38
       0.0 0.0 0.0 8.220309e-05
000070 05 b1 11 38 e4 1b fa b7 00 00 00 00 00 00 00 00
       3.4735556e-05 -2.981531e-05 0.0 0.0
000080 00 00 00 00 00 00 00 00 20 16 2f b8 e2 30 28 ba
       0.0 0.0 -4.1743857e-05 -0.00064159755
000090 0a 0e 16 37 ea 07 58 b8 00 00 00 00 00 00 00 00
       8.943965e-06 -5.1505784e-05 0.0 0.0
0000a0 00 00 00 00 00 00 00 00 00 00 00 00 00 00 00 00
       0.0 0.0 0.0 0.0
0000b0 00 00 00 00 06 77 16 38 95 8a 85 b8 00 00 00 00
       0.0 3.5873636e-05 -6.367747e-05 0.0
0000c0 c5 24 f5 b5 00 00 00 00
       -1.8264624e-06 0.0

exp_avg_sq f4 [50]
000000 00 00 00 00 00 00 00 00 f9 cc e0 35 00 00 00 00
       0.0 0.0 1.6748955e-06 0.0
000010 00 00 00 00 00 00 00 00 00 00 00 00 00 00 00 00
       0.0 0.0 0.0 0.0
000020 00 00 00 00 28 7c 49 36 aa d0 77 33 00 00 00 00
       0.0 3.0023602e-06 5.7698948e-08 0.0
000030 b7 b4 6b 34 00 00 00 00 00 00 00 00 42 aa 38 34
       2.1951824e-07 0.0 0.0 1.7198275e-07
000040 00 00 00 00 39 01 58 33 57 02 50 33 00 00 00 00
       0.0 5.029253e-08 4.8430902e-08 0.0
000050 00 00 00 00 00 00 00 00 fc 95 5f 35 00 00 00 00
       0.0 0.0 8.329223e-07 0.0
000060 00 00 00 00 00 00 00 00 00 00 00 00 eb a2 9e 35
       0.0 0.0 0.0 1.1819333e-06
000070 0b 6d f4 33 e4 a5 42 34 00 00 00 00 00 00 00 00
       1.138197e-07 1.8128009e-07 0.0 0.0
000080 00 00 00 00 00 00 00 00 e2 95 d6 34 9e 0a 9b 38
       0.0 0.0 3.996966e-07 7.3929536e-05
000090 ac 9b 97 33 c2 8b bd 34 00 00 00 00 00 00 00 00
       7.059802e-08 3.530568e-07 0.0 0.0
0000a0 00 00 00 00 00 00 00 00 00 00 00 00 00 00 00 00
       0.0 0.0 0.0 0.0
0000b0 00 00 00 00 8d 39 2c 35 42 89 25 34 00 00 00 00
       0.0 6.415874e-07 1.5416757e-07 0.0
0000c0 97 f6 e4 32 00 00 00 00
       2.665483e-08 0.0

exp_avg f4 [50, 50]
000000 00 00 00 00 00 00 00 00 00 00 00 00 00 00 00 00
       0.0 0.0 0.0 0.0
000010 00 00 00 00 00 00 00 00 00 00 00 00 00 00 00 00
       0.0 0.0 0.0 0.0
000020 00 00 00 00 00 00 00 00 00 00 00 00 00 00 00 00
       0.0 0.0 0.0 0.0
000030 00 00 00 00 00 00 00 00 00 00 00 00 00 00 00 00
       0.0 0.0 0.0 0.0
000040 00 00 00 00 00 00 00 00 00 00 00 00 00 00 00 00
       0.0 0.0 0.0 0.0
000050 00 00 00 00 00 00 00 00 00 00 00 00 00 00 00 00
       0.0 0.0 0.0 0.0
000060 00 00 00 00 00 00 00 00 00 00 00 00 00 00 00 00
       0.0 0.0 0.0 0.0
000070 00 00 00 00 00 00 00 00 00 00 00 00 00 00 00 00
       0.0 0.0 0.0 0.0
000080 00 00 00 00 00 00 00 00 00 00 00 00 00 00 00 00
       0.0 0.0 0.0 0.0
000090 00 00 00 00 00 00 00 00 00 00 00 00 00 00 00 00
       0.0 0.0 0.0 0.0
0000a0 00 00 00 00 00 00 00 00 00 00 00 00 00 00 00 00
       0.0 0.0 0.0 0.0
0000b0 00 00 00 00 00 00 00 00 00 00 00 00 00 00 00 00
       0.0 0.0 0.0 0.0
0000c0 00 00 00 00 00 00 00 00 00 00 00 00 00 00 00 00
       0.0 0.0 0.0 0.0
0000d0 00 00 00 00 00 00 00 00 00 00 00 00 00 00 00 00
       0.0 0.0 0.0 0.0
0000e0 00 00 00 00 00 00 00 00 00 00 00 00 00 00 00 00
       0.0 0.0 0.0 0.0
0000f0 00 00 00 00 00 00 00 00 00 00 00 00 00 00 00 00
       0.0 0.0 0.0 0.0
000100 00 00 00 00 00 00 00 00 00 00 00 00 00 00 00 00
       0.0 0.0 0.0 0.0
000110 00 00 00 00 00 00 00 00 00 00 00 00 00 00 00 00
       0.0 0.0 0.0 0.0
000120 00 00 00 00 00 00 00 00 00 00 00 00 00 00 00 00
       0.0 0.0 0.0 0.0
000130 00 00 00 00 00 00 00 00 00 00 00 00 00 00 00 00
       0.0 0.0 0.0 0.0
000140 00 00 00 00 00 00 00 00 00 00 00 00 00 00 00 00
       0.0 0.0 0.0 0.0
000150 00 00 00 00 00 00 00 00 00 00 00 00 00 00 00 00
       0.0 0.0 0.0 0.0
000160 00 00 00 00 00 00 00 00 00 00 00 00 00 00 00 00
       0.0 0.0 0.0 0.0
000170 00 00 00 00 00 00 00 00 00 00 00 00 00 00 00 00
       0.0 0.0 0.0 0.0
000180 00 00 00 00 00 00 00 00 00 00 00 00 00 00 00 00
       0.0 0.0 0.0 0.0
000190 00 00 00 00 00 00 00 00 00 00 00 00 00 00 00 00
       0.0 0.0 0.0 0.0
0001a0 00 00 00 00 00 00 00 00 00 00 00 00 00 00 00 00
       0.0 0.0 0.0 0.0
0001b0 00 00 00 00 00 00 00 00 00 00 00 00 00 00 00 00
       0.0 0.0 0.0 0.0
0001c0 00 00 00 00 00 00 00 00 00 00 00 00 00 00 00 00
       0.0 0.0 0.0 0.0
0001d0 00 00 00 00 00 00 00 00 00 00 00 00 00 00 00 00
       0.0 0.0 0.0 0.0
0001e0 00 00 00 00 00 00 00 00 00 00 00 00 00 00 00 00
       0.0 0.0 0.0 0.0
0001f0 00 00 00 00 00 00 00 00 00 00 00 00 00 00 00 00
       0.0 0.0 0.0 0.0
000200 00 00 00 00 00 00 00 00 00 00 00 00 00 00 00 00
       0.0 0.0 0.0 0.0
000210 00 00 00 00 00 00 00 00 00 00 00 00 00 00 00 00
       0.0 0.0 0.0 0.0
000220 00 00 00 00 00 00 00 00 00 00 00 00 00 00 00 00
       0.0 0.0 0.0 0.0
000230 00 00 00 00 00 00 00 00 00 00 00 00 00 00 00 00
       0.0 0.0 0.0 0.0
000240 00 00 00 00 00 00 00 00 00 00 00 00 00 00 00 00
       0.0 0.0 0.0 0.0
000250 00 00 00 00 00 00 00 00 00 00 00 00 00 00 00 00
       0.0 0.0 0.0 0.0
000260 00 00 00 00 00 00 00 00 00 00 00 00 00 00 00 00
       0.0 0.0 0.0 0.0
000270 00 00 00 00 00 00 00 00 00 00 00 00 00 00 00 00
       0.0 0.0 0.0 0.0
000280 00 00 00 00 00 00 00 00 00 00 00 00 00 00 00 00
       0.0 0.0 0.0 0.0
000290 00 00 00 00 00 00 00 00 00 00 00 00 00 00 00 00
       0.0 0.0 0.0 0.0
0002a0 00 00 00 00 00 00 00 00 00 00 00 00 00 00 00 00
       0.0 0.0 0.0 0.0
0002b0 00 00 00 00 00 00 00 00 00 00 00 00 00 00 00 00
       0.0 0.0 0.0 0.0
0002c0 00 00 00 00 00 00 00 00 00 00 00 00 00 00 00 00
       0.0 0.0 0.0 0.0
0002d0 00 00 00 00 00 00 00 00 00 00 00 00 00 00 00 00
       0.0 0.0 0.0 0.0
0002e0 00 00 00 00 00 00 00 00 00 00 00 00 00 00 00 00
       0.0 0.0 0.0 0.0
0002f0 00 00 00 00 00 00 00 00 00 00 00 00 00 00 00 00
       0.0 0.0 0.0 0.0
000300 00 00 00 00 00 00 00 00 00 00 00 00 00 00 00 00
       0.0 0.0 0.0 0.0
000310 00 00 00 00 00 00 00 00 00 00 00 00 00 00 00 00
       0.0 0.0 0.0 0.0
000320 00 00 00 00 00 00 00 00 ab e8 86 38 00 00 00 00
       0.0 0.0 6.432956e-05 0.0
000330 00 00 00 00 00 00 00 00 00 00 00 00 00 00 00 00
       0.0 0.0 0.0 0.0
000340 00 00 00 00 2b e5 c3 36 44 df b9 39 00 00 00 00
       0.0 5.8381315e-06 0.00035452296 0.0
000350 43 dc 1a 39 00 00 00 00 00 00 00 00 52 ca 85 38
       0.00014768638 0.0 0.0 6.379619e-05
000360 00 00 00 00 f1 f0 e6 38 80 d7 91 38 00 00 00 00
       0.0 0.000110121335 6.954279e-05 0.0
000370 00 00 00 00 00 00 00 00 f6 56 89 38 00 00 00 00
       0.0 0.0 6.548867e-05 0.0
000380 00 00 00 00 00 00 00 00 00 00 00 00 6f e5 81 38
       0.0 0.0 0.0 6.193935e-05
000390 10 c6 49 35 1c b0 90 38 00 00 00 00 00 00 00 00
       7.5166554e-07 6.899258e-05 0.0 0.0
0003a0 00 00 00 00 00 00 00 00 48 9a 90 39 11 10 91 37
       0.0 0.0 0.0002758077 1.7292828e-05
0003b0 2c 10 a8 39 5b e3 7a 39 00 00 00 00 00 00 00 00
       0.00032055506 0.00023926554 0.0 0.0
0003c0 00 00 00 00 00 00 00 00 00 00 00 00 00 00 00 00
       0.0 0.0 0.0 0.0
0003d0 00 00 00 00 1a 0d 2f 39 61 f4 ec 38 00 00 00 00
       0.0 0.00016694181 0.00011298876 0.0
0003e0 fa ce 68 39 00 00 00 00 00 00 00 00 00 00 00 00
       0.00022202349 0.0 0.0 0.0
0003f0 00 00 00 00 00 00 00 00 00 00 00 00 00 00 00 00
       0.0 0.0 0.0 0.0

exp_avg_sq f4 [50, 50]
000000 00 00 00 00 00 00 00 00 00 00 00 00 00 00 00 00
       0.0 0.0 0.0 0.0
000010 00 00 00 00 00 00 00 00 00 00 00 00 00 00 00 00
       0.0 0.0 0.0 0.0
000020 00 00 00 00 00 00 00 00 00 00 00 00 00 00 00 00
       0.0 0.0 0.0 0.0
000030 00 00 00 00 00 00 00 00 00 00 00 00 00 00 00 00
       0.0 0.0 0.0 0.0
000040 00 00 00 00 00 00 00 00 00 00 00 00 00 00 00 00
       0.0 0.0 0.0 0.0
000050 00 00 00 00 00 00 00 00 00 00 00 00 00 00 00 00
       0.0 0.0 0.0 0.0
000060 00 00 00 00 00 00 00 00 00 00 00 00 00 00 00 00
       0.0 0.0 0.0 0.0
000070 00 00 00 00 00 00 00 00 00 00 00 00 00 00 00 00
       0.0 0.0 0.0 0.0
000080 00 00 00 00 00 00 00 00 00 00 00 00 00 00 00 00
       0.0 0.0 0.0 0.0
000090 00 00 00 00 00 00 00 00 00 00 00 00 00 00 00 00
       0.0 0.0 0.0 0.0
0000a0 00 00 00 00 00 00 00 00 00 00 00 00 00 00 00 00
       0.0 0.0 0.0 0.0
0000b0 00 00 00 00 00 00 00 00 00 00 00 00 00 00 00 00
       0.0 0.0 0.0 0.0
0000c0 00 00 00 00 00 00 00 00 00 00 00 00 00 00 00 00
       0.0 0.0 0.0 0.0
0000d0 00 00 00 00 00 00 00 00 00 00 00 00 00 00 00 00
       0.0 0.0 0.0 0.0
0000e0 00 00 00 00 00 00 00 00 00 00 00 00 00 00 00 00
       0.0 0.0 0.0 0.0
0000f0 00 00 00 00 00 00 00 00 00 00 00 00 00 00 00 00
       0.0 0.0 0.0 0.0
000100 00 00 00 00 00 00 00 00 00 00 00 00 00 00 00 00
       0.0 0.0 0.0 0.0
000110 00 00 00 00 00 00 00 00 00 00 00 00 00 00 00 00
       0.0 0.0 0.0 0.0
000120 00 00 00 00 00 00 00 00 00 00 00 00 00 00 00 00
       0.0 0.0 0.0 0.0
000130 00 00 00 00 00 00 00 00 00 00 00 00 00 00 00 00
       0.0 0.0 0.0 0.0
000140 00 00 00 00 00 00 00 00 00 00 00 00 00 00 00 00
       0.0 0.0 0.0 0.0
000150 00 00 00 00 00 00 00 00 00 00 00 00 00 00 00 00
       0.0 0.0 0.0 0.0
000160 00 00 00 00 00 00 00 00 00 00 00 00 00 00 00 00
       0.0 0.0 0.0 0.0
000170 00 00 00 00 00 00 00 00 00 00 00 00 00 00 00 00
       0.0 0.0 0.0 0.0
000180 00 00 00 00 00 00 00 00 00 00 00 00 00 00 00 00
       0.0 0.0 0.0 0.0
000190 00 00 00 00 00 00 00 00 00 00 00 00 00 00 00 00
       0.0 0.0 0.0 0.0
0001a0 00 00 00 00 00 00 00 00 00 00 00 00 00 00 00 00
       0.0 0.0 0.0 0.0
0001b0 00 00 00 00 00 00 00 00 00 00 00 00 00 00 00 00
       0.0 0.0 0.0 0.0
0001c0 00 00 00 00 00 00 00 00 00 00 00 00 00 00 00 00
       0.0 0.0 0.0 0.0
0001d0 00 00 00 00 00 00 00 00 00 00 00 00 00 00 00 00
       0.0 0.0 0.0 0.0
0001e0 00 00 00 00 00 00 00 00 00 00 00 00 00 00 00 00
       0.0 0.0 0.0 0.0
0001f0 00 00 00 00 00 00 00 00 00 00 00 00 00 00 00 00
       0.0 0.0 0.0 0.0
000200 00 00 00 00 00 00 00 00 00 00 00 00 00 00 00 00
       0.0 0.0 0.0 0.0
000210 00 00 00 00 00 00 00 00 00 00 00 00 00 00 00 00
       0.0 0.0 0.0 0.0
000220 00 00 00 00 00 00 00 00 00 00 00 00 00 00 00 00
       0.0 0.0 0.0 0.0
000230 00 00 00 00 00 00 00 00 00 00 00 00 00 00 00 00
       0.0 0.0 0.0 0.0
000240 00 00 00 00 00 00 00 00 00 00 00 00 00 00 00 00
       0.0 0.0 0.0 0.0
000250 00 00 00 00 00 00 00 00 00 00 00 00 00 00 00 00
       0.0 0.0 0.0 0.0
000260 00 00 00 00 00 00 00 00 00 00 00 00 00 00 00 00
       0.0 0.0 0.0 0.0
000270 00 00 00 00 00 00 00 00 00 00 00 00 00 00 00 00
       0.0 0.0 0.0 0.0
000280 00 00 00 00 00 00 00 00 00 00 00 00 00 00 00 00
       0.0 0.0 0.0 0.0
000290 00 00 00 00 00 00 00 00 00 00 00 00 00 00 00 00
       0.0 0.0 0.0 0.0
0002a0 00 00 00 00 00 00 00 00 00 00 00 00 00 00 00 00
       0.0 0.0 0.0 0.0
0002b0 00 00 00 00 00 00 00 00 00 00 00 00 00 00 00 00
       0.0 0.0 0.0 0.0
0002c0 00 00 00 00 00 00 00 00 00 00 00 00 00 00 00 00
       0.0 0.0 0.0 0.0
0002d0 00 00 00 00 00 00 00 00 00 00 00 00 00 00 00 00
       0.0 0.0 0.0 0.0
0002e0 00 00 00 00 00 00 00 00 00 00 00 00 00 00 00 00
       0.0 0.0 0.0 0.0
0002f0 00 00 00 00 00 00 00 00 00 00 00 00 00 00 00 00
       0.0 0.0 0.0 0.0
000300 00 00 00 00 00 00 00 00 00 00 00 00 00 00 00 00
       0.0 0.0 0.0 0.0
000310 00 00 00 00 00 00 00 00 00 00 00 00 00 00 00 00
       0.0 0.0 0.0 0.0
000320 00 00 00 00 00 00 00 00 82 a7 97 36 00 00 00 00
       0.0 0.0 4.519651e-06 0.0
000330 00 00 00 00 00 00 00 00 00 00 00 00 00 00 00 00
       0.0 0.0 0.0 0.0
000340 00 00 00 00 41 52 8f 34 41 f1 6d 39 00 00 00 00
       0.0 2.6695673e-07 0.00022691955 0.0
000350 6d d8 0b 38 00 00 00 00 00 00 00 00 51 d0 18 37
       3.3341745e-05 0.0 0.0 9.108408e-06
000360 00 00 00 00 c6 ea ab 37 9d 03 22 37 00 00 00 00
       0.0 2.0494113e-05 9.656794e-06 0.0
000370 00 00 00 00 00 00 00 00 53 53 37 37 00 00 00 00
       0.0 0.0 1.092705e-05 0.0
000380 00 00 00 00 00 00 00 00 00 00 00 00 d1 37 1c 37
       0.0 0.0 0.0 9.31132e-06
000390 ef a0 6a 34 c1 43 54 37 00 00 00 00 00 00 00 00
       2.1851496e-07 1.265196e-05 0.0 0.0
0003a0 00 00 00 00 00 00 00 00 9c e0 f7 38 ce c5 85 32
       0.0 0.0 0.000118197146 1.5573189e-08
0003b0 e7 4d 3b 39 41 11 b6 38 00 00 00 00 00 00 00 00
       0.0001786273 8.68165e-05 0.0 0.0
0003c0 00 00 00 00 00 00 00 00 00 00 00 00 00 00 00 00
       0.0 0.0 0.0 0.0
0003d0 00 00 00 00 52 bf 63 38 5d 89 cc 37 00 00 00 00
       0.0 5.42992e-05 2.438266e-05 0.0
0003e0 75 ce b5 38 00 00 00 00 00 00 00 00 00 00 00 00
       8.669208e-05 0.0 0.0 0.0
0003f0 00 00 00 00 00 00 00 00 00 00 00 00 00 00 00 00
       0.0 0.0 0.0 0.0

exp_avg f4 [50]
000000 00 00 00 00 00 00 00 00 00 00 00 00 00 00 00 00
       0.0 0.0 0.0 0.0
000010 a6 b5 6d 37 00 00 00 00 04 00 00 00 76 89 3b b9
       1.4168594e-05 0.0 6e-45 -0.00017884918
000020 b2 d1 72 b9 04 00 00 00 00 00 00 00 52 0a c2 35
       -0.00023157036 6e-45 0.0 1.445713e-06
000030 93 60 9b 36 00 00 00 00 00 00 00 00 f5 73 9d 38
       4.6306027e-06 0.0 0.0 7.507942e-05
000040 04 00 00 00 00 00 00 00 f3 c2 f2 34 00 00 00 00
       6e-45 0.0 4.5217857e-07 0.0
000050 43 10 9b 36 21 41 01 b7 f6 82 16 b8 00 00 00 00
       4.621253e-06 -7.704163e-06 -3.5884754e-05 0.0
000060 e7 05 38 b9 84 c4 7b b6 9d 0c e7 b8 00 00 00 00
       -0.00017549806 -3.7516302e-06 -0.00011017288 0.0
000070 5c 1c 81 36 08 7d 6f b7 00 00 00 00 a7 3a e4 38
       3.847801e-06 -1.4274621e-05 0.0 0.00010882812
000080 00 00 00 00 21 ff 05 b8 60 48 2b b9 04 00 00 00
       0.0 -3.194728e-05 -0.00016334793 6e-45
000090 5a 77 10 b8 00 00 00 00 00 00 00 00 00 00 00 00
       -3.444343e-05 0.0 0.0 0.0
0000a0 00 00 00 00 00 00 00 00 45 90 4b b7 d0 ee 04 39
       0.0 0.0 -1.2133333e-05 0.00012677466
0000b0 a4 2e 13 b8 04 00 00 00 04 00 00 00 00 00 00 00
       -3.509097e-05 6e-45 6e-45 0.0
0000c0 00 00 00 00 00 00 00 00
       0.0 0.0

exp_avg_sq f4 [50]
000000 00 00 00 00 00 00 00 00 00 00 00 00 00 00 00 00
       0.0 0.0 0.0 0.0
000010 89 74 71 33 00 00 00 00 91 38 80 2d b3 1f e9 36
       5.6218173e-08 0.0 1.4577036e-11 6.9476314e-06
000020 01 6b 97 36 c7 66 cc 30 00 00 00 00 84 f7 7a 33
       4.5126076e-06 1.4872165e-09 0.0 5.8432775e-08
000030 47 24 e3 32 00 00 00 00 00 00 00 00 b8 60 e4 34
       2.6442775e-08 0.0 0.0 4.2538682e-07
000040 bf b5 ab 27 00 00 00 00 8f 98 6e 31 00 00 00 00
       4.7659084e-15 0.0 3.4720278e-09 0.0
000050 fc d6 a8 33 c4 22 e7 33 ea 73 b9 34 00 00 00 00
       7.862215e-08 1.07630996e-07 3.4543274e-07 0.0
000060 6a fa c8 36 f0 b6 c8 33 0a 23 0c 35 00 00 00 00
       5.9896165e-06 9.346502e-08 5.220505e-07 0.0
000070 96 7b 71 32 e5 19 08 34 00 00 00 00 02 d1 66 35
       1.40561465e-08 1.2675407e-07 0.0 8.5985823e-07
000080 00 00 00 00 04 24 9e 33 eb 40 8c 35 e5 23 af 31
       0.0 7.3639995e-08 1.0449706e-06 5.097251e-09
000090 f9 68 df 33 00 00 00 00 00 00 00 00 00 00 00 00
       1.0403341e-07 0.0 0.0 0.0
0000a0 00 00 00 00 00 00 00 00 89 19 8a 33 c2 8e 9e 35
       0.0 0.0 6.4307706e-08 1.1813465e-06
0000b0 2a 08 04 34 7d 54 5d 2c ce 67 5f 30 00 00 00 00
       1.2296428e-07 3.145289e-12 8.127444e-10 0.0
0000c0 00 00 00 00 00 00 00 00
       0.0 0.0

exp_avg f4 [190, 50]
000000 00 00 00 00 00 00 00 00 00 00 00 00 00 00 00 00
       0.0 0.0 0.0 0.0
000010 c7 f1 92 36 00 00 00 00 04 00 00 80 09 7a 3e 37
       4.3792857e-06 0.0 -6e-45 1.1353296e-05
000020 33 cd 1d 38 04 00 00 00 00 00 00 00 f0 09 9c 35
       3.7622824e-05 6e-45 0.0 1.1625798e-06
000030 d8 ad f6 35 00 00 00 00 00 00 00 00 73 c2 93 36
       1.8379023e-06 0.0 0.0 4.4035783e-06
000040 04 00 00 80 00 00 00 00 c3 c7 40 35 00 00 00 00
       -6e-45 0.0 7.1816265e-07 0.0
000050 23 df eb 35 44 b0 07 37 0d 24 99 37 00 00 00 00
       1.7573806e-06 8.087667e-06 1.8255809e-05 0.0
000060 23 89 21 38 f9 84 c4 36 48 0a b1 37 00 00 00 00
       3.851311e-05 5.8567352e-06 2.1104832e-05 0.0
000070 13 4a 4c 35 a8 65 6e 37 00 00 00 00 ef 2b c9 36
       7.6103714e-07 1.4209574e-05 0.0 5.9953813e-06
000080 00 00 00 00 a3 42 cb 36 19 43 f0 37 04 00 00 80
       0.0 6.057629e-06 2.8641474e-05 -6e-45
000090 43 f0 28 37 00 00 00 00 00 00 00 00 00 00 00 00
       1.0069521e-05 0.0 0.0 0.0
0000a0 00 00 00 00 00 00 00 00 86 cb d5 36 01 97 fb 36
       0.0 0.0 6.371588e-06 7.497962e-06
0000b0 dd ac 12 37 04 00 00 80 04 00 00 00 00 00 00 00
       8.742526e-06 -6e-45 6e-45 0.0
0000c0 00 00 00 00 00 00 00 00 00 00 00 00 00 00 00 00
       0.0 0.0 0.0 0.0
0000d0 00 00 00 00 00 00 00 00 e8 11 78 b6 00 00 00 00
       0.0 0.0 -3.6965303e-06 0.0
0000e0 04 00 00 00 30 94 2a b7 28 96 41 b8 04 00 00 80
       6e-45 -1.0167292e-05 -4.615463e-05 -6e-45
0000f0 00 00 00 00 63 c5 7a b5 49 28 e3 b5 00 00 00 00
       0.0 -9.3419493e-07 -1.6924542e-06 0.0
000100 00 00 00 00 8d e7 49 b6 04 00 00 80 00 00 00 00
       0.0 -3.0086114e-06 -6e-45 0.0
000110 07 34 03 b5 00 00 00 00 0a e0 c5 b5 1c 38 f0 b6
       -4.887701e-07 0.0 -1.4742848e-06 -7.1590894e-06
000120 84 71 b1 b7 00 00 00 00 42 cb 47 b8 35 68 b1 b6
       -2.1152904e-05 0.0 -4.7634596e-05 -5.2871424e-06
000130 61 1d c8 b7 00 00 00 00 44 ce 0a b5 02 73 87 b7
       -2.3855539e-05 0.0 -5.170916e-07 -1.6146809e-05
000140 00 00 00 00 62 31 89 b6 00 00 00 00 ce 85 bd b6
       0.0 -4.088667e-06 0.0 -5.648216e-06
000150 dc 16 0e b8 04 00 00 00 53 15 2e b7 00 00 00 00
       -3.3876728e-05 6e-45 -1.0376173e-05 0.0
000160 00 00 00 00 00 00 00 00 00 00 00 00 00 00 00 00
       0.0 0.0 0.0 0.0
000170 26 d8 dc b6 82 67 ab b6 e9 24 16 b7 04 00 00 00
       -6.581674e-06 -5.108247e-06 -8.9492905e-06 6e-45
000180 04 00 00 00 00 00 00 00 00 00 00 00 00 00 00 00
       6e-45 0.0 0.0 0.0
000190 00 00 00 00 00 00 00 00 00 00 00 00 00 00 00 00
       0.0 0.0 0.0 0.0
0001a0 69 3d 1c b6 00 00 00 00 04 00 00 80 39 e5 b2 b6
       -2.3281557e-06 0.0 -6e-45 -5.3314984e-06
0001b0 31 11 88 b8 04 00 00 80 00 00 00 00 bb 61 b6 33
       -6.4881875e-05 -6e-45 0.0 8.4928125e-08
0001c0 24 9f cf b4 00 00 00 00 00 00 00 00 49 08 c5 35
       -3.8672545e-07 0.0 0.0 1.4680055e-06
0001d0 04 00 00 80 00 00 00 00 63 a1 84 34 00 00 00 00
       -6e-45 0.0 2.470434e-07 0.0
0001e0 a2 36 6b 34 ad 1e 77 b6 9d 83 e4 b7 00 00 00 00
       2.1905956e-07 -3.6823724e-06 -2.7241005e-05 0.0
0001f0 45 0f 8e b8 5e f4 58 b6 28 f5 f3 b7 00 00 00 00
       -6.773932e-05 -3.2328749e-06 -2.9082017e-05 0.0
000200 52 25 91 34 a3 40 ad b7 00 00 00 00 5a f5 08 36
       2.703551e-07 -2.0653306e-05 0.0 2.0408393e-06
000210 00 00 00 00 73 93 bc b6 4e 24 3b b8 04 00 00 80
       0.0 -5.620002e-06 -4.4618086e-05 -6e-45
000220 30 2f 3a b7 00 00 00 00 00 00 00 00 00 00 00 00
       -1.1097451e-05 0.0 0.0 0.0
000230 00 00 00 00 00 00 00 00 6f b3 04 b7 75 87 2d 36
       0.0 0.0 -7.909591e-06 2.5857855e-06
000240 db c5 1d b7 04 00 00 80 04 00 00 80 00 00 00 00
       -9.403996e-06 -6e-45 -6e-45 0.0
000250 00 00 00 00 00 00 00 00 00 00 00 00 00 00 00 00
       0.0 0.0 0.0 0.0
000260 00 00 00 00 00 00 00 00 69 6d 85 35 00 00 00 00
       0.0 0.0 9.941115e-07 0.0
000270 04 00 00 00 ae 69 56 37 a6 bd 50 38 04 00 00 00
       6e-45 1.2779999e-05 4.976769e-05 6e-45
000280 00 00 00 00 34 47 51 35 09 59 cb 35 00 00 00 00
       0.0 7.796218e-07 1.5150591e-06 0.0
000290 00 00 00 00 df 32 0d 36 04 00 00 00 00 00 00 00
       0.0 2.1040248e-06 6e-45 0.0
0002a0 60 dd b8 34 00 00 00 00 63 d9 92 b4 58 9f 16 37
       3.4433742e-07 0.0 -2.735279e-07 8.977797e-06
0002b0 89 02 ad 37 00 00 00 00 0c 36 5a 38 80 79 8b b5
       2.0624388e-05 0.0 5.2025585e-05 -1.0391668e-06
0002c0 cb 13 b3 37 00 00 00 00 f4 f9 c7 34 32 7c 8b 37
       2.134768e-05 0.0 3.7248503e-07 1.6627924e-05
0002d0 00 00 00 00 26 1c 41 36 00 00 00 00 61 c0 fa 36
       0.0 2.8775626e-06 0.0 7.4729764e-06
0002e0 0d 41 0a 38 04 00 00 80 43 45 15 37 00 00 00 00
       3.2962347e-05 -6e-45 8.897218e-06 0.0
0002f0 00 00 00 00 00 00 00 00 00 00 00 00 00 00 00 00
       0.0 0.0 0.0 0.0
000300 97 f0 07 37 2a d1 71 36 59 b1 fa 36 04 00 00 00
       8.102644e-06 3.6033548e-06 7.4712266e-06 6e-45
000310 04 00 00 00 00 00 00 00 00 00 00 00 00 00 00 00
       6e-45 0.0 0.0 0.0
000320 00 00 00 00 00 00 00 00 00 00 00 00 00 00 00 00
       0.0 0.0 0.0 0.0
000330 d1 8b 40 b6 00 00 00 00 04 00 00 00 6d eb 1b b6
       -2.8691613e-06 0.0 6e-45 -2.3233836e-06
000340 2c 13 ae b7 04 00 00 00 00 00 00 00 c0 fc b2 b3
       -2.0751344e-05 6e-45 0.0 -8.334746e-08
000350 59 1b 33 b4 00 00 00 00 00 00 00 00 87 cb dd b4
       -1.6680623e-07 0.0 0.0 -4.1312543e-07
000360 04 00 00 80 00 00 00 00 e9 3a 88 b3 00 00 00 00
       -6e-45 0.0 -6.343709e-08 0.0
000370 81 69 2b b5 a7 76 ee b5 5c 07 2c b7 00 00 00 00
       -6.385599e-07 -1.7766914e-06 -1.0253712e-05 0.0
000380 d5 e5 b1 b7 15 de 8d b6 9b 47 49 b7 00 00 00 00
       -2.1207068e-05 -4.227981e-06 -1.1997206e-05 0.0
000390 c3 0b 72 b3 d9 36 03 b7 00 00 00 00 28 ca 0d b5
       -5.6355713e-08 -7.820979e-06 0.0 -5.282077e-07
0003a0 00 00 00 00 bb b7 28 b6 a8 3e 87 b7 04 00 00 80
       0.0 -2.5140896e-06 -1.612243e-05 -6e-45
0003b0 3c ec b6 b6 00 00 00 00 00 00 00 00 00 00 00 00
       -5.451524e-06 0.0 0.0 0.0
0003c0 00 00 00 00 00 00 00 00 35 35 50 b6 2d 6c 29 b5
       0.0 0.0 -3.1025386e-06 -6.311482e-07
0003d0 fb 04 a1 b6 04 00 00 00 04 00 00 80 00 00 00 00
       -4.7987537e-06 6e-45 -6e-45 0.0
0003e0 00 00 00 00 00 00 00 00 00 00 00 00 00 00 00 00
       0.0 0.0 0.0 0.0
0003f0 00 00 00 00 00 00 00 00 43 10 a7 36 00 00 00 00
       0.0 0.0 4.978881e-06 0.0
