model.pth (torch, 70452 bytes, 6 tensors)

weight f4 [64, 1]
0	0x3d36615a	0.044526435
1	0x3f167d84	0.5878527
2	0xbf546142	-0.82960904
3	0xbf4c321c	-0.7976396
4	0x3f78a4e6	0.97126615
5	0x3dacff80	0.0844717
6	0x3e762e7c	0.2404117
7	0x3f7bd974	0.9837868
8	0x3eda1d24	0.42600358
9	0xbf2e1196	-0.67995584
10	0x3ef2d42f	0.47427508
11	0x3e1bf497	0.15230022
12	0xbef09d78	-0.4699514
13	0x3e657e1f	0.22411393
14	0xbf0502b6	-0.5195726
15	0x3f01986a	0.5062319
16	0x3f469663	0.7757322
17	0xbe2a5c38	-0.16636741
18	0xbeda3a48	-0.4262259
19	0xbf35936e	-0.70928085
20	0x3ed0b6d1	0.40764478
21	0x3e0fa4b9	0.1402768
22	0xbef97400	-0.48721313
23	0x3eaceb3e	0.33773226
24	0x3f0da003	0.55322284
25	0xbd625a40	-0.05526185
26	0xbf4f24fa	-0.80915797
27	0x3e915947	0.28388426
28	0x3f6393f7	0.8889765
29	0xbf09c168	-0.5381074
30	0x3ebebaf0	0.37251997
31	0xbcad8bc0	-0.021184802
32	0x3f6290e9	0.88502365
33	0x3f2245f8	0.63388014
34	0x3f359aea	0.70939505
35	0x3edc0d7d	0.4297904
36	0xbf0f82cc	-0.56058955
37	0x3f6d49cb	0.92690724
38	0x3f599ef9	0.850082
39	0xbd34c300	-0.04413128
40	0x3e2355a2	0.15950635
41	0x3d850790	0.06495583
42	0xbe60e780	-0.2196331
43	0xbeb93160	-0.36170483
44	0x3f405c9c	0.7514131
45	0x3dd7af14	0.105314404
46	0x3f74d25f	0.956335
47	0x3d5f38d1	0.054497544
48	0xbe4101f0	-0.18848395
49	0x3ebd526c	0.36976945
50	0x3eeb2ad5	0.45931116
51	0x3edfd6e0	0.43718624
52	0xbafa6800	-0.0019104481
53	0x3f0f93a3	0.5608465
54	0xbf782696	-0.9693388
55	0x3e70c7b8	0.23513687
56	0xbd60c0e0	-0.05487144
57	0xbe8d6214	-0.2761389
58	0x3d20fd79	0.03930423
59	0x3e30126d	0.17194529
60	0xbe9b127c	-0.3028754
61	0x3f1ce8ed	0.61292917
62	0xbed027a8	-0.40655255
63	0x3eea17d0	0.45721292

bias f4 [64]
0	0xbee3ecfd	-0.44516745
1	0xbf4b1440	-0.79327774
2	0xbdfbd8f0	-0.12297237
3	0x3f3eb18e	0.74489677
4	0x3f4b9036	0.79516923
5	0xbf583792	-0.84459794
6	0x3e45a239	0.19300164
7	0xbdc5fd3b	-0.096674405
8	0x3ba99aeb	0.0051759384
9	0xbf2dec12	-0.6793834
10	0xbf4d5619	-0.802095
11	0x3f569c14	0.83831906
12	0x3c03b380	0.008038402
13	0xbf904b52	-1.1272986
14	0xbe985b10	-0.29756975
15	0x3f4ac1d2	0.79201996
16	0x3f790b28	0.9728265
17	0xbe1cfe48	-0.15331376
18	0xbdee1af0	-0.11626232
19	0xbf2414e4	-0.64094377
20	0xbed0b4fe	-0.40763086
21	0xbf14c7a3	-0.5811712
22	0x3f72e9f8	0.9488826
23	0x3f52a065	0.8227599
24	0xbf1a969e	-0.60386074
25	0xbe0ca390	-0.13734269
26	0x3e37f248	0.17963517
27	0xbf3eaa5e	-0.7447871
28	0x3e4e5b4a	0.20152012
29	0x3f74ce4a	0.9562727
30	0x3c856909	0.016285436
31	0xbe9807d0	-0.2969346
32	0x3ed16242	0.40895277
33	0x3e32f729	0.17477097
34	0x3dce3ca3	0.10070159
35	0xbe5c2bbe	-0.21501061
36	0xbf0d3aea	-0.5516802
37	0x3d188600	0.037237167
38	0x3ea93c7f	0.33053967
39	0xbf345208	-0.7043767
40	0x3e8be613	0.2732397
41	0x3f88f1c8	1.0698786
42	0xbf36d25e	-0.71414745
43	0x3ec0b35c	0.3763684
44	0x3f554a8a	0.8331686
45	0x3f17a418	0.5923476
46	0xbf803525	-1.0016218
47	0x3ec1836a	0.37795573
48	0xbebb1490	-0.36539125
49	0xbf8eb5a9	-1.1149188
50	0xbea489a4	-0.3213626
51	0xbd0a2545	-0.03372695
52	0xbf65b740	-0.8973274
53	0x3f1e861d	0.6192339
54	0xbf7dfdd2	-0.99215424
55	0xbe6bf202	-0.23041537
56	0xbe8fa918	-0.28058696
57	0xbf1243c2	-0.5713464
58	0x3f847406	1.0347908
59	0x3ef59a10	0.47969103
60	0xbf6e589e	-0.9310397
61	0xbc9568e1	-0.018238487
62	0x3f6bffca	0.9218718
63	0x3f459e00	0.77194214

weight f4 [64, 64]
0	0xbe125f6b	-0.14294212
1	0xbe0d2d5b	-0.13786833
2	0x3d6500d8	0.055909008
3	0x3cf0c4b8	0.029390678
4	0x3df34415	0.1187822
5	0xbddf9bfd	-0.10918424
6	0xbcab32d0	-0.020898253
7	0xbca91c49	-0.02064337
8	0x3ce90e31	0.02844915
9	0x3d941c1a	0.072319224
10	0x3cef5be6	0.029218625
11	0x3e0d7da4	0.1381746
12	0xbd3b11f8	-0.045671433
13	0xbd00beff	-0.031432148
14	0xbdaa80b2	-0.08325328
15	0xbdb016ca	-0.08598097
16	0xbd8185b9	-0.06324334
17	0xbdcc191e	-0.09965728
18	0x3bc3e080	0.00597769
19	0x3d1ca7b4	0.03824587
20	0x3db7f571	0.08982361
21	0x3d397af6	0.04528328
22	0x3dc82278	0.097721994
23	0x3cb9ee36	0.022696596
24	0xbcf89d9f	-0.030348597
25	0x3de2bc48	0.11071068
26	0xbd4fbba4	-0.050716057
27	0x3d8ea2cf	0.06964647
28	0xbdde9530	-0.10868299
29	0xbd4ad53c	-0.049519762
30	0xbdb53012	-0.08847059
31	0x3db9844e	0.09058438
32	0xbd8a38e4	-0.06749132
33	0x3d8ca59b	0.06867524
34	0x3db65b26	0.08904104
35	0xbcc598ac	-0.024120651
36	0x3d806e80	0.06271076
37	0x3b514990	0.0031934716
38	0x3d77f823	0.060539376
39	0xbdc8f134	-0.09811631
40	0xbc9103d2	-0.017702017
41	0x3e5754e9	0.21028484
42	0xbdb13770	-0.08653152
43	0xbd932a10	-0.07185757
44	0x3df507e3	0.11964395
45	0x3d4f5820	0.050621152
46	0x3c5db29c	0.013531353
47	0x3e021540	0.12703419
48	0xbde8c460	-0.113655806
49	0xbe22c6a2	-0.15896085
50	0x3ce3c7fc	0.02780532
51	0x3d4d93f3	0.050189923
52	0xbce5f2d0	-0.028069884
53	0xbdd4b33a	-0.10385747
54	0xbc8a4e20	-0.016882956
55	0xbbed2043	-0.007236512
56	0x3d624f48	0.05525139
57	0x3d66eea0	0.056379914
58	0x3e5448fd	0.20730968
59	0x3d2e630a	0.04257492
60	0x3d818c7e	0.06325625
61	0x3da2d14c	0.079500765
62	0xbd9b9750	-0.0759722
63	0x3da5dacb	0.08098372
64	0x3e53797d	0.20651813
65	0x3dbd3ff9	0.092407174
66	0xbd342cb4	-0.043987945
67	0x3c8a8710	0.016910106
68	0x3d416ba6	0.047221802
69	0x3e765d6f	0.2405908
70	0x3d9a1eb3	0.07525387
71	0x3ca7301f	0.020408688
72	0xbdefa6a2	-0.117017046
73	0x3cdfbe08	0.027312294
74	0x3dfe9576	0.12430851
75	0xbd504f79	-0.05085704
76	0x3b8ffda0	0.004394248
77	0x3d931383	0.07181456
78	0x3bc4c5e0	0.006005034
79	0xbdefc1b3	-0.11706867
80	0xbca29e78	-0.019850954
81	0xbc45bd30	-0.012069032
82	0x3d3591b4	0.044328406
83	0x3bb1a800	0.0054216385
84	0xbdd0a943	-0.10188534
85	0x3e097833	0.13424759
86	0x3d7631ac	0.060105965
87	0x3d48b9d7	0.049005356
88	0xbcc253c3	-0.023721581
89	0x3db5dbd8	0.088798225
90	0xbd1b0400	-0.03784561
91	0x3c073b33	0.00825386
92	0x3dc4e766	0.09614448
93	0x3d9405e0	0.07227683
94	0x3d94d193	0.072665356
95	0x3bb6c240	0.0055773556
96	0x3d32e566	0.043675803
97	0x3dd91e72	0.1060151
98	0xbded556b	-0.11588558
99	0xbd08d41f	-0.03340542
100	0xbdde020a	-0.10840233
101	0xbc524c01	-0.012835504
102	0xbc40c4be	-0.011765657
103	0x3cfeddb0	0.031111568
104	0x3da17475	0.078835405
105	0xbe83b9b4	-0.25727618
106	0xbcbeee60	-0.023307025
107	0xbd172de8	-0.036909014
108	0x3cbe76f4	0.02325008
109	0xbd67f772	-0.056632467
110	0x3c61f341	0.013790906
111	0xbdf689d7	-0.120380096
112	0x3dbda7b0	0.092604995
113	0xbd4428f9	-0.047890637
114	0x3d22d79e	0.03975641
115	0xbc874f79	-0.016517388
116	0xbd9e3232	-0.07724418
117	0x3d8eabfc	0.06966397
118	0x3c3f8080	0.011688352
119	0x3dc14840	0.09437609
120	0x3c83a7f0	0.01607129
121	0xbdd6b0f6	-0.10482971
122	0xbe40c4f8	-0.18825138
123	0xbe169d6e	-0.14708492
124	0x3d6be0cc	0.05758743
125	0xbcafbf0b	-0.021453401
126	0x3d2a6360	0.041598678
127	0xbdf0e1af	-0.11761796
128	0x3cd014a1	0.025400462
129	0xbdb57328	-0.08859855
130	0x3debe774	0.115187556
131	0x3d2e16f8	0.042502373
132	0x3daab1bd	0.08334682
133	0x3d96d4a6	0.07364778
134	0xbbe8ea64	-0.0071080197
135	0xbd8ca879	-0.06868071
136	0x3dd1b485	0.102395095
137	0xbdb945bc	-0.09046504
138	0x3d57ee3a	0.052717425
139	0xbda1a3e5	-0.078925885
140	0x3b044b00	0.0020186305
141	0xbdb370a8	-0.08761722
142	0x3cdff5a0	0.027338803
143	0xbd087820	-0.033317685
144	0xbcbc9948	-0.023022309
145	0xbdf25016	-0.118316814
146	0xbd2f99c4	-0.04287125
147	0xbdac7702	-0.084211364
148	0xbdd03d8f	-0.10167991
149	0x3c3fec71	0.011714087
150	0x3b85c220	0.0040819794
151	0xbd60a191	-0.05484158
152	0xbd45afbb	-0.048263293
153	0x3ce28990	0.027653486
154	0xbdb1da48	-0.08684212
155	0x3dfbff1d	0.12304518
156	0x3df2bd3e	0.11852501
157	0xbc92a6a0	-0.017901719
158	0xbdf4d847	-0.11955314
159	0x3d9b3594	0.075785786
160	0x3cdf8bbc	0.02728831
161	0x3d8980ce	0.06714021
162	0x3d6389c3	0.0555513
163	0xbc3cd79a	-0.011526013
164	0xbd6f49b0	-0.058419883
165	0x3d7a456a	0.061101355
166	0xbb81dc8e	-0.0039630597
167	0x3d1cdbf8	0.038295716
168	0x3dedb322	0.116064325
169	0xbdbf0232	-0.093265906
170	0x3d149dd4	0.03628333
171	0xbd08eab8	-0.03342697
172	0xbdf13350	-0.11777365
173	0x3d443e48	0.04791096
174	0xbdc56a3d	-0.09639404
175	0x3cd81e6f	0.0263817
176	0xbd2e64cc	-0.042576596
177	0x3d97c342	0.07410289
178	0x3dfba9aa	0.1228822
179	0x3dbcb899	0.09214897
180	0x3cd4e1f8	0.025986657
181	0xbda7b225	-0.08188275
182	0x3dfe35ec	0.124126285
183	0x3bfd000d	0.0077209533
184	0x3db0ee66	0.08639221
185	0xbd83f1aa	-0.06442578
186	0xbd4591a4	-0.048234597
187	0xbd7b5ad1	-0.061365906
188	0x3c9b7790	0.01897791
189	0x3c8ce015	0.017196694
190	0x3d70a218	0.058748335
191	0xbdde09f8	-0.10841745
192	0xbe7cdda3	-0.24693923
193	0xbdd06627	-0.10175734
194	0xbdb62122	-0.08893038
195	0x3c244fe0	0.010028809
196	0x3cc0c979	0.02353357
197	0xbe37ad8c	-0.17937297
198	0x3d63a485	0.05557682
199	0x3c931380	0.017953634
200	0xbad52d88	-0.001626418
201	0xbd6aaf90	-0.057296336
202	0xbdc4fa06	-0.09618001
203	0x3ddf1c0f	0.108940236
204	0x3dbf6a7c	0.09346482
205	0xbdddff8e	-0.10839759
206	0xbd3cd594	-0.04610212
207	0xbdb0ed1e	-0.086389765
208	0x3da62dfb	0.08114239
209	0xbcb32350	-0.021867424
210	0xbddc2d82	-0.107508674
211	0xbc4d3e50	-0.0125270635
212	0x3dbdf365	0.092749394
213	0xbe1a025e	-0.15039966
214	0x3d9ad6a2	0.07560469
215	0x3d66b603	0.056325924
216	0x3d6d3925	0.057915825
217	0x3d617738	0.055045336
218	0x3d932e24	0.07186535
219	0xbcfeb5b5	-0.031092504
220	0x3db8f083	0.09030249
221	0x3cce5f00	0.025191784
222	0x3dc33f09	0.095335074
223	0xbb514a80	-0.0031935275
224	0x3dad975a	0.08476134
225	0x3dcb5b10	0.09929478
226	0xbd4bc163	-0.049744975
227	0x3d305f4b	0.04305963
228	0xbd14bf50	-0.036315262
229	0xbdcf36d1	-0.10117877
230	0xbd39eebe	-0.045393698
231	0x3dc13398	0.09433669
232	0xbd1fd94c	-0.03902559
233	0x3d0a2702	0.033728607
234	0x3ccf57a0	0.025310338
235	0x3c499690	0.012303963
236	0x3db887a7	0.09010249
237	0xbc2251d8	-0.009907208
238	0x3dd20a2e	0.10255848
239	0xbd74e285	-0.05978634
240	0x3d371d88	0.044705898
241	0xbd033b77	-0.032039132
242	0xbd4c18aa	-0.04982821
243	0xbd031a83	-0.032007705
244	0x3d5a61f8	0.053316087
245	0xbdcc813b	-0.09985586
246	0x3d229f84	0.039702907
247	0xbd6278bd	-0.055290926
248	0xbdb6691c	-0.08906767
249	0x3d7c872c	0.061652347
250	0x3de6159b	0.1123459
251	0x3d2a7933	0.04161949
252	0xbdf431dc	-0.119235724
253	0xbde9f5c7	-0.114238314
254	0x3cb4e0b8	0.02207981
255	0x3d3bd24a	0.045854844

bias f4 [64]
0	0x3eeaab39	0.45833758
1	0xbed2a3e9	-0.4114068
2	0x3d63d449	0.055622373
3	0x3e94532c	0.28969705
4	0x3c94dd40	0.018171906
5	0x3df1fee0	0.11816192
6	0xbddfa1e6	-0.109195516
7	0xbd98c6a0	-0.0745976
8	0x3d2c603d	0.042083967
9	0x3e776729	0.24160446
10	0x3d501bec	0.05080788
11	0xbddd5b06	-0.10808377
12	0xbd1a846c	-0.037723944
13	0xbeacddeb	-0.3376306
14	0xbe0a6aaf	-0.13517259
15	0x3ec669c0	0.38752556
16	0xbe73197b	-0.23740189
17	0x3daf1b9e	0.085501894
18	0xbdb69ee9	-0.089170285
19	0x3e63f050	0.2225964
20	0x3e44c32f	0.19215082
21	0x3d508ad4	0.050913647
22	0x3e7ca333	0.2467163
23	0xbda9795a	-0.08275099
24	0xbcd1d910	-0.025616199
25	0xbc7fb7da	-0.0156077985
26	0x3c9bcff8	0.019020066
27	0xbc8986f0	-0.016787976
28	0x3e1ac2e8	0.15113413
29	0xbdcfe3ae	-0.10150848
30	0xbdc2401a	-0.09484883
31	0x3e794837	0.24343954
32	0xbd1c9548	-0.038228303
33	0xbe631e0e	-0.22179434
34	0xbdeaff76	-0.114745066
35	0x3d7948d8	0.060860485
36	0x3b82ba20	0.003989473
37	0x3eec4a05	0.46150222
38	0x3b51c980	0.0032010972
39	0x3df7a6a0	0.12092328
40	0xbd1a3a64	-0.037653342
41	0xbb587cc0	-0.0033033341
42	0xbe874b76	-0.2642476
43	0x3d69ce24	0.057081357
44	0x3e67c4e4	0.22633702
45	0x3dd793b4	0.10526219
46	0x3e7a8571	0.24464966
47	0xbed2ac30	-0.41146994
48	0x3e6d207a	0.2315692
49	0xbd8d13ea	-0.06888564
50	0x3d9fc1cc	0.07800636
51	0x3d04c2fc	0.032412514
52	0xbd89ab88	-0.0672217
53	0xbdfd4840	-0.12367296
54	0x3d0d4b8c	0.034495875
55	0xbc8ddae0	-0.017316282
56	0x3df938b0	0.121690154
57	0xbe249a87	-0.16074573
58	0xbd7336d4	-0.05937846
59	0x3e1c9ce0	0.15294218
60	0xbe9a6847	-0.30157682
61	0x3da4f6eb	0.08054908
62	0x3db9be50	0.09069502
63	0x3db685cc	0.089122385

weight f4 [190, 64]
0	0x3dc4a40f	0.09601604
1	0x3d5d7fd8	0.054077
2	0xbc40f36a	-0.011776784
3	0x3df54aba	0.119771436
4	0xbd48eff8	-0.049056977
5	0xbda1a508	-0.07892805
6	0xbdf59348	-0.11990982
7	0x3cbb7c18	0.022886321
8	0x3d4b7d36	0.049679957
9	0x3cad86f5	0.021182517
10	0x3d3bf164	0.045884505
11	0xbdbbc662	-0.09168698
12	0x3d9b417a	0.07580848
13	0xbc509d70	-0.0127328485
14	0xbcaea79a	-0.021320153
15	0xbdd53fad	-0.10412536
16	0x3dd3c56d	0.1034039
17	0xbc98c3c0	-0.018648028
18	0xbdede92f	-0.11616742
19	0xbd8d08a5	-0.068864144
20	0xbda90fc4	-0.0825496
21	0x3df2c928	0.11854774
22	0xba9cedaf	-0.0011972691
23	0x3dd59850	0.10429442
24	0xbd9fc3ba	-0.07801004
25	0x3c973d67	0.018461896
26	0x3d87f456	0.066384
27	0x3bd4ef20	0.0064982325
28	0x3c4b7194	0.012417216
29	0x3dd939a8	0.106067
30	0x3d2b2654	0.0417846
31	0x3d42275b	0.047400814
32	0xbceffbf0	-0.029294938
33	0x3d93dd71	0.07219971
34	0xbd7a3440	-0.061084986
35	0x3d3e4f0c	0.046462104
36	0x3d8bda30	0.06828725
37	0x3d9752d0	0.07388842
38	0x3dc32e56	0.09530322
39	0xbda97e21	-0.0827601
40	0xbdf852ee	-0.121251926
41	0xbdb31ef8	-0.08746141
42	0xbdabf6cd	-0.08396683
43	0x3dac03b2	0.08399142
44	0x3daf354f	0.0855509
45	0x3d883764	0.0665119
46	0x3d2c444c	0.04205732
47	0xbc3cc811	-0.011522309
48	0x3c3ff216	0.011715433
49	0x3c7fa6e0	0.015603751
50	0x3d3db4d4	0.04631503
51	0xbda0f51c	-0.07859251
52	0xbda96abc	-0.08272311
53	0xbc423f20	-0.0118558705
54	0x3d4e3e28	0.050352246
55	0xbd8c013a	-0.068361714
56	0xbd157528	-0.036488682
57	0xbd88fdc6	-0.066890284
58	0xbde19048	-0.110138476
59	0xbd17e6f6	-0.037085496
60	0x3df212d0	0.118199944
61	0xbd63cc89	-0.05561498
62	0xbde6dda6	-0.11272745
63	0xbd9e9f7e	-0.077452645
64	0x3dd43f5b	0.103636466
65	0xbd3b528a	-0.045733012
66	0x3cc1480f	0.02359393
67	0xbd4da5ee	-0.05020707
68	0x3dbb3bee	0.0914229
69	0x3dd1f9f6	0.102527544
70	0xbddbd250	-0.10733473
71	0x3dca0e24	0.09865978
72	0xbdd0b24e	-0.10190259
73	0x3bfef4e3	0.0077806576
74	0x3c4f3f90	0.012649432
75	0x3d72a4d4	0.059239224
76	0x3d7b5120	0.061356664
77	0x3dd16c3c	0.10225722
78	0xbda2443f	-0.07923173
79	0x3e1433fa	0.14472952
80	0x3d62fdfd	0.055418003
81	0x3befc920	0.007317677
82	0xbd1c45d7	-0.038152542
83	0x3c0ef3bd	0.008725104
84	0xbdaacd6d	-0.08339963
85	0x3dfc3fe8	0.12316877
86	0xbcd5e4bf	-0.026110051
87	0x3cd68e08	0.026190773
88	0xbdba1704	-0.09086421
89	0x3da76736	0.08173983
90	0x3a044c00	0.0005046725
91	0x3d916ee8	0.07101232
92	0xbd2372fb	-0.039904576
93	0x3df7b012	0.120941296
94	0xbddb425a	-0.10706015
95	0xbd8f4190	-0.06994927
96	0xbcbdd428	-0.023172453
97	0xbc23a5b9	-0.009988242
98	0x3b819120	0.003954068
99	0xbd8d9c36	-0.069145605
100	0xbd3f008c	-0.04663138
101	0xbdae6420	-0.08515191
102	0x3b65e500	0.0035079122
103	0xbc18bbce	-0.00932212
104	0x3b599300	0.003319919
105	0xbdccc41c	-0.099983424
106	0x3c2a7aa2	0.0104052145
107	0x3de04342	0.109503284
108	0xbdc6da53	-0.09709611
109	0x3de4695e	0.1115291
110	0x3ccdb130	0.025108904
111	0x3da0ec27	0.078575425
112	0x3ca238fa	0.01980256
113	0xbd0bd18c	-0.034135386
114	0x3ccbae88	0.024863496
115	0xbde2bab4	-0.11070767
116	0xbcbe8150	-0.02325502
117	0xbd550470	-0.052006185
118	0x3d1ceb88	0.038310558
119	0xbd5af25c	-0.05345379
120	0x3de999c6	0.11406283
121	0x3c5cbc2f	0.013472601
122	0x3df3aa62	0.11897732
123	0x3dd3f497	0.10349386
124	0x3c896e12	0.016776118
125	0x3d87b305	0.06625942
126	0xbce9bb78	-0.028531775
127	0xbd1072b4	-0.03526564
128	0x3dcd0949	0.10011537
129	0xbd903f60	-0.07043338
130	0xbd3c3016	-0.045944296
131	0x3d8ad356	0.067785904
132	0xbc9410c8	-0.018074408
133	0xbba397e0	-0.00499247
134	0xbdb4c8ae	-0.08827339
135	0xbd9a9d82	-0.075495735
136	0x3dbf49d0	0.093402505
137	0x3aa2ec98	0.001243013
138	0x3ac2fc00	0.0014876127
139	0x3d643934	0.055718616
140	0x3d02186c	0.03176157
141	0x3bdb402a	0.0066909986
142	0xbd9987de	-0.07496618
143	0xbdd8897d	-0.10573099
144	0xbc6d15c6	-0.014470523
145	0x3d1c7174	0.038194135
146	0xbd5b9a2c	-0.053613827
147	0xbddaf535	-0.10691301
148	0xbd2b75b4	-0.041860297
149	0x3c9296d8	0.017894194
150	0x3d88405d	0.06652901
151	0xbde13e70	-0.10998237
152	0xbd712a20	-0.058878064
153	0xbdd8eb10	-0.105917096
154	0xbdba757c	-0.091044396
155	0x3d45df0c	0.048308417
156	0xbdad9e84	-0.084775
157	0x3c160940	0.009157479
158	0x3b6018c0	0.003419444
159	0x3e003e62	0.12523797
160	0xbc7df860	-0.015501112
161	0x3b24ba53	0.0025135472
162	0xbcd20680	-0.025637865
163	0xbdb5790a	-0.08860977
164	0x3cec3638	0.028834447
165	0xbd51a50c	-0.05118279
166	0x3c2b6d30	0.010463044
167	0xbb1b0003	-0.002365113
168	0x3d372c24	0.04471983
169	0xbca0e0f8	-0.019638523
170	0x3c128857	0.008943639
171	0x3d75cf08	0.060011894
172	0x3da52639	0.08063931
173	0x3d020a9c	0.0317484
174	0x3e08febd	0.13378425
175	0x3c48a070	0.0122452825
176	0xbca1be8d	-0.019744182
177	0x3b2caf80	0.0026349723
178	0x3d1f6a6c	0.03891985
179	0x3da02a62	0.07820584
180	0x3ca41b40	0.020032525
181	0xbd67d6c0	-0.056601286
182	0xbd228d90	-0.039685786
183	0x3dd620bc	0.10455462
184	0xbceaf668	-0.028681949
185	0x3e16074e	0.14651224
186	0x3dfedede	0.12444852
187	0xbce2266e	-0.027606215
188	0x3c9933c4	0.018701442
189	0xbd340970	-0.043954313
190	0xbdb1a3a4	-0.0867379
191	0xbda26dd2	-0.07931103
192	0xbd41472e	-0.047187023
193	0xbde52f63	-0.11190679
194	0xbdf8b7fd	-0.12144468
195	0x3d7bb965	0.061456103
196	0xbc9f3160	-0.019432724
197	0xbdfb86a0	-0.12281537
198	0x3da4a1bc	0.08038661
199	0xbd99cf28	-0.07510215
200	0x3bc4e196	0.0060083373
201	0xbddb1b82	-0.10698606
202	0x3dc3cd94	0.09560695
203	0xbd8309dc	-0.06398365
204	0xbdf2e930	-0.11860883
205	0xbdb999e7	-0.09062558
206	0x3db3b13a	0.08774038
207	0xbd3ef103	-0.046616565
208	0x3d636d1f	0.055523988
209	0xbd82e6bc	-0.06391665
210	0x3d84b23c	0.06479308
211	0x3d186823	0.037208688
212	0x3c8cc1b2	0.017182205
213	0xbdd383ae	-0.1032785
214	0xbda93d6e	-0.0826367
215	0xbcfacb08	-0.030614391
216	0xbd524424	-0.051334515
217	0xbc3b5675	-0.011434187
218	0x3de18662	0.110119596
219	0x3da3837a	0.079840615
220	0x3c1c4403	0.0095377
221	0x3c947e08	0.018126503
222	0xbc810f50	-0.015754372
223	0xbd8cec6c	-0.068810314
224	0xbdc9ad28	-0.0984748
225	0x3d7a47a6	0.061103486
226	0xbd488b9c	-0.048961267
227	0xbdaa210a	-0.08307083
228	0xbde034fc	-0.10947606
229	0x3dc6792d	0.09691081
230	0xbda8cdda	-0.08242388
231	0xbe0886d0	-0.13332677
232	0xbcfbfe20	-0.030760825
233	0x3d217e70	0.03942722
234	0x3dc46b7c	0.095908135
235	0x3de30df6	0.11086647
236	0xbdcc2f66	-0.09969978
237	0xbd6854cc	-0.056721494
238	0x3d50dd85	0.050992507
239	0x3ccab44c	0.024744175
240	0x3dcc8590	0.099864125
241	0x3b0e6dc0	0.0021732897
242	0x3d53f0fc	0.051743492
243	0xbdb85532	-0.09000625
244	0xbdf784b4	-0.12085858
245	0xbc97e458	-0.0185415
246	0xbde92692	-0.1138431
247	0x3dcf7292	0.101292744
248	0x3df06620	0.11738229
249	0xbdb9eebd	-0.09078739
250	0xbc8c1ce0	-0.017103612
251	0xbb8ffa2f	-0.004393838
252	0xbdd02cc3	-0.101647876
253	0xbc5b27f8	-0.0133762285
254	0xbd91022c	-0.070804924
255	0x3dab18a4	0.08354309

bias f4 [190]
0	0xbdb35dbc	-0.08758113
1	0x3de607f0	0.11231983
2	0xbd1213a9	-0.03566328
3	0xbdb69afe	-0.08916281
4	0xbd1c55ed	-0.038167883
5	0x3e045ba9	0.1292559
6	0xbc92e690	-0.017932206
7	0xbda16718	-0.07880992
8	0x3c97acf1	0.018515082
9	0x3d87893c	0.06617972
10	0x3e847405	0.25869766
11	0x3e386631	0.18007733
12	0x3de1e67f	0.11030292
13	0xbe182215	-0.14856751
14	0xbdaf1dd8	-0.08550614
15	0xbe8f219d	-0.27955332
16	0xbdb4d20b	-0.08829125
17	0x3dd677f1	0.10472096
18	0xbd2be04d	-0.041961957
19	0xbdb57b5d	-0.0886142
20	0x3bb62b2d	0.005559346
21	0xbc399c22	-0.011328729
22	0x3d7ae3ba	0.061252333
23	0x3b438ab4	0.0029837312
24	0x3e181fa0	0.14855814
25	0x3d82bb7f	0.06383418
26	0x3e25c7e1	0.16189529
27	0xbd902601	-0.07038499
28	0xbc14f641	-0.009091915
29	0x3e3a1c46	0.18174848
30	0x3e83f028	0.25769162
31	0x3d9fd89e	0.07804988
32	0xbe0ac7c0	-0.13552761
33	0x3cfa2693	0.030535972
34	0xbd3e2fad	-0.046432186
35	0x3e0a5efe	0.13512799
36	0xbe0e8e35	-0.13921435
37	0xbdf779d9	-0.120837875
38	0xbe68dbb4	-0.2274006
39	0x3d8d3ac3	0.068959735
40	0x3d7d35a0	0.06181872
41	0x3b559f2a	0.003259609
42	0x3e3cca98	0.18436658
43	0x3e81f3fd	0.2538146
44	0x3e391b11	0.18076731
45	0x3e4c4f26	0.19952068
46	0x3e7f64f3	0.24940853
47	0x3e1815a7	0.1485201
48	0x3ea5fc11	0.32418874
49	0x3e8587ad	0.26080075
50	0x3e316982	0.17325404
51	0x3ea4f289	0.3221629
52	0x3e63ca11	0.22245051
53	0x3ec879cc	0.39155424
54	0x3e9ef2af	0.31044528
55	0x3ebdba3a	0.37056142
56	0x3e70c952	0.23514298
57	0x3eb2b252	0.34901673
58	0x3e9fe30f	0.3122792
59	0x3e93fda9	0.28904465
60	0x3e5d29d4	0.21597987
61	0x3ea781f3	0.3271633
62	0x3e6d2522	0.23158696
63	0x3e2f57a0	0.1712327
64	0x3e6ecc44	0.23320109
65	0x3e3debf9	0.18547048
66	0x3eb30892	0.34967476
67	0x3ea09a1b	0.31367573
68	0x3ea24991	0.31696752
69	0x3ea80f2e	0.3282408
70	0x3de2faee	0.11083017
71	0x3e4089a8	0.18802512
72	0x3e7169aa	0.23575464
73	0x3de7055f	0.11280321
74	0x3dc27cd6	0.09496467
75	0x3e766da1	0.24065258
76	0x3eb58669	0.3545411
77	0x3e6548f9	0.22391118
78	0x3e57165b	0.21004622
79	0x3d830a5b	0.063984595
80	0x3e8c2835	0.27374426
81	0x3e6251f1	0.2210157
82	0x3dc07c36	0.09398691
83	0x3e88c265	0.2671081
84	0x3e9f3b2a	0.31099826
85	0x3eb2bb8a	0.34908706
86	0x3e972b05	0.2952501
87	0x3e2f55b5	0.17122538
88	0x3e91af56	0.28454083
89	0x3e15aeec	0.14617509
90	0x3eaaf3e0	0.33389187
91	0x3e24ca70	0.16092849
92	0x3e1957df	0.14974926
93	0x3e610306	0.2197381
94	0x3dd6b0d9	0.1048295
95	0x3e63a22f	0.22229837
96	0x3e45026b	0.19239204
97	0x3e98d8e7	0.29852983
98	0x3e8ca5af	0.27470157
99	0x3e148669	0.14504398
100	0x3eacb6fe	0.33733362
101	0x3eb4b11d	0.35291377
102	0x3e8164d6	0.25272244
103	0x3e2287b4	0.15872079
104	0x3e8fa392	0.28054482
105	0x3e844dd9	0.25840643
106	0x3e942307	0.28932974
107	0x3ec2624f	0.37965629
108	0x3e783e7b	0.24242584
109	0x3ecb7a15	0.3974158
110	0x3e9f5773	0.31121406
111	0x3e2c589e	0.1683068
112	0x3dbd7b63	0.0925205
113	0x3e483fc2	0.19555572
114	0x3e49841a	0.19679299
115	0x3e7ffbe1	0.24998428
116	0x3e2c6174	0.1683405
117	0x3e97067f	0.29497144
118	0x3e83d0de	0.2574529
119	0x3e608e19	0.21929206
120	0x3e9cb682	0.30607992
121	0x3e8bd346	0.27309626
122	0x3da2d416	0.079506084
123	0x3e929103	0.2862626
124	0x3e247bed	0.16062899
125	0x3e2c097e	0.16800496
126	0x3eb93de6	0.36180037
127	0x3e3614ec	0.17781419
128	0x3e555c1e	0.20835921
129	0x3e2601a0	0.16211557
130	0x3e7606b1	0.2402599
131	0x3e5759b3	0.21030311
132	0x3e6aa63b	0.22914974
133	0x3eb38eda	0.35069925
134	0x3e943d41	0.28952983
135	0x3e814ab1	0.25252298
136	0x3e9bd128	0.3043301
137	0x3dce2cc5	0.10067133
138	0x3ebd3ddb	0.36961254
139	0x3e16f2e0	0.14741087
140	0x3ea4bd40	0.32175636
141	0x3e32f6de	0.17476985
142	0x3e0b1647	0.13582717
143	0x3e643965	0.2228752
144	0x3e515ae2	0.20444825
145	0x3dfb1b78	0.122610986
146	0x3e0dcf04	0.13848501
147	0x3e975baa	0.29562122
148	0x3e9e11d1	0.30872968
149	0x3ebb1a59	0.3654354
150	0x3e86b177	0.2630727
151	0x3e196b7a	0.14982405
152	0x3e96c302	0.29445654
153	0x3e97f578	0.29679465
154	0x3e2a9ec8	0.16662133
155	0x3e7a652b	0.24452655
156	0x3dbad910	0.09123433
157	0x3e4ff7cd	0.20309372
158	0x3e95386b	0.29144606
159	0x3eac5db9	0.33665255
160	0x3e65a3c6	0.22425756
161	0x3e0dec8b	0.13859765
162	0x3e49623b	0.19666378
163	0x3eb8a530	0.36063528
164	0x3ebceada	0.36897928
165	0x3e96ab00	0.29427338
166	0x3e2f7844	0.17135721
167	0x3e3e4622	0.18581441
168	0x3e33caae	0.17557785
169	0x3dc42592	0.095774785
170	0x3e8c0f31	0.2735534
171	0x3e23b605	0.15987404
172	0x3ea004ed	0.31253758
173	0x3e358a79	0.17728604
174	0x3de47adc	0.11156246
175	0x3e36bf12	0.17846325
176	0x3eabb1cc	0.33534086
177	0x3e318c78	0.17338741
178	0x3e60bf6d	0.21948023
179	0x3e4c77ae	0.19967529
180	0x3e9300bd	0.287115
181	0x3e009f6f	0.12560819
182	0x3e1d7815	0.15377839
183	0x3e8ec1e2	0.27882296
184	0x3ecec6ef	0.4038615
185	0x3e16f613	0.14742307
186	0x3e5b8674	0.21438009
187	0x3e829804	0.25506604
188	0x3df3d4b2	0.11905803
189	0x3e9d3e8c	0.30711782
