model.pth (torch, 301393 bytes, 19 tensors)

weight f4 [64, 1]
00000000: 2cab 48bf 58ae 2fbf de3e d53e b91f 903e
00000010: 4a46 6f3f d04f ecbe 7ab6 323f 248b debe
00000020: 70c4 45be 0e15 36bf c698 6fbf 0279 78bf
00000030: c2af 6cbf 78dc 50be 1842 61be 76f4 52bf
00000040: e05f 30bf 42ba 553f 9899 23bf 8035 03bd
00000050: 5a93 253f fbab a23d 024e 73bf c05a 08bd
00000060: 792c b03e 10b6 603f 9812 35be 0784 7b3d
00000070: 48f9 72be 52bc 40bf 7440 bebe 939a 793f
00000080: 2ef4 6dbf 87f1 da3e 8f45 c33e a4cc 0c3f
00000090: 247f f5be 0664 6abf 0b27 133f ba7a 3e3e
000000a0: 5254 123f b07c 09bf 1878 8dbe 3882 49be
000000b0: d001 7a3f 6a53 be3e c282 293f c82a 88be
000000c0: 5127 cc3e c335 073f f0b2 f73e 3f7b 9d3e
000000d0: 8cc3 993e 9c0a 53bf f508 1c3f 6e08 6bbf
000000e0: 5685 76bf fe8a 57bf 5df2 693f 0d97 f63e
000000f0: dd01 5f3f c6db d23e 241e a5be 1095 57be
-0.7838619 -0.686254 0.41649526 0.28149202 0.9346663 -0.46154642 0.6980969 -0.4346553
-0.19313216 -0.71125877 -0.9359249 -0.97059643 -0.92455685 -0.20396602 -0.21997869 -0.8240427
-0.68896294 0.8348733 -0.6390624 -0.032033443 0.64677966 0.07942959 -0.95040905 -0.03328967
0.3440893 0.87777805 -0.17682874 0.061405208 -0.23727906 -0.75287354 -0.3715855 0.97501487
-0.92950714 0.42762396 0.38139006 0.54999757 -0.47948563 -0.91558874 0.5748145 0.18601504
0.5715991 -0.53705883 -0.27630687 -0.19678581 0.97659016 0.37173015 0.66215146 -0.2659514
0.39873746 0.5281641 0.48378706 0.30758092 0.30032003 -0.82438064 0.6095117 -0.9180974
-0.96297204 -0.8419646 0.9138544 0.48162118 0.8711222 0.411833 -0.32249558 -0.21052957

bias f4 [64]
00000000: 80c1 f6bc 940e c03e 07b7 b9bd 4d86 e93e
00000010: cd3e 1dbf ae29 2c3f a6ab 1ebf 2450 873e
00000020: 20f6 f23e b85a b4be 0e04 23bf d41f e03e
00000030: 7644 47bf 4e5e 37bf 44ad fa3e 10f0 d4bd
00000040: 1cea e63e b527 80bf 54ea 993e 4003 63bf
00000050: c021 b23d 42d6 a33f 8a4f 083f 50c3 9e3e
00000060: 312b 9dbf 192d f9bd fcea 473f f086 bbbe
00000070: 9625 5b3f 8422 debe acbb 933e 681f c9be
00000080: 5081 393e 336c 05bf 1813 023e 8f78 aa3f
00000090: b4b5 64bf a0db 0a3d 6439 88bf 663f a23f
000000a0: 27b6 81bf 68b2 943e 045f f13e 4891 4a3f
000000b0: f66f 92be adbb 133f 7a5e 01bf 409a eabd
000000c0: e547 7a3f 5b8e 023f 1b15 8dbf d8e2 b7be
000000d0: ba05 323e a81a 373f 9fb3 6a3e ea05 073f
000000e0: 66d6 6d3f d864 77bf 0723 29be 2506 0cbf
000000f0: 2caa 1a3f 7a45 e0be 30ac cdbe b0e8 fd3d
-0.030121565 0.37511122 -0.09068113 0.45610276 -0.6142395 0.672511 -0.61980665 0.2642833
0.47453403 -0.35225463 -0.6367806 0.43774283 -0.7783884 -0.7162827 0.48960316 -0.10397351
0.45100486 -1.0012118 0.3006159 -0.88676834 0.086978436 1.2799761 0.53246367 0.31008387
-1.2278806 -0.12166805 0.7809293 -0.36626387 0.85604227 -0.43385708 0.2885412 -0.39281774
0.18115735 -0.52118224 0.12702596 1.3318042 -0.89339757 0.033900857 -1.0642514 1.2675598
-1.0133713 0.29042363 0.47142804 0.7912793 -0.28601044 0.57708246 -0.50534785 -0.11455202
0.9776595 0.5099847 -1.1022066 -0.35915256 0.17384997 0.7152505 0.22920083 0.527434
0.9290527 -0.9663825 -0.16517268 -0.54696876 0.6041591 -0.43803006 -0.4017043 0.12397897

weight f4 [64, 64]
00000000: dc70 fa3d 1891 dabc 7948 f9bd 02f0 c1bd
00000010: 6755 2b3d ec61 62bd 0f5b ca3d 80cb 51bc
00000020: eceb b7bd e4c6 82bd ec89 843d f2e7 ba3d
00000030: dea6 953d 3ce4 e43d 267a 823d a8d0 87bc
00000040: c4da a33d e660 023d f0da d9bc 90ae cc3d
00000050: 52ea aebd bd0b 06bd 0043 693b 58e5 a5bd
00000060: 0205 7abd eaac 6b3c 60f7 31bd 25e9 d93c
00000070: d073 293c c0a0 7f3d 989b ed3c 8bcc b43d
00000080: 5aec edbd 04be 033d 82a5 b1bd 7f9a 38bd
00000090: fc83 bd3d 5cca a0bd 0654 3d3d 4945 a4bd
000000a0: 6659 d8bc 3494 f13d b031 073c 06b3 98bd
000000b0: ca73 a6bd 8009 753d 5913 053d 4006 3abd
000000c0: 5a09 0d3d e63f 9b3c 79e4 283d ba29 abbd
000000d0: 5b1f 073d 0c53 4b3d 8376 983d 28cf 703d
000000e0: 0ce2 63bd 48e3 6c3d daf2 ba3c 2dea babd
000000f0: 221d d43d 56cd 02be 0232 aebd f4de 313d
00000100: c05b a73b 9262 a03d 3875 febc eebd 873d
00000110: 5c40 d0bd bc42 b0bd 50d2 f0bc 5a46 c03d
00000120: 006d 123d 403d 2c3b 9826 d3bd 9c08 95bd
00000130: 1e29 d4bd d2d1 fdbd d27d c2bd ce58 e73d
00000140: f408 15bd 1ed6 d03d a8f2 efbd 0055 d0bc
00000150: 801a a5bb 208b 70bc 6421 adbd 18f0 dc3c
00000160: 38e8 94bc e2f4 c53d 3c78 2d3d 8094 2d3b
00000170: ce5d 9fbd 6c16 cc3d 1ca8 17bd 8024 bfbb
00000180: 886a 203d 4034 ff3d bc54 443d 3691 dbbd
00000190: 0050 73b9 e035 eabd 1868 fdbd 18c7 f93d
000001a0: a851 d4bd ae4f 933d a07e e93c 1289 c33d
000001b0: 0c92 973d 747c 18bd b29b e9bd 5069 bfbd
000001c0: 603b e3bd 3498 4abd 80d7 333d 4077 843d
000001d0: ee4e fb3d d00c abbd b0ee 5d3c 8425 6d3d
000001e0: f8cd dc3d 5666 dabd 8847 a03c 0a60 a4bd
000001f0: 10d3 04bd 94ea cdbd 26e6 c5bd a080 29bd
00000200: fa89 f1bd 4cee 373d bcfc 25bd a0b2 cebc
00000210: 801c 943b 78aa ccbd 4220 febd 4836 ddbd
00000220: 6872 89bc f4c7 c5bd a4d9 753d 0a20 bebd
00000230: 86c2 90bd 9ed0 8e3d 80bb baba a000 acbc
00000240: 00bf c7bd a051 a5bd ecb3 a93d 5291 8bbd
00000250: c030 093d 64c6 e53d 244e 7cbd e087 debb
00000260: 50f8 80bd 58be 19bd 7a0d af3d 70dc 8bbc
00000270: c001 c73c 60bd de3c c4bf 6cbd a0f9 863c
00000280: d8f7 c3bc b8de a3bd 826e bd3d a8af f83c
00000290: 163a fe3d bc00 08bd 2890 99bc 4a73 cfbd
000002a0: 34bd 2c3d 6ae3 93bd 66ba cc3d 885e 97bd
000002b0: 0cb3 04bd eabb c03d b093 bfbd 600e 023d
000002c0: 08f5 193d 248d 7dbd c0c3 9a3d 68d7 dcbd
000002d0: f4ed d03d 8a59 dd3d 1ed3 aabd c07c 7cbd
000002e0: 7006 203d b89f efbc 309a 363d 8058 123d
000002f0: c466 2c3d 7eb1 bbbd 365f b93d 2cb5 22bd
00000300: 18e2 c0bc ccf9 f6bd dede 3f3d 0519 ca3d
00000310: 453f 6dbd 6efa ae3d 5836 a8bd ba43 d73d
00000320: 40e8 eabc 6865 873c 8009 44bc 98df 9bbc
00000330: 1afe ac3d e475 c9bd d0f0 c83c aab3 ee3d
00000340: eee6 d9bd 6374 0d3c a0cf e3bc 7e81 edbd
00000350: 2bcb 3d3d a090 163d 3481 f53d 40af 493b
00000360: 3f37 8dbd bfea bf3d 16d7 edbd 4396 be3d
00000370: 0076 743d 941e 443d 58dc 683d b757 533d
00000380: dc70 0a3d 23cf c2bd a845 783d a176 2d3d
00000390: 8a18 f1bd b888 c83d 8bb7 643c dc6e 3e3e
000003a0: a8d7 6cbd d4e3 7d3d 304a d9bc 5a9d c83d
000003b0: 5eb3 6ebd 21b3 fcbc 13cb 27bd e8e9 52bd
000003c0: fc01 fe3d d153 aabd b799 c9bd 0381 ebbd
000003d0: a53d 2c3d 20ef dfbb 9052 503d 18d4 66bd
000003e0: 5c53 013d 689a 6b3d 5b42 c03d 3130 f93d
000003f0: cb5b 673d 533e c9bd 1ecd c23d 70e3 43bd
0.122285575 -0.026680514 -0.12172026 -0.09469606 0.041829493 -0.055269167 0.09880649 -0.012804866
-0.089805454 -0.063855916 0.06471619 0.09126271 0.07307218 0.11176345 0.06370954 -0.016578987
0.080007106 0.03183069 -0.026593655 0.09994233 -0.08540787 -0.03272604 0.0035592914 -0.081003845
-0.061039932 0.014384488 -0.043448806 0.02660043 0.010342553 0.062409163 0.029004857 0.08828076
-0.11617346 0.032163635 -0.08674146 -0.045069214 0.0925369 -0.07851097 0.04622271 -0.080210276
-0.026409816 0.11795846 0.0082515925 -0.07456021 -0.08127554 0.059823513 0.032489154 -0.045416117
0.034432746 0.018951368 0.041233514 -0.08357568 0.032988887 0.049639747 0.07444479 0.05879131
-0.055635497 0.05783394 0.022820879 -0.09126697 0.10357119 -0.12773642 -0.08505632 0.043425515
0.005107373 0.07831301 -0.031061754 0.06628023 -0.101685256 -0.086064786 -0.02939716 0.093884185
0.03574848 0.0026281625 -0.103100955 -0.07277033 -0.10359405 -0.12393536 -0.094966546 0.11296235
-0.03638549 0.101970896 -0.11716205 -0.025431156 -0.0050385594 -0.0146816075 -0.084536344 0.026969954
-0.018177137 0.09665848 0.042350993 0.0026486218 -0.07781564 0.09965214 -0.037025556 -0.0058332086
0.039164096 0.12461138 0.04793237 -0.10721056 -0.00023204088 -0.11436057 -0.1237337 0.12196177
-0.10367137 0.07192932 0.028502762 0.095476285 0.07400903 -0.037228063 -0.1140665 -0.09346259
-0.11095309 -0.04946156 0.04390669 0.06468058 0.12270914 -0.08352053 0.013545677 0.057897106
0.10781473 -0.1066405 0.019565359 -0.080261305 -0.032427847 -0.10054508 -0.09663038 -0.041382432
-0.11793895 0.044904992 -0.04052423 -0.02523166 0.004519999 -0.09993452 -0.124084964 -0.10801369
-0.016778186 -0.09657279 0.06002201 -0.09283455 -0.070683524 0.06973384 -0.0014246553 -0.020996392
-0.09753227 -0.08072209 0.082862705 -0.06814827 0.033493757 0.11219481 -0.06159796 -0.0067911
-0.06297362 -0.03753504 0.08547492 -0.017072886 0.024292827 0.02718991 -0.05780007 0.016476452
-0.023921892 -0.080014646 0.09249593 0.030357197 0.12413423 -0.033203825 -0.018745497 -0.101294115
0.042172626 -0.0722111 0.0999649 -0.07391077 -0.032397315 0.09410842 -0.09354341 0.03175199
0.037587196 -0.06190218 0.075568676 -0.10783273 0.10201636 0.10808094 -0.08341049 -0.06164241
0.03906864 -0.029250965 0.04458064 0.03572893 0.042090192 -0.09164713 0.09051363 -0.03972356
-0.02354531 -0.12059364 0.046843402 0.09868053 -0.057921667 0.085438594 -0.0821349 0.10510965
-0.028675199 0.016527846 -0.011965156 -0.019027516 0.084469035 -0.09836939 0.02452889 0.11655362
-0.106397495 0.008633706 -0.027808964 -0.11596964 0.046336334 0.03675902 0.11987534 0.0030774623
-0.06895303 0.09370946 -0.1161329 0.09306004 0.059682846 0.047880724 0.05685076 0.051597323
0.033799037 -0.095121644 0.060613304 0.04234946 -0.117722586 0.09791702 0.013959776 0.18596977
-0.057822853 0.061984852 -0.026524633 0.097956374 -0.058276527 -0.030847134 -0.04096515 -0.0514926
0.12402722 -0.08316768 -0.09843772 -0.114992164 0.042050976 -0.006833926 0.050859988 -0.056354612
0.03157364 0.0575203 0.09387656 0.12167395 0.056484025 -0.098263405 0.09511779 -0.047824323

bias f4 [64]
00000000: 0c7c 733d be9b cdbd 2cba c6bd f27c ba3e
00000010: a270 fdbd 4d7c efbd 1101 e13e 6687 8c3d
00000020: 58bb cdbc 5682 f4bd ae8f d4bd 521c 913d
00000030: 48ad 613e 81e8 cd3e 9a3a c5bd cb0b cdbd
00000040: 78e9 cd3e 38f8 cbbc 8967 db3e 2092 8cbd
00000050: 5823 aebc 998e f4bc b360 87be d06a 33bc
00000060: 8d0e b03e e01d b6bc 38c8 bfbc d872 483d
00000070: 1075 cebc ecb6 103d d8e6 f9bd a136 833d
00000080: 80ca d6bc b212 e03d 9c09 1abd a236 943e
00000090: 3202 233d 84e9 a53e 6956 e93e 52bf bd3d
000000a0: 47f8 cc3e cb23 9f3d 6030 b6be 0f19 a8be
000000b0: a5f3 953c fad4 83be 4cfa 09bd 4486 2c3e
000000c0: 6025 c23d f0a5 52bd 8001 8d3b 8246 933d
000000d0: b07b 5d3d 3894 ffbc ae1a 8f3d c34c bc3e
000000e0: f016 79bd 0cee abbd 4ef7 75bc 9c5a 693d
000000f0: 283a 3d3c 6c85 e43d 10b3 cf3e e806 a43d
0.059444472 -0.10039471 -0.09703478 0.3642345 -0.12374999 -0.1169363 0.43946126 0.06861763
-0.025113747 -0.11938922 -0.10378967 0.0708548 0.22038758 0.4021645 -0.09630318 -0.10012015
0.40217185 -0.024898633 0.4285243 -0.06863809 -0.021257088 -0.029853152 -0.26440963 -0.010950759
0.343861 -0.022231042 -0.023410901 0.04893765 -0.025202304 0.035330698 -0.12202233 0.06406904
-0.026219606 0.10941066 -0.03760682 0.28947932 0.039797015 0.3240472 0.45573738 0.09265007
0.4003317 0.07770499 -0.35583782 -0.32831618 0.018304655 -0.25748426 -0.033685967 0.16848093
0.09479785 -0.05142778 0.0043031573 0.07191183 0.054073036 -0.031198606 0.069875106 0.36777315
-0.06081289 -0.08395013 -0.015012575 0.056971177 0.01154951 0.11158261 0.405663 0.0800913

weight f4 [190, 64]
00000000: b67c 043d 10fd 52bd 3815 e2bd 62e4 4dbd
00000010: 607f 823b 21d6 3fbd 5d9f dabc f071 ab3d
00000020: 004a 9f3a 705c a9bd 0099 e6bb cce2 04bd
00000030: a48c a43d afb8 ad3d 4027 a1bb 476a f9bc
00000040: 83f1 983d b4e0 763d 9493 783d 10a2 eebd
00000050: 4c88 b03d 26d5 1e3c 7f87 acbd c014 fbbb
00000060: e2e7 58bd 68bd 57bd f098 54bd 0013 513b
00000070: 06ef bf3d 8053 dbbd b583 c1bd c01d 613d
00000080: 2add 8e3d b09e 1ebc b8b1 443d 7c3a eabd
00000090: 8eac 303d d2eb d3bd 6d8f 723d d316 dc3d
000000a0: c0cb 9f3d a1fa 653d bdb3 3f3d bf62 6ebd
000000b0: f0eb dbbc c47a 2abd 2c60 1b3d 0742 03bd
000000c0: 4085 473d 6c8c adbd 00e1 f73b 3e57 e43d
000000d0: 5850 babc 924f cf3d d9da eabd 111d 88bd
000000e0: 48fd b4bd 9c94 8fbd e566 80bd 983d df3d
000000f0: e1df 86bc 5ec1 c8bd 8b2a 99bd 003a 2bbc
00000100: 528e 9cbd b87e 963c 94b2 69bd 6f06 d4bd
00000110: f4ee 7dbd 52b8 4abd dd3d dc3c 668a c1bd
00000120: bce2 8e3d f931 e4bc e495 423d 162a c4bd
00000130: 38e7 ebbd 640f a73d 692d 3dbd fc79 a03d
00000140: 5038 c53d fcea e93d 5f56 c43d 78c5 8fbd
00000150: e07c 923d 9c87 5abb ade5 8dbd d0d4 c0bd
00000160: 279a 283d cabe ee3d 2ab1 c63d 7c2c 8f3d
00000170: 48a1 d0bd 06fe eabd 74ed dc3d bee6 b43d
00000180: c465 b5bd 6af4 b2bd b6b2 cfbd 2fb3 08be
00000190: 16d7 fbbc 647f 323d 1b49 9bbd 1053 f33d
000001a0: 1a62 84bc 9da5 cabd 8b98 a4bd 0fe5 183d
000001b0: 44c2 93bd 8178 12bd e419 1f3d 74ad 1abd
000001c0: a28b e7bd 34ef 6c3d c8c0 cabd 5c9b c3bd
000001d0: 603f b13c 18d0 7ebd 90b9 c4bd 8a3e 75bc
000001e0: c094 f63c 606c fc3b c7fb a6bc 8c1e 353d
000001f0: 4de6 06bd 46b8 babd 5e74 343d 9a1c d03d
00000200: 6767 3a3d c8f0 06bd 04c0 4dbd df5b fc3c
00000210: f4fa a4bd d6ac d5bd 2b82 c4bd 6a30 fc3d
00000220: 3650 a83d d0f2 353d deb4 d4bd 0650 d13d
00000230: 6b3f 603d 8baf c63d 1372 d03c 41b1 bdbd
00000240: e72d 8a3d 506d 453d 265e b13c 5a28 afbd
00000250: 68f8 3b3d ad89 173c e6d9 cb3d 0295 933d
00000260: 1cf2 acbd fc44 843d 4024 ecbb 9ac1 e13d
00000270: 0e9e b8bd d065 8f3d 0ec3 f63d ca13 9c3d
00000280: 0c46 43bd e803 883d e478 eebd 5465 d8bd
00000290: 8384 1fbd 936d 84bd 324f d73d b58c d13d
000002a0: bbd3 38bd 7227 0bbd 0609 11bd 6aa0 173c
000002b0: 4670 ddbd 976c 9fbd d2ff cd3d b805 aebb
000002c0: 00af 10bd 8e36 8fbd 1846 f43d 88bc 633d
000002d0: e26f a03d b4f8 103d ba98 8cbd 8be5 a3bb
000002e0: ea7a e0bd 60af ec3b 9c78 77bd fea7 8e3d
000002f0: ce57 993d b4f2 21bd b06f 60bd f8e8 a5bc
00000300: 804f 383d 04b0 653d 32b8 f1bd e0ff 03be
00000310: d6a4 f2bd 890b b7bd cab5 3cbd 3e86 db3d
00000320: 601c 56bd 9473 bebd d0f1 4ebc ea69 d33d
00000330: 0234 9c3d 5a14 8b3c f55a 01be d9a3 d2bd
00000340: 4bc4 31bd c06e 5dbb 864d d7bc 54d3 dabd
00000350: 264a d13d 0ab8 ab3d b259 52bd a40c a3bd
00000360: afed 873c 7075 c73c 3872 f83c 70c1 983d
00000370: fc88 413d e08f a3bb 720a ee3c 96cc 21bd
00000380: 7470 dcbd 2e4d 883d e0dd 5fbd 2ac3 df3d
00000390: 29b8 e1bc aed8 bc3d 3fce 903d ba49 e33d
000003a0: 0f99 7ebd 51fe 94bd a0ec b33d 334b 83b8
000003b0: 3a14 ffbc af33 103d 007f 5a3c a460 983d
000003c0: 8c2b b43d fcf6 65bd 4e79 b33d 84be 873d
000003d0: 3408 b83d 7499 cfbd 21e7 95bd 0342 cabd
000003e0: 306a 70bd b8a2 6bbd 75b7 9e3b 642f a2bd
000003f0: 384f fdbd 5ce9 c93d fab8 9a3d 20d5 343d
0.032345496 -0.05151087 -0.110392034 -0.05026663 0.0039824694 -0.04683507 -0.026687318 0.08371341
0.0012152791 -0.08269584 -0.007037282 -0.032442853 0.080346376 0.08482491 -0.004918009 -0.030446185
0.0746794 0.060272887 0.060687616 -0.11652005 0.086197466 0.009694373 -0.08424281 -0.0076623857
-0.052955516 -0.052670866 -0.051903665 0.0031902194 0.09371762 -0.10709286 -0.09448949 0.054960012
0.069757774 -0.009681389 0.04802105 -0.11436936 0.04313331 -0.103477135 0.059218813 0.10746541
0.07802534 0.05614722 0.04680227 -0.05819964 -0.026845902 -0.041620985 0.037933514 -0.03204539
0.04871106 -0.08474049 0.007564664 0.111494526 -0.022743389 0.10122599 -0.11467523 -0.06646169
-0.08837372 -0.07010767 -0.062696256 0.1090042 -0.016464176 -0.09802507 -0.074788176 -0.01045084
-0.07644333 0.018370971 -0.05705507 -0.103527896 -0.06199546 -0.049492188 0.026884967 -0.094502255
0.0697684 -0.02785586 0.047506228 -0.0957834 -0.11518711 0.081572324 -0.046185885 0.07835767
0.096298814 0.11421773 0.095867865 -0.07020086 0.07152724 -0.003334499 -0.06928573 -0.09415591
0.041162636 0.11657484 0.0970176 0.069909066 -0.10187012 -0.114742324 0.10787478 0.08833073
-0.08857301 -0.087380245 -0.10141508 -0.13349603 -0.03074221 0.04357852 -0.07582303 0.11881077
-0.01616006 -0.098948695 -0.08036908 0.037327822 -0.072147876 -0.035759453 0.03884305 -0.037763074
-0.1130593 0.05784531 -0.09900051 -0.09551117 0.021636665 -0.062210172 -0.09605706 -0.014968524
0.030100226 0.007703349 -0.020383729 0.044218585 -0.032934476 -0.091171786 0.04405629 0.10161705
0.04550877 -0.03294447 -0.05023195 0.030805526 -0.08055678 -0.104333565 -0.0959514 0.12313922
0.08218424 0.044421017 -0.1038606 0.102203414 0.05474798 0.09701451 0.02544502 -0.09262324
0.067470364 0.04819995 0.021651339 -0.08552618 0.045891196 0.009249133 0.0995367 0.07206155
-0.08444616 0.0645847 -0.00720647 0.11023255 -0.090145215 0.07001841 0.120489225 0.07620962
-0.047674224 0.0664137 -0.11644152 -0.10566202 -0.038944732 -0.06466212 0.10513152 0.10231916
-0.045123797 -0.033973165 -0.035408996 0.009254554 -0.1081243 -0.07784384 0.100585595 -0.0053107403
-0.035323143 -0.06992827 0.11927432 0.05559972 0.0783384 0.03539343 -0.06865068 -0.005001729
-0.10960944 0.0072230548 -0.060417756 0.06965636 0.074874505 -0.0395381 -0.054794014 -0.02025269
0.044997692 0.056076065 -0.118027106 -0.12890577 -0.11847846 -0.08937747 -0.046071805 0.10718964
-0.052273154 -0.092993885 -0.012630895 0.10322936 0.07627107 0.016977478 -0.12632354 -0.10285158
-0.04340009 -0.0033787936 -0.026282083 -0.10684839 0.10219221 0.08384712 -0.05135507 -0.079613954
0.016592829 0.02434799 0.030327901 0.0745877 0.04724978 -0.0049915165 0.029057715 -0.03950175
-0.10763636 0.06655346 -0.054654956 0.109258965 -0.027553635 0.09221016 0.07070588 0.110980466
-0.062157687 -0.072750695 0.08785367 -6.260574e-05 -0.031137574 0.03520554 0.013335943 0.07440308
0.087973684 -0.056143746 0.087633714 0.06628135 0.089859396 -0.10136691 -0.07319475 -0.09875872
-0.05869502 -0.057528228 0.004843647 -0.07919195 -0.123686254 0.09858963 0.07554813 0.044148564

bias f4 [190]
00000000: f9a7 15be 73f5 96bd 9d62 26be 5231 203e
00000010: 0fe5 b6bd f6a2 3bbe 7c3f 61bd b294 2cbe
00000020: 8746 ad3d 1ce2 563e 371a 2abd 3799 363e
00000030: 2fa4 e33d 1b23 073e 9a9e dcbc 8744 41bc
00000040: 8965 22bd d3cb b23c 1218 10bd bf30 75bd
00000050: a299 1abd 1851 f63d e07b afbd feb4 d7bc
00000060: 1bb2 5d3d 27a5 4cba 19bc a73d c354 5c3e
00000070: cb57 503e d967 f73c 847e d43d bf38 ac3d
00000080: 7fb2 4fbe d489 98bd 38b3 b13c c505 7abd
00000090: 11a2 243b fb83 3a3e c3c5 e1bd e8a6 77bd
000000a0: 6d5f 223e 4805 2c3d 3a53 3a3e 4d88 d13d
000000b0: 5020 7f3e e543 653e 2c81 843e 2dd1 5d3e
000000c0: 608f 973e a385 cc3e 4789 8b3e 50cf ad3e
000000d0: 4e81 d43e b144 e33e be21 733e 18c9 a03e
000000e0: 2dd5 603e 0d39 5a3e d48e 613e 25e0 703e
000000f0: 8cd3 723e 15dc 9b3e 43b9 b33e 9d3e 9e3e
00000100: 7c56 6a3e 49fc a33e 9412 b13e d575 553e
00000110: b778 a13e 3937 8d3e f2c2 6a3e 5393 183e
00000120: 2fac a73e c2d6 723e 54f0 9a3e 11ca 523e
00000130: af07 723e 23a5 3c3e b5b7 053e 6772 803e
00000140: 9b5e aa3e 6c53 ba3e 601b 883e 045f 233e
00000150: 76b9 b23e b615 a43e 2523 263e 26b5 2d3e
00000160: 6955 ac3e e4b7 b33e ff72 623e bbe4 a33e
00000170: a39a 8e3e 3753 be3e 6d49 dc3e 1527 bf3e
00000180: fba0 c53e 2ad3 3b3e 03f4 af3e 3648 953e
00000190: 6381 8e3e 9673 893e 9067 7f3e 2ce7 963e
000001a0: 785a ae3e a187 b93e 2efc 223e ae40 613e
000001b0: 312d 8f3e f966 a53e 3adf d33e af7a a23e
000001c0: 8397 853e 7a04 993e 1c3d 803e 17f3 833e
000001d0: b1e6 b13e 8a79 723e 7d5f 293e 8e78 d43d
000001e0: 5225 cd3e 4d0f bf3e 54fa 273e 2340 5c3e
000001f0: 3c17 8e3e 8de8 873e 64ee 753e d9e4 843e
00000200: 782f 363e 0de3 583e b9e5 a43e 153b 943e
00000210: 2c42 803e dcb2 703e 6e88 2e3e 74e6 363e
00000220: 0036 5a3e 689d 9c3e 49c2 a93e b0bc 6e3e
00000230: 34fb 123e 8f09 c43e 3564 9f3e 2d3c 463e
00000240: 6a31 c23e e350 993e 9cc7 8e3e 25dd 913e
00000250: 870e 463e 7bbd 8b3e 97b9 933e 36ec 943e
00000260: 8219 993e 53d0 b23e 60ca 5d3e dac4 8c3e
00000270: 554b 323e 0fef 8f3e 7efb 123e e2d5 433e
00000280: 904e 4c3e 7caf 763e 30f8 193e 0905 973e
00000290: 3ba5 8d3e 20d5 a63e d8d3 b93e e2ac 183e
000002a0: d2d4 4f3e 7be4 1a3e 8c3f 093e 37e8 5d3e
000002b0: 87c5 7f3e 8b20 233e 1531 883e 526e 903e
000002c0: c772 b43e 3f3f 513e 205c 013e f285 3b3e
000002d0: a0c9 cd3d 9a5b 423e 636b 7c3e f686 8d3e
000002e0: 34b1 303e ce6a 3c3e 2d9e 8f3e c553 de3d
000002f0: 9e23 ed3d 9f0b 193e
-0.14614858 -0.073710345 -0.16248555 0.15643814 -0.08930408 -0.18323883 -0.054992184 -0.16853598
0.08460718 0.20984691 -0.041528907 0.17831884 0.111153 0.13196985 -0.026931096 -0.011796123
-0.039647613 0.021825707 -0.035179205 -0.05986094 -0.037744172 0.12027186 -0.08568549 -0.026331421
0.054124933 -0.0007806592 0.08190174 0.21516709 0.2034599 0.030200886 0.103756934 0.08409261
-0.20282935 -0.07448164 0.021691903 -0.06104066 0.0025121013 0.18214409 -0.11024048 -0.06046191
0.15856715 0.041997224 0.18195811 0.102310754 0.2491467 0.22389181 0.258798 0.21661825
0.29601574 0.39945707 0.27253172 0.3394723 0.41504902 0.44388345 0.2374334 0.31403422
0.2195632 0.21310826 0.22027141 0.23523004 0.23713511 0.30441347 0.3510228 0.30907145
0.22884554 0.32028416 0.34584486 0.2084573 0.3153741 0.27581194 0.22925928 0.1489995
0.32748553 0.23714736 0.3026148 0.20584895 0.23635744 0.1842237 0.1305836 0.25087282
0.33275303 0.3639177 0.26583385 0.15954214 0.3490712 0.32047814 0.16224344 0.16963634
0.33658913 0.35101235 0.2211418 0.32010445 0.27852353 0.37172863 0.4302477 0.37334505
0.3859938 0.18342271 0.34365854 0.29156655 0.2783309 0.26845998 0.2494185 0.29473245
0.34053397 0.3623629 0.15916511 0.2199733 0.27964166 0.32305124 0.41381246 0.31734225
0.26092157 0.29886228 0.25046623 0.257714 0.34746316 0.23679176 0.16540332 0.103745565
0.40067536 0.3731636 0.16404086 0.21508841 0.277521 0.2654461 0.2401672 0.25955847
0.17791545 0.21180363 0.32206514 0.28951326 0.25050485 0.2350573 0.17044231 0.17861348
0.21309662 0.3058884 0.3315604 0.23314166 0.14353639 0.38288543 0.3113114 0.19358893
0.37928325 0.29944524 0.27886665 0.28489032 0.19341479 0.27293 0.2885253 0.29086465
0.29902273 0.34924564 0.21659231 0.27493936 0.1741155 0.28112075 0.14353749 0.19124559
0.19951844 0.2409038 0.15036082 0.2949603 0.27665123 0.32584476 0.36294436 0.149097
0.20296028 0.15126221 0.13403147 0.21670614 0.24977694 0.15930383 0.26599947 0.28209168
0.35243818 0.20434283 0.12632799 0.18312815 0.100482225 0.18980256 0.2465034 0.2764203
0.17255098 0.18400118 0.28050366 0.108558215 0.11579059 0.1494584

data f4 [10, 191]
00000000: 0000 2041 0000 0000 0000 0000 0000 0000
00000010: 0000 0000 0000 0000 0000 0000 0000 0000
00000020: 0000 0000 0000 0000 0000 0000 0000 0000
00000030: 0000 0000 0000 0000 0000 0000 0000 0000
00000040: 0000 0000 0000 0000 0000 0000 0000 0000
00000050: 0000 0000 0000 0000 0000 0000 0000 0000
00000060: 0000 0000 0000 0000 0000 0000 0000 0000
00000070: 0000 0000 0000 0000 0000 0000 0000 0000
00000080: 0000 0000 0000 0000 0f7e e237 c77f 8139
00000090: 7233 dc3a 0af4 093c d05f e83c 7efe 9b3d
000000a0: b266 243e 8ae9 923e e3e3 eb3e e0ba 2e3f
000000b0: 2cb9 723f c6f8 a03f 8597 ca3f 67f1 f63f
000000c0: 7fa5 0f40 d9e8 2140 4d9e 3040 ee5f 3c40
000000d0: 6328 4540 15e4 4a40 041d 4e40 3ca5 4e40
000000e0: 48c4 4d40 4faf 4b40 3f1e 4840 9032 4440
000000f0: 467d 3f40 5d31 3a40 e291 3440 60cc 2e40
00000100: 5c1f 2940 334e 2340 1d57 1d40 d717 1740
00000110: 378d 1040 e831 0a40 272f 0440 80b8 fb3f
00000120: 7ee2 f03f ee24 e63f 8063 dd3f 1a6b d53f
00000130: a051 ce3f a8aa c83f 5892 c43f 863d c13f
00000140: a395 bf3f 8fc5 be3f da01 bf3f 821c c03f
00000150: 0fba c23f ee93 c53f ce36 c93f 13f0 cd3f
00000160: bd6f d23f 1096 d73f 9ad0 dc3f 5ed5 e13f
00000170: f8fa e63f ff7a eb3f 7fdd ef3f 2bdf f33f
00000180: 29cd f63f 75ad f93f b7f1 fb3f af3f fd3f
00000190: e3dd fd3f d80c fe3f 6ceb fd3f 8b38 fd3f
000001a0: 99f2 fb3f c232 fa3f ff22 f83f 0a6a f63f
000001b0: c2dd f33f de3c f13f 946b ee3f 3109 eb3f
000001c0: 6f49 e83f 014e e53f c51e e23f 9f58 df3f
000001d0: 4293 dc3f 80f0 d93f 7c9c d73f 0ed7 d43f
000001e0: 1406 d33f 3107 d13f 325a cf3f e0da cd3f
000001f0: 2fa5 cc3f 39b7 cb3f 3e77 ca3f b51a ca3f
00000200: a2f0 c93f 2b6d c93f 4774 c93f b570 c93f
00000210: 3a79 c93f d2c2 c93f 5534 ca3f 8a5a ca3f
00000220: e2ae ca3f 6309 cb3f 282c cb3f d064 cb3f
00000230: 5855 cb3f 5166 cb3f 054f cb3f c53a cb3f
00000240: 5fb3 ca3f ab98 ca3f 5304 ca3f 1152 c93f
00000250: c899 c83f cfbd c73f ae0f c73f d6e6 c53f
00000260: 9d2c c53f 2238 c43f 3cd8 c23f 3cbe c13f
00000270: 49be c03f 317b bf3f fe60 be3f 302a bd3f
00000280: f705 bc3f 88f7 ba3f 15e0 b93f 8ae9 b83f
00000290: 5b9a b73f 14e7 b63f b2f2 b53f de02 b53f
000002a0: 560b b43f dd7a b33f 1e88 b23f 17ef b13f
000002b0: d465 b13f c8d1 b03f bf29 b03f 45d7 af3f
000002c0: 3047 af3f 78b7 ae3f 5a65 ae3f 53b3 ad3f
000002d0: 492c ad3f 94dd ac3f 7429 ac3f 1edc ab3f
000002e0: b075 ab3f 7b13 ab3f 427c aa3f da00 aa3f
000002f0: 6d71 a93f 73db a83f ba30 a83f 0000 a041
00000300: 0000 0000 0000 0000 0000 0000 0000 0000
00000310: 0000 0000 0000 0000 0000 0000 0000 0000
00000320: 0000 0000 0000 0000 0000 0000 0000 0000
00000330: 0000 0000 0000 0000 0000 0000 0000 0000
00000340: 0000 0000 0000 0000 0000 0000 0000 0000
00000350: 0000 0000 0000 0000 0000 0000 0000 0000
00000360: 0000 0000 0000 0000 0000 0000 0000 0000
00000370: 0000 0000 0000 0000 0000 0000 0000 0000
00000380: 9c53 c936 20f0 c037 0b60 4a39 acc5 a73a
00000390: 0a9d d73b ba69 b33c 5c3a 663d c556 f03d
000003a0: f31b 563e 5666 aa3e 774d f83e 7574 2c3f
000003b0: a629 623f b744 8e3f 65ab ab3f d4b6 c73f
000003c0: a9d8 e03f 7924 f63f f8aa 0340 2fdd 0940
000003d0: dc46 0e40 01a5 1040 2998 1140 624a 1140
000003e0: 92cd 0f40 ba81 0d40 7b9f 0a40 cf4b 0740
000003f0: e9d6 0340 bf2a ff3f 8ae7 f63f 5bd3 ee3f
10.0 0.0 0.0 0.0 0.0 0.0 0.0 0.0
0.0 0.0 0.0 0.0 0.0 0.0 0.0 0.0
0.0 0.0 0.0 0.0 0.0 0.0 0.0 0.0
0.0 0.0 0.0 0.0 0.0 0.0 0.0 0.0
0.0 0.0 2.7e-05 0.000247 0.00168 0.00842 0.028366 0.076169
0.160548 0.286938 0.460723 0.682539 0.948138 1.257592 1.582749 1.929242
2.244476 2.529837 2.759662 2.943355 3.08059 3.170171 3.220521 3.228835
3.215105 3.182575 3.126846 3.065586 2.992021 2.909263 2.821404 2.731224
2.642539 2.551648 2.458442 2.36083 2.258619 2.159296 2.065378 1.966568
1.881912 1.798002 1.729599 1.667331 1.611866 1.567708 1.535716 1.50969
1.496754 1.490404 1.492244 1.50087 1.521303 1.543577 1.571985 1.608889
1.644035 1.684267 1.725116 1.764324 1.804534 1.839691 1.873947 1.905248
1.928136 1.950606 1.968314 1.978506 1.983334 1.984767 1.983747 1.978288
1.968341 1.954674 1.938568 1.925111 1.905205 1.88467 1.862658 1.836218
1.814741 1.791443 1.766564 1.744892 1.723244 1.702652 1.684463 1.662813
1.648623 1.633032 1.61994 1.608242 1.598791 1.591529 1.581764 1.57894
1.577656 1.573644 1.573861 1.573752 1.574012 1.576258 1.579722 1.580888
1.583462 1.586224 1.587285 1.589014 1.588542 1.58906 1.588349 1.587731
1.583599 1.582784 1.578257 1.572817 1.567193 1.56048 1.555166 1.546107
1.540424 1.532963 1.522224 1.513618 1.505807 1.495947 1.487335 1.47785
1.468932 1.460679 1.452151 1.444627 1.434398 1.428927 1.421469 1.41415
1.406596 1.402187 1.394779 1.390109 1.38592 1.381402 1.376274 1.373757
1.36936 1.364974 1.362468 1.357035 1.352914 1.350512 1.345015 1.342655
1.339529 1.336532 1.331917 1.328151 1.323774 1.319197 1.313987 20.0
0.0 0.0 0.0 0.0 0.0 0.0 0.0 0.0
0.0 0.0 0.0 0.0 0.0 0.0 0.0 0.0
0.0 0.0 0.0 0.0 0.0 0.0 0.0 0.0
0.0 0.0 0.0 0.0 0.0 0.0 0.0 0.0
6e-06 2.3e-05 0.000193 0.00128 0.00658 0.021901 0.056208 0.117353
0.209091 0.332812 0.484966 0.673652 0.883448 1.111472 1.341168 1.560267
1.756612 1.922988 2.05731 2.154125 2.223075 2.260071 2.274912 2.270165
2.246922 2.211043 2.165984 2.114002 2.059992 1.993492 1.928941 1.865825

exp_avg f4 [64, 1]
00000000: 0000 0000 0000 0000 c8e2 52bc bc24 8ebd
00000010: 4668 503c 0000 0000 4465 e53c 0000 0000
00000020: 0000 0000 0000 0000 0000 0000 0000 0000
00000030: 0000 0000 0000 0000 0000 0000 0000 0000
00000040: 0000 0000 5143 793d 0000 0000 0000 0000
00000050: 9de0 b1bc 0114 10be 0000 0000 0000 0000
00000060: 658d 253d 874f 50bc 0000 0000 9a3c a93d
00000070: 0000 0000 0000 0000 0000 0000 5933 f33b
00000080: 0000 0000 c86f 733d d5cd a23b 0650 7abd
00000090: 0000 0000 0000 0000 5378 0e3d dc0f d2bd
000000a0: db63 0d3d 0000 0000 0000 0000 0000 0000
000000b0: 60ec 4fbc 1073 4fbd 2264 563d 0000 0000
000000c0: 4d87 73bd 3e39 f7bc 6b65 513d 57ac c13c
000000d0: 0535 a4bc 0000 0000 4f05 14bd 0000 0000
000000e0: 0000 0000 0000 0000 35aa 45bb 69a5 be3a
000000f0: 99b5 16bd 7bbe 033d 0000 0000 0000 0000
0.0 0.0 -0.012871452 -0.069406 0.012720173 0.0 0.028002389 0.0
0.0 0.0 0.0 0.0 0.0 0.0 0.0 0.0
0.0 0.060855214 0.0 0.0 -0.02171355 -0.14070131 0.0 0.0
0.040418047 -0.012714273 0.0 0.08263512 0.0 0.0 0.0 0.0074218926
0.0 0.059432775 0.0049683847 -0.061111473 0.0 0.0 0.03478272 -0.10256931
0.034519058 0.0 0.0 0.0 -0.012690634 -0.05064684 0.052341588 0.0
-0.059455205 -0.030178662 0.05112211 0.023641748 -0.020044813 0.0 -0.036137875 0.0
0.0 0.0 -0.0030161266 0.0014545146 -0.03679428 0.03216408 0.0 0.0

exp_avg_sq f4 [64, 1]
00000000: 0000 0000 0000 0000 dd15 073d 7429 4c3f
00000010: 4d33 073d 0000 0000 458e de3d 0000 0000
00000020: 0000 0000 0000 0000 0000 0000 0000 0000
00000030: 0000 0000 0000 0000 0000 0000 0000 0000
00000040: 0000 0000 9748 403f 0000 0000 0000 0000
00000050: 7e87 c53d 3b5b 6a40 0000 0000 0000 0000
00000060: 76d3 b23e d433 f53c 0000 0000 d151 953f
00000070: 0000 0000 0000 0000 0000 0000 ff56 2a3c
00000080: 0000 0000 9a27 163f dc99 093c a1c0 213f
00000090: 0000 0000 0000 0000 bcdd 713e 07f6 0040
000000a0: bfb0 213e 0000 0000 0000 0000 0000 0000
000000b0: 704b 743d 5f09 ef3e 5083 063f 0000 0000
000000c0: 40af 193f 38b2 193e 9ef1 fb3e 374b 7d3d
000000d0: 8791 c33d 0000 0000 4852 213e 0000 0000
000000e0: 0000 0000 0000 0000 9d3e d23b 3fb5 e43b
000000f0: 247b 7d3e ebd4 353e 0000 0000 0000 0000
0.0 0.0 0.032979835 0.7975075 0.03300791 0.0 0.108669795 0.0
0.0 0.0 0.0 0.0 0.0 0.0 0.0 0.0
0.0 0.75110763 0.0 0.0 0.09644984 3.6618183 0.0 0.0
0.34926957 0.02993194 0.0 1.1665593 0.0 0.0 0.0 0.010396718
0.0 0.5865418 0.008398499 0.63184553 0.0 0.0 0.23619741 2.0150163
0.1579008 0.0 0.0 0.0 0.059642255 0.46686837 0.52544117 0.0
0.60033035 0.15009391 0.49207777 0.06183931 0.095492415 0.0 0.15754044 0.0
0.0 0.0 0.0064161555 0.006979614 0.24754006 0.17757003 0.0 0.0

exp_avg f4 [64]
00000000: 0000 0000 0000 0000 0c75 0bb9 cfb7 a7b9
00000010: 7d53 1839 0000 0000 1a18 e4b7 0000 0000
00000020: 0000 0000 0000 0000 0000 0000 0000 0000
00000030: 0000 0000 0000 0000 0000 0000 0000 0000
00000040: 0000 0000 f9a3 333a 0000 0000 0000 0000
00000050: 43e4 73b9 4088 a4ba 0000 0000 0000 0000
00000060: bd3c 0c3a fd65 a8b8 0000 0000 1085 0b3a
00000070: 0000 0000 0000 0000 0000 0000 6efc ab38
00000080: 0000 0000 8e09 9a39 6eb7 1439 954f c4b9
00000090: 0000 0000 0000 0000 d980 ac39 2265 85ba
000000a0: beab 13b7 0000 0000 0000 0000 0000 0000
000000b0: d3c5 aab9 01d2 d6b9 514a 0b3a 0000 0000
000000c0: 66d5 b4b9 b294 18b9 8469 023a 075f ebb8
000000d0: d031 b1b9 0000 0000 df66 2439 0000 0000
000000e0: 0000 0000 0000 0000 ea05 5bb9 a945 9f39
000000f0: 28ac 8eb9 60ab 6739 0000 0000 0000 0000
0.0 0.0 -0.00013299676 -0.0003198967 0.00014526951 0.0 -2.7190941e-05 0.0
0.0 0.0 0.0 0.0 0.0 0.0 0.0 0.0
0.0 0.0006852742 0.0 0.0 -0.0002325932 -0.0012552813 0.0 0.0
0.0005349627 -8.029861e-05 0.0 0.0005322257 0.0 0.0 0.0 8.200934e-05
0.0 0.00029380288 0.00014182713 -0.00037443326 0.0 0.0 0.00032902395 -0.0010177235
-8.80187e-06 0.0 0.0 0.0 -0.00032572317 -0.00040973726 0.0005313503 0.0
-0.0003449127 -0.00014551243 0.00049748295 -0.000112233734 -0.00033797184 0.0 0.00015678581 0.0
0.0 0.0 -0.0002088767 0.00030378744 -0.00027212617 0.00022093719 0.0 0.0

exp_avg_sq f4 [64]
00000000: 0000 0000 0000 0000 5a25 aa37 b776 e039
00000010: 2f1f 9f37 0000 0000 5003 5c38 0000 0000
00000020: 0000 0000 0000 0000 0000 0000 0000 0000
00000030: 0000 0000 0000 0000 0000 0000 0000 0000
00000040: 0000 0000 d856 e939 0000 0000 0000 0000
00000050: b832 7438 8537 073b 0000 0000 0000 0000
00000060: 04b0 5639 0e74 8d37 0000 0000 745d 253a
00000070: 0000 0000 0000 0000 0000 0000 1ddb d136
00000080: 0000 0000 dd31 a539 09c8 cb36 e524 b639
00000090: 0000 0000 0000 0000 0580 0e39 e08c 973a
000000a0: 119e 9f38 0000 0000 0000 0000 0000 0000
000000b0: 3209 2638 c5de 8939 3b8b a139 0000 0000
000000c0: a1fc ab39 7b34 aa38 1197 9439 7ee6 e137
000000d0: 3824 7f38 0000 0000 09a4 9338 0000 0000
000000e0: 0000 0000 0000 0000 6860 c436 72e5 e236
000000f0: 9259 1139 5eca cb38 0000 0000 0000 0000
0.0 0.0 2.0282972e-05 0.0004281306 1.8968798e-05 0.0 5.2455172e-05 0.0
0.0 0.0 0.0 0.0 0.0 0.0 0.0 0.0
0.0 0.00044505927 0.0 0.0 5.822137e-05 0.0020632457 0.0 0.0
0.00020474201 1.6862552e-05 0.0 0.0006308176 0.0 0.0 0.0 6.2541935e-06
0.0 0.00031508403 6.0731586e-06 0.00034741234 0.0 0.0 0.00013589866 0.001156237
7.611153e-05 0.0 0.0 0.0 3.9586048e-05 0.00026296653 0.00030812048 0.0
0.00032803885 8.116007e-05 0.00028341313 2.6929421e-05 6.083047e-05 0.0 7.04006e-05 0.0
0.0 0.0 5.8524784e-06 6.762036e-06 0.00013861645 9.717488e-05 0.0 0.0

exp_avg f4 [64, 64]
00000000: 0000 0000 0000 0000 937d 733a c77c 203a
00000010: 6375 093b 0000 0000 9ef9 cd3a 0000 0000
00000020: 0000 0000 0000 0000 0000 0000 0000 0000
00000030: 0000 0000 0000 0000 0000 0000 0000 0000
00000040: 0000 0000 a157 f73a 0000 0000 0000 0000
00000050: e82e bc3a bdda 1039 0000 0000 0000 0000
00000060: 3b4f 523a f12b 003b 0000 0000 35f0 1a39
00000070: 0000 0000 0000 0000 0000 0000 f3e7 0e3b
00000080: 0000 0000 6a79 7d3a c66b 5d3a fc15 9b3a
00000090: 0000 0000 0000 0000 9ac6 ab3a a9e9 c439
000000a0: 4da4 aa3a 0000 0000 0000 0000 0000 0000
000000b0: 1fe6 0e3b 2e27 543a 900b c33a 0000 0000
000000c0: f2c1 603a 95f1 973a 7163 913a 9337 363a
000000d0: 0daf 2d3a 0000 0000 15c2 b03a 0000 0000
000000e0: 0000 0000 0000 0000 9384 053b 3e91 8e3a
000000f0: 708e fb3a 559d 733a 0000 0000 0000 0000
00000100: 0000 0000 0000 0000 0000 0000 0000 0000
00000110: 0000 0000 0000 0000 0000 0000 0000 0000
00000120: 0000 0000 0000 0000 0000 0000 0000 0000
00000130: 0000 0000 0000 0000 0000 0000 0000 0000
00000140: 0000 0000 0000 0000 0000 0000 0000 0000
00000150: 0000 0000 0000 0000 0000 0000 0000 0000
00000160: 0000 0000 0000 0000 0000 0000 0000 0000
00000170: 0000 0000 0000 0000 0000 0000 0000 0000
00000180: 0000 0000 0000 0000 0000 0000 0000 0000
00000190: 0000 0000 0000 0000 0000 0000 0000 0000
000001a0: 0000 0000 0000 0000 0000 0000 0000 0000
000001b0: 0000 0000 0000 0000 0000 0000 0000 0000
000001c0: 0000 0000 0000 0000 0000 0000 0000 0000
000001d0: 0000 0000 0000 0000 0000 0000 0000 0000
000001e0: 0000 0000 0000 0000 0000 0000 0000 0000
000001f0: 0000 0000 0000 0000 0000 0000 0000 0000
00000200: 0000 0000 0000 0000 0000 0000 0000 0000
00000210: 0000 0000 0000 0000 0000 0000 0000 0000
00000220: 0000 0000 0000 0000 0000 0000 0000 0000
00000230: 0000 0000 0000 0000 0000 0000 0000 0000
00000240: 0000 0000 0000 0000 0000 0000 0000 0000
00000250: 0000 0000 0000 0000 0000 0000 0000 0000
00000260: 0000 0000 0000 0000 0000 0000 0000 0000
00000270: 0000 0000 0000 0000 0000 0000 0000 0000
00000280: 0000 0000 0000 0000 0000 0000 0000 0000
00000290: 0000 0000 0000 0000 0000 0000 0000 0000
000002a0: 0000 0000 0000 0000 0000 0000 0000 0000
000002b0: 0000 0000 0000 0000 0000 0000 0000 0000
000002c0: 0000 0000 0000 0000 0000 0000 0000 0000
000002d0: 0000 0000 0000 0000 0000 0000 0000 0000
000002e0: 0000 0000 0000 0000 0000 0000 0000 0000
000002f0: 0000 0000 0000 0000 0000 0000 0000 0000
00000300: 0000 0000 0000 0000 1595 8abc b02b 3dbc
00000310: d62e 1bbd 0000 0000 c287 e7bc 0000 0000
00000320: 0000 0000 0000 0000 0000 0000 0000 0000
00000330: 0000 0000 0000 0000 0000 0000 0000 0000
00000340: 0000 0000 0535 0abd 0000 0000 0000 0000
00000350: 39a3 d7bc 78f6 65bb 0000 0000 0000 0000
00000360: 4cf0 60bc 9b1d 12bd 0000 0000 11ad 1ebb
00000370: 0000 0000 0000 0000 0000 0000 081b 22bd
00000380: 0000 0000 3395 8dbc c8af 7ebc 2ba3 b9bc
00000390: 0000 0000 0000 0000 52a5 bdbc 357a 00bc
000003a0: 58ab bcbc 0000 0000 0000 0000 0000 0000
000003b0: a06e 22bd e5be 79bc 15c2 dbbc 0000 0000
000003c0: 8598 86bc 6ae0 b0bc 173f 9fbc 19c2 4bbc
000003d0: abb3 48bc 0000 0000 2379 cbbc 0000 0000
000003e0: 0000 0000 0000 0000 eb16 18bd 5484 9fbc
000003f0: a6a9 11bd ab78 88bc 0000 0000 0000 0000
0.0 0.0 0.00092884264 0.0006122109 0.002097451 0.0 0.001571465 0.0
0.0 0.0 0.0 0.0 0.0 0.0 0.0 0.0
0.0 0.001887072 0.0 0.0 0.0014357241 0.00013814397 0.0 0.0
0.00080226705 0.001955744 0.0 0.00014776069 0.0 0.0 0.0 0.0021805733
0.0 0.0009669276 0.00084465405 0.0011832113 0.0 0.0 0.0013105453 0.00037558124
0.0013018936 0.0 0.0 0.0 0.0021804643 0.00080929964 0.0014880765 0.0
0.0008573822 0.0011592383 0.0011092258 0.000695103 0.0006625511 0.0 0.0013485575 0.0
0.0 0.0 0.002037321 0.0010877026 0.001919223 0.00092931587 0.0 0.0
0.0 0.0 0.0 0.0 0.0 0.0 0.0 0.0
0.0 0.0 0.0 0.0 0.0 0.0 0.0 0.0
0.0 0.0 0.0 0.0 0.0 0.0 0.0 0.0
0.0 0.0 0.0 0.0 0.0 0.0 0.0 0.0
0.0 0.0 0.0 0.0 0.0 0.0 0.0 0.0
0.0 0.0 0.0 0.0 0.0 0.0 0.0 0.0
0.0 0.0 0.0 0.0 0.0 0.0 0.0 0.0
0.0 0.0 0.0 0.0 0.0 0.0 0.0 0.0
0.0 0.0 0.0 0.0 0.0 0.0 0.0 0.0
0.0 0.0 0.0 0.0 0.0 0.0 0.0 0.0
0.0 0.0 0.0 0.0 0.0 0.0 0.0 0.0
0.0 0.0 0.0 0.0 0.0 0.0 0.0 0.0
0.0 0.0 0.0 0.0 0.0 0.0 0.0 0.0
0.0 0.0 0.0 0.0 0.0 0.0 0.0 0.0
0.0 0.0 0.0 0.0 0.0 0.0 0.0 0.0
0.0 0.0 0.0 0.0 0.0 0.0 0.0 0.0
0.0 0.0 -0.016916791 -0.01154606 -0.037886463 0.0 -0.028262977 0.0
0.0 0.0 0.0 0.0 0.0 0.0 0.0 0.0
0.0 -0.03374197 0.0 0.0 -0.026322948 -0.0035089534 0.0 0.0
-0.013729166 -0.035672765 0.0 -0.0024212042 0.0 0.0 0.0 -0.03957656
0.0 -0.017283058 -0.015544839 -0.022660812 0.0 0.0 -0.02315012 -0.007841636
-0.023030922 0.0 0.0 0.0 -0.03965628 -0.015243267 -0.026825944 0.0
-0.016430149 -0.021591384 -0.019439263 -0.012436413 -0.012249867 0.0 -0.024838036 0.0
0.0 0.0 -0.03713123 -0.019472279 -0.03556218 -0.016659101 0.0 0.0

exp_avg_sq f4 [64, 64]
00000000: 0000 0000 0000 0000 d7ca 8e39 143b 0239
00000010: 0443 b33a 0000 0000 a9f6 463a 0000 0000
00000020: 0000 0000 0000 0000 0000 0000 0000 0000
00000030: 0000 0000 0000 0000 0000 0000 0000 0000
00000040: 0000 0000 43a6 8c3a 0000 0000 0000 0000
00000050: 203d 2e3a 044b 6037 0000 0000 0000 0000
00000060: 3f87 3339 50ae 9e3a 0000 0000 dbf2 bc36
00000070: 0000 0000 0000 0000 0000 0000 4d66 c43a
00000080: 0000 0000 6da5 9539 1eed 6c39 c3fc 033a
00000090: 0000 0000 0000 0000 9112 053a 1772 8138
000000a0: a990 023a 0000 0000 0000 0000 0000 0000
000000b0: f268 c23a f9e1 6f39 b737 343a 0000 0000
000000c0: b595 8e39 5a65 e939 242e b339 f576 2239
000000d0: c5d9 1839 0000 0000 8d5b 1d3a 0000 0000
000000e0: 0000 0000 0000 0000 f1f9 ac3a 801f bc39
000000f0: 09d1 a03a decc 8939 0000 0000 0000 0000
00000100: 0000 0000 0000 0000 0000 0000 0000 0000
00000110: 0000 0000 0000 0000 0000 0000 0000 0000
00000120: 0000 0000 0000 0000 0000 0000 0000 0000
00000130: 0000 0000 0000 0000 0000 0000 0000 0000
00000140: 0000 0000 0000 0000 0000 0000 0000 0000
00000150: 0000 0000 0000 0000 0000 0000 0000 0000
00000160: 0000 0000 0000 0000 0000 0000 0000 0000
00000170: 0000 0000 0000 0000 0000 0000 0000 0000
00000180: 0000 0000 0000 0000 0000 0000 0000 0000
00000190: 0000 0000 0000 0000 0000 0000 0000 0000
000001a0: 0000 0000 0000 0000 0000 0000 0000 0000
000001b0: 0000 0000 0000 0000 0000 0000 0000 0000
000001c0: 0000 0000 0000 0000 0000 0000 0000 0000
000001d0: 0000 0000 0000 0000 0000 0000 0000 0000
000001e0: 0000 0000 0000 0000 0000 0000 0000 0000
000001f0: 0000 0000 0000 0000 0000 0000 0000 0000
00000200: 0000 0000 0000 0000 0000 0000 0000 0000
00000210: 0000 0000 0000 0000 0000 0000 0000 0000
00000220: 0000 0000 0000 0000 0000 0000 0000 0000
00000230: 0000 0000 0000 0000 0000 0000 0000 0000
00000240: 0000 0000 0000 0000 0000 0000 0000 0000
00000250: 0000 0000 0000 0000 0000 0000 0000 0000
00000260: 0000 0000 0000 0000 0000 0000 0000 0000
00000270: 0000 0000 0000 0000 0000 0000 0000 0000
00000280: 0000 0000 0000 0000 0000 0000 0000 0000
00000290: 0000 0000 0000 0000 0000 0000 0000 0000
000002a0: 0000 0000 0000 0000 0000 0000 0000 0000
000002b0: 0000 0000 0000 0000 0000 0000 0000 0000
000002c0: 0000 0000 0000 0000 0000 0000 0000 0000
000002d0: 0000 0000 0000 0000 0000 0000 0000 0000
000002e0: 0000 0000 0000 0000 0000 0000 0000 0000
000002f0: 0000 0000 0000 0000 0000 0000 0000 0000
00000300: 0000 0000 0000 0000 0438 4d3d a15b c73c
00000310: 2bb6 7e3e 0000 0000 f107 0d3e 0000 0000
00000320: 0000 0000 0000 0000 0000 0000 0000 0000
00000330: 0000 0000 0000 0000 0000 0000 0000 0000
00000340: 0000 0000 4a85 473e 0000 0000 0000 0000
00000350: f666 fa3d 3c99 4a3b 0000 0000 0000 0000
00000360: 444f fa3c 9e84 643e 0000 0000 4926 6c3a
00000370: 0000 0000 0000 0000 0000 0000 c4c9 8b3e
00000380: 0000 0000 9953 513d f67a 2f3d 3a8e c33d
00000390: 0000 0000 0000 0000 a114 b93d 3b04 4f3c
000003a0: 5b8e b73d 0000 0000 0000 0000 0000 0000
000003b0: 6cbb 8c3e 8887 2d3d bdc3 fe3d 0000 0000
000003c0: 2dc1 4d3d a6b1 ab3d 8c36 813d 2a5e d93c
000003d0: 833b db3c 0000 0000 082c e03d 0000 0000
000003e0: 0000 0000 0000 0000 6376 773e 6e01 853d
000003f0: 5f7e 673e 702d 433d 0000 0000 0000 0000
0.0 0.0 0.00027235478 0.00012419774 0.0013676588 0.0 0.0007589856 0.0
0.0 0.0 0.0 0.0 0.0 0.0 0.0 0.0
0.0 0.0010730702 0.0 0.0 0.00066466816 1.3368906e-05 0.0 0.0
0.00017121153 0.0012106393 0.0 5.6311087e-06 0.0 0.0 0.0 0.0014984101
0.0 0.00028542746 0.00022595047 0.0005034918 0.0 0.0 0.0005076314 6.17245e-05
0.00049806625 0.0 0.0 0.0 0.0014832302 0.00022876998 0.0006874757 0.0
0.0002719589 0.00044516736 0.00034175918 0.00015493839 0.00014576975 0.0 0.0006002717 0.0
0.0 0.0 0.0013197047 0.00035881624 0.0012269329 0.00026283314 0.0 0.0
0.0 0.0 0.0 0.0 0.0 0.0 0.0 0.0
0.0 0.0 0.0 0.0 0.0 0.0 0.0 0.0
0.0 0.0 0.0 0.0 0.0 0.0 0.0 0.0
0.0 0.0 0.0 0.0 0.0 0.0 0.0 0.0
0.0 0.0 0.0 0.0 0.0 0.0 0.0 0.0
0.0 0.0 0.0 0.0 0.0 0.0 0.0 0.0
0.0 0.0 0.0 0.0 0.0 0.0 0.0 0.0
0.0 0.0 0.0 0.0 0.0 0.0 0.0 0.0
0.0 0.0 0.0 0.0 0.0 0.0 0.0 0.0
0.0 0.0 0.0 0.0 0.0 0.0 0.0 0.0
0.0 0.0 0.0 0.0 0.0 0.0 0.0 0.0
0.0 0.0 0.0 0.0 0.0 0.0 0.0 0.0
0.0 0.0 0.0 0.0 0.0 0.0 0.0 0.0
0.0 0.0 0.0 0.0 0.0 0.0 0.0 0.0
0.0 0.0 0.0 0.0 0.0 0.0 0.0 0.0
0.0 0.0 0.0 0.0 0.0 0.0 0.0 0.0
0.0 0.0 0.05010225 0.024335684 0.24874179 0.0 0.1377256 0.0
0.0 0.0 0.0 0.0 0.0 0.0 0.0 0.0
0.0 0.1948444 0.0 0.0 0.122266695 0.0030914089 0.0 0.0
0.030555375 0.22316214 0.0 0.00090083905 0.0 0.0 0.0 0.27302372
0.0 0.051105116 0.042841874 0.09548612 0.0 0.0 0.09037138 0.012635286
0.08962699 0.0 0.0 0.0 0.27486742 0.04236558 0.12439678 0.0
0.050233055 0.08383493 0.06309232 0.026534159 0.026761776 0.0 0.10945898 0.0
0.0 0.0 0.24166255 0.06494413 0.226068 0.047650754 0.0 0.0

exp_avg f4 [64]
00000000: d2fe fab7 0000 0000 0000 0000 675d 67b9
00000010: 0000 0000 0ad3 8438 3a8c 61ba 0000 0000
00000020: 0000 0000 0400 0000 0000 0000 0000 0000
00000030: 97be 79b9 f596 84b9 a4b5 b9b8 ec29 3038
00000040: ab2a 9ab9 0000 0000 611b 8cb9 0000 0000
00000050: 0000 0000 0400 0000 adb8 f938 0000 0000
00000060: 4b5b 07b8 0000 0000 0000 0000 0000 0000
00000070: 0000 0000 0000 0000 0400 0000 2ea6 3236
00000080: 0000 0000 0000 0000 0000 0000 5288 48ba
00000090: a541 8f38 5a53 37bb 7ed2 00b9 a0a7 9c38
000000a0: 2a70 bab9 0400 0080 13f3 153a fd55 0f3a
000000b0: 0400 0000 3c9a f039 0000 0000 0e46 8fb8
000000c0: 0000 0000 0000 0000 0000 0000 0000 0000
000000d0: 0000 0000 0000 0000 0400 0000 ea97 7fba
000000e0: 0000 0000 0000 0000 8b03 b638 0000 0000
000000f0: 0400 0000 0000 0000 6593 e7b7 0000 0000
-2.9920982e-05 0.0 0.0 -0.00022064672 0.0 6.3335596e-05 -0.0008603964 0.0
0.0 6e-45 0.0 0.0 -0.00023817491 -0.00025289474 -8.8553206e-05 4.2000713e-05
-0.0002940496 0.0 -0.0002672328 0.0 0.0 6e-45 0.00011907644 0.0
-3.227153e-05 0.0 0.0 0.0 0.0 0.0 6e-45 2.6620796e-06
0.0 0.0 0.0 -0.0007649708 6.8309986e-05 -0.0027973265 -0.00012285446 7.469882e-05
-0.00035560253 -6e-45 0.000572012 0.00054678303 6e-45 0.0004589128 0.0 -6.83182e-05
0.0 0.0 0.0 0.0 0.0 0.0 6e-45 -0.0009750115
0.0 0.0 8.679096e-05 0.0 6e-45 0.0 -2.7605982e-05 0.0

exp_avg_sq f4 [64]
00000000: d716 e734 0000 0000 0000 0000 5473 2839
00000010: 0000 0000 e32f aa37 6122 233b 0000 0000
00000020: 0000 0000 1cd4 7932 0000 0000 0000 0000
00000030: 299f c338 961a a138 00d1 8a36 0b5d 4d35
00000040: 0fe6 7b39 0000 0000 5f8b 3e39 0000 0000
00000050: 0000 0000 8077 3732 5734 0f38 0000 0000
00000060: 4ab7 4037 0000 0000 0000 0000 0000 0000
00000070: 0000 0000 0000 0000 3aa3 ab2f 84c6 9f34
00000080: 0000 0000 0000 0000 0000 0000 c275 933a
00000090: ee93 1235 d541 9a39 66bf 4c39 2764 8637
000000a0: 5251 8c39 dedd 3b2d ebca 8a3a 5b5e 283a
000000b0: acd3 0e2e 07dd 2c3a 0000 0000 a718 b134
000000c0: 0000 0000 0000 0000 0000 0000 0000 0000
000000d0: 0000 0000 0000 0000 f183 c330 29e9 173b
000000e0: 0000 0000 0000 0000 4e6e 8037 0000 0000
000000f0: fdb8 8c31 0000 0000 30d9 1537 0000 0000
4.304372e-07 0.0 0.0 0.00016064692 0.0 2.0287878e-05 0.0024892318 0.0
0.0 1.4541936e-08 0.0 0.0 9.3279705e-05 7.68203e-05 4.1370513e-06 7.6503846e-07
0.00024022929 0.0 0.00018171732 0.0 0.0 1.0679173e-08 3.4142602e-05 0.0
1.1486767e-05 0.0 0.0 0.0 0.0 0.0 3.1220698e-10 2.9760497e-07
0.0 0.0 0.0 0.0011250305 5.4604504e-07 0.00029422218 0.00019526258 1.6020682e-05
0.0002676347 1.0678984e-11 0.0010589039 0.00064227515 3.2475064e-11 0.0006594215 0.0 3.2986756e-07
0.0 0.0 0.0 0.0 0.0 0.0 1.4225617e-09 0.0023179746
0.0 0.0 1.5310154e-05 0.0 4.095567e-09 0.0 8.93166e-06 0.0

exp_avg f4 [190, 64]
00000000: 1f6d 8ab8 0000 0000 0000 0000 10da d1b8
00000010: 0000 0000 a9e6 0cb9 2524 4ab4 0000 0000
00000020: 0000 0000 0400 0000 0000 0000 0000 0000
00000030: de89 b7b8 6fc5 e5b8 e63b b3b8 a1b5 ebb8
00000040: 663d a3b8 0000 0000 42ec 97b8 0000 0000
00000050: 0000 0000 0400 0080 a281 abb8 0000 0000
00000060: 4c75 c9b8 0000 0000 0000 0000 0000 0000
00000070: 0000 0000 0000 0000 0400 0080 9bad f5b8
00000080: 0000 0000 0000 0000 0000 0000 8ca6 6bb7
00000090: 9f23 9db8 58e7 12b8 7f63 86b8 d686 c7b8
000000a0: 1dd2 afb7 0400 0080 a404 dbb8 c9de b1b8
000000b0: 0400 0000 5461 d5b8 0000 0000 a6ac e1b8
000000c0: 0000 0000 0000 0000 0000 0000 0000 0000
000000d0: 0000 0000 0000 0000 0400 0000 1de4 1237
000000e0: 0000 0000 0000 0000 8c8f c2b8 0000 0000
000000f0: 0400 0000 0000 0000 addb 37b9 0000 0000
00000100: 8844 d537 0000 0000 0000 0000 11d6 2a38
00000110: 0000 0000 61b9 5b38 f231 db35 0000 0000
00000120: 0000 0000 0400 0000 0000 0000 0000 0000
00000130: b50e 1538 6aa8 3938 3179 0c38 2b49 3b38
00000140: a2ab 0538 0000 0000 b8ac f937 0000 0000
00000150: 0000 0000 0400 0080 06af 0438 0000 0000
00000160: 3f4c 2138 0000 0000 0000 0000 0000 0000
00000170: 0000 0000 0000 0000 0400 0000 0b21 4438
00000180: 0000 0000 0000 0000 0000 0000 b0ed ea36
00000190: 6779 f037 dc86 2637 946d dd37 e775 1f38
000001a0: 97fc 1c37 0400 0000 3e2f 2738 de8c 0738
000001b0: 0400 0000 3dd5 2238 0000 0000 aafe 2e38
000001c0: 0000 0000 0000 0000 0000 0000 0000 0000
000001d0: 0000 0000 0000 0000 0400 0000 a50c 06b6
000001e0: 0000 0000 0000 0000 e096 1638 0000 0000
000001f0: 0400 0000 0000 0000 0a88 9238 0000 0000
00000200: eba8 30b8 0000 0000 0000 0000 6e69 84b8
00000210: 0000 0000 6850 b4b8 67ad 5335 0000 0000
00000220: 0000 0000 0400 0080 0000 0000 0000 0000
00000230: 2908 68b8 d278 91b8 5a95 64b8 8771 96b8
00000240: aba3 4db8 0000 0000 4f1f 3fb8 0000 0000
00000250: 0000 0000 0400 0080 cbcd 5bb8 0000 0000
00000260: ac24 80b8 0000 0000 0000 0000 0000 0000
00000270: 0000 0000 0000 0000 0400 0080 3d7a 9cb8
00000280: 0000 0000 0000 0000 0000 0000 2940 08b7
00000290: 0e66 49b8 febb afb7 b0f8 28b8 5f03 7eb8
000002a0: ead2 56b7 0400 0080 1048 8db8 f46c 65b8
000002b0: 0400 0000 b4a4 89b8 0000 0000 7ffa 8fb8
000002c0: 0000 0000 0000 0000 0000 0000 0000 0000
000002d0: 0000 0000 0000 0000 0400 0000 0d45 d736
000002e0: 0000 0000 0000 0000 275b 79b8 0000 0000
000002f0: 0400 0080 0000 0000 16f7 e9b8 0000 0000
00000300: 9f49 4e38 0000 0000 0000 0000 d848 9438
00000310: 0000 0000 1947 d238 cb5a 7db6 0000 0000
00000320: 0000 0000 0400 0000 0000 0000 0000 0000
00000330: 147a 8238 1267 a438 bb3d 8438 4995 ad38
00000340: 790d 6538 0000 0000 bf09 5438 0000 0000
00000350: 0000 0000 0400 0080 7ed3 8038 0000 0000
00000360: 4d8a 9238 0000 0000 0000 0000 0000 0000
00000370: 0000 0000 0000 0000 0400 0080 cb4d b438
00000380: 0000 0000 0000 0000 0000 0000 d38a e136
00000390: c22f 6c38 064b e937 a711 3b38 b682 9138
000003a0: b8dd 5837 0400 0080 903c a838 b69d 8838
000003b0: 0400 0080 6fea a338 0000 0000 021a a738
000003c0: 0000 0000 0000 0000 0000 0000 0000 0000
000003d0: 0000 0000 0000 0000 0400 0080 d29b 28b7
000003e0: 0000 0000 0000 0000 bc25 9238 0000 0000
000003f0: 0400 0000 0000 0000 2008 0639 0000 0000
-6.600678e-05 0.0 0.0 -0.00010006514 0.0 -0.00013437368 -1.8825865e-07 0.0
0.0 6e-45 0.0 0.0 -8.7518e-05 -0.00010956346 -8.546542e-05 -0.00011239504
-7.783882e-05 0.0 -7.2442475e-05 0.0 0.0 -6e-45 -8.1780614e-05 0.0
-9.606275e-05 0.0 0.0 0.0 0.0 0.0 -6e-45 -0.00011714847
0.0 0.0 0.0 -1.4045869e-05 -7.492978e-05 -3.502457e-05 -6.4081505e-05 -9.5141746e-05
-2.0959467e-05 -6e-45 -0.00010443598 -8.481515e-05 6e-45 -0.0001017476 0.0 -0.00010760994
0.0 0.0 0.0 0.0 0.0 0.0 6e-45 8.75539e-06
0.0 0.0 -9.2773786e-05 0.0 6e-45 0.0 -0.00017534076 0.0
2.5423491e-05 0.0 0.0 4.0730523e-05 0.0 5.2386316e-05 1.6331308e-06 0.0
0.0 6e-45 0.0 0.0 3.5538065e-05 4.4264285e-05 3.349147e-05 4.4652417e-05
3.1869517e-05 0.0 2.9763542e-05 0.0 0.0 -6e-45 3.1634256e-05 0.0
3.84564e-05 0.0 0.0 0.0 0.0 0.0 6e-45 4.6760815e-05
0.0 0.0 0.0 7.001414e-06 2.8666762e-05 9.92577e-06 2.639628e-05 3.801836e-05
9.357135e-06 6e-45 3.98599e-05 3.23177e-05 6e-45 3.8822403e-05 0.0 4.1722007e-05
0.0 0.0 0.0 0.0 0.0 0.0 6e-45 -1.9974916e-06
0.0 0.0 3.59033e-05 0.0 6e-45 0.0 6.987162e-05 0.0
-4.2118987e-05 0.0 0.0 -6.313888e-05 0.0 -8.598046e-05 7.885596e-07 0.0
0.0 -6e-45 0.0 0.0 -5.532071e-05 -6.936643e-05 -5.449853e-05 -7.1737035e-05
-4.9028236e-05 0.0 -4.5567107e-05 0.0 0.0 -6e-45 -5.240533e-05 0.0
-6.110346e-05 0.0 0.0 0.0 0.0 0.0 -6e-45 -7.461428e-05
0.0 0.0 0.0 -8.12117e-06 -4.801718e-05 -2.0949166e-05 -4.028593e-05 -6.056146e-05
-1.2804501e-05 -6e-45 -6.7368266e-05 -5.4699325e-05 6e-45 -6.5633474e-05 0.0 -6.86543e-05
0.0 0.0 0.0 0.0 0.0 0.0 6e-45 6.415538e-06
0.0 0.0 -5.945112e-05 0.0 -6e-45 0.0 -0.00011156329 0.0
4.9182792e-05 0.0 0.0 7.070758e-05 0.0 0.00010026823 -3.7752786e-06 0.0
0.0 6e-45 0.0 0.0 6.221622e-05 7.839328e-05 6.305749e-05 8.2770894e-05
5.4610402e-05 0.0 5.0553816e-05 0.0 0.0 -6e-45 6.142909e-05 0.0
6.987583e-05 0.0 0.0 0.0 0.0 0.0 -6e-45 8.597559e-05
0.0 0.0 0.0 6.721684e-06 5.6311263e-05 2.78107e-05 4.4600714e-05 6.9384856e-05
1.2926226e-05 -6e-45 8.022145e-05 6.514361e-05 -6e-45 7.816112e-05 0.0 7.968025e-05
0.0 0.0 0.0 0.0 0.0 0.0 -6e-45 -1.004986e-05
0.0 0.0 6.968851e-05 0.0 6e-45 0.0 0.00012782263 0.0
