model.pth (torch, 301393 bytes, 19 tensors)

weight f4 [64, 1]
0	0xbee9d6ec	-0.45671785
1	0x3db14f58	0.08657712
2	0x3e65d293	0.22443609
3	0x3ce8f1ee	0.028435674
4	0xbf7ff400	-0.9998169
5	0xbf06f312	-0.52714646
6	0xbf30f754	-0.6912739
7	0x3f212578	0.629478
8	0x3f6bfe84	0.92185235
9	0x3f01d610	0.5071726
10	0x3f596cfc	0.8493192
11	0x3eba5ec6	0.3640043
12	0xbf729690	-0.9476099
13	0xbe4bbf30	-0.19897151
14	0xbf6b92ca	-0.9202086
15	0x3f026cfa	0.50947535
16	0xbf05f49c	-0.5232637
17	0x3b354124	0.0027657235
18	0xbea70164	-0.32618248
19	0x3f0ec5c5	0.5577052
20	0xbf098184	-0.5371325
21	0x3f207fa3	0.6269476
22	0xbf764b44	-0.96208596
23	0xbf50147c	-0.81281257
24	0xbf1fd420	-0.6243305
25	0x3f250dda	0.6447426
26	0xbf7a304c	-0.97729945
27	0x3f322a09	0.6959539
28	0x3ee682f9	0.450218
29	0xbf6898e4	-0.9085829
30	0x3f575c38	0.8412509
31	0xbe33cd48	-0.17558777
32	0xbe936bfc	-0.28793323
33	0x3ed88103	0.42285928
34	0xbf1b76e8	-0.6072831
35	0xbedae3ac	-0.42751825
36	0x3f591bd7	0.84808105
37	0x3ed32f74	0.4124714
38	0xbeeadc54	-0.45871222
39	0x3ee45553	0.44596347
40	0xbdeae8f0	-0.114702106
41	0xbec90684	-0.39262784
42	0x3ebefe3b	0.37303337
43	0xbf448d48	-0.7677808
44	0x3eedf8ae	0.4647879
45	0xbf6d3614	-0.9266064
46	0xbf53d8ac	-0.8275249
47	0xbe555158	-0.20831811
48	0x3f29a7cb	0.66271657
49	0xbf5e3dc4	-0.86812997
50	0xbe810e78	-0.2520635
51	0x3ef71617	0.4825904
52	0x3e95f7de	0.2929067
53	0xbf135e84	-0.57566094
54	0xbf64fcba	-0.8944813
55	0x3d73afb5	0.05949374
56	0x3da4f0cd	0.080537416
57	0xbd27a666	-0.040930174
58	0xbf723ee2	-0.946272
59	0x3ef7288d	0.48273125
60	0x3ddf530c	0.10904512
61	0xbe7d9978	-0.24765575
62	0x3f44bdab	0.7685191
63	0xbe819b7c	-0.25313938

bias f4 [64]
0	0xbd830ae0	-0.063985586
1	0xbf5d7440	-0.8650551
2	0xbf32c497	-0.6983122
3	0x3f812c23	1.0091594
4	0xbe2696c8	-0.16268456
5	0xbf59d3ca	-0.8508879
6	0x3e9810c0	0.2970028
7	0xbf6483cf	-0.89263624
8	0x3e37c72a	0.17947069
9	0x3f191117	0.597917
10	0x3e8c922f	0.2745528
11	0x3e7ac3c4	0.24488741
12	0xbe899ad8	-0.2687595
13	0x3e9fb8bc	0.3119563
14	0x3f79de22	0.9760457
15	0x3f15d27e	0.5852431
16	0x3ec27d0c	0.37986028
17	0x3f9dda74	1.2332292
18	0xbf2e65ce	-0.6812409
19	0xbf2cdaea	-0.67521536
20	0x3f1639f8	0.58682203
21	0x3f878e89	1.0590373
22	0xbf08d8b4	-0.5345566
23	0x3e125430	0.14289927
24	0xbf1308fc	-0.57435584
25	0x3ed5dd4c	0.417704
26	0x3f0a8706	0.5411228
27	0xbeb2f5bb	-0.34953102
28	0x3e51a860	0.20474386
29	0x3e44cb58	0.19218194
30	0x3f349fde	0.7055644
31	0x3e717388	0.23579228
32	0x3d39f0e0	0.045395732
33	0xbf3a2d91	-0.7272578
34	0x3f43d14a	0.76491225
35	0x3e5255a8	0.20540488
36	0x3f9c39ac	1.22051
37	0x3eb2e39e	0.34939283
38	0x3d2178a0	0.039421678
39	0xbf61c6c1	-0.881939
40	0xbf6a6d7c	-0.9157331
41	0xbf484ea0	-0.7824497
42	0x3ec8a76c	0.39190233
43	0x3f5bb270	0.8581915
44	0x3f0ed69c	0.5579622
45	0x3e9a7a44	0.30171406
46	0x3f1a8c82	0.6037065
47	0x3e22a120	0.15881777
48	0x3f77832b	0.9668452
49	0xbc191480	-0.0093432665
50	0xbf114570	-0.5674658
51	0x3f15a522	0.584551
52	0x3f36543f	0.712223
53	0x3f7db3e0	0.9910259
54	0xbf5c5974	-0.86073995
55	0x3ec8e3d0	0.39236307
56	0xbe2c41d0	-0.1682198
57	0x3f9d24a0	1.2276802
58	0x3ea96ca8	0.3309071
59	0x3f5083d9	0.81451184
60	0xbf8b7436	-1.089484
61	0xbeda3578	-0.42618918
62	0x3f0fd1f4	0.5617974
63	0xbe8cb810	-0.2748418

weight f4 [64, 64]
0	0xbd2bc9c4	-0.041940466
1	0xbd9636cd	-0.07334671
2	0xbd1f1cef	-0.038845953
3	0x3be62ee7	0.007024634
4	0x3df8bf9e	0.12145923
5	0xbdff3504	-0.12461284
6	0x3cadf4e0	0.02123493
7	0x3c5aa497	0.013344905
8	0x3cbd8f1e	0.023139533
9	0x3d51074a	0.051032342
10	0x3d3ad2a9	0.045611057
11	0xbdd3f3dd	-0.103492476
12	0xbd8e516a	-0.06949122
13	0x3d9a9986	0.075488135
14	0x3d4adaf0	0.0495252
15	0xbdbe68aa	-0.09297307
16	0x3dd150ca	0.102204874
17	0xbce87cf6	-0.028379899
18	0x3c832608	0.016009346
19	0xbcac3f80	-0.021026373
20	0xbd4fc64c	-0.05072622
21	0x3d5c1459	0.053730343
22	0xbd93db74	-0.07219592
23	0xbc4aeba0	-0.012385279
24	0xbd985f06	-0.07439999
25	0x3deabddf	0.11461996
26	0x3c98e9e0	0.018666208
27	0x3ceec2d0	0.029145628
28	0x3d0b42a8	0.033999115
29	0xbdeae488	-0.1146937
30	0x3cc2e164	0.023789115
31	0xbc98b598	-0.018641278
32	0x3dc65be2	0.09685494
33	0x3d9aa9ba	0.07551904
34	0x3ce7fc90	0.028318673
35	0x3ddb9ef0	0.10723674
36	0x3dc2d7cb	0.095138155
37	0xbdaabdaa	-0.08336957
38	0xbc387ff0	-0.011260971
39	0x3d2508c8	0.040291578
40	0x3d8ed084	0.06973365
41	0x3d9f7a90	0.07787049
42	0xbd318772	-0.04334206
43	0xbdcc071e	-0.09962295
44	0xbd9c489a	-0.07631035
45	0xbda6e362	-0.081488386
46	0x3c56cd30	0.013110444
47	0xbd37a428	-0.044834286
48	0xbd1c58f3	-0.038170766
49	0x3dd68c42	0.10475971
50	0x3c12b690	0.008954659
51	0xbd8b498c	-0.06801137
52	0xbda40f25	-0.08010701
53	0xbd190f58	-0.03736815
54	0x3df4d662	0.11954953
55	0x3c80e02a	0.01573189
56	0x3cfd4297	0.030915542
57	0xbdccf1ac	-0.10007033
58	0x3dce5826	0.10075407
59	0xbd7bd97a	-0.0614867
60	0xbd61bac8	-0.05510977
61	0x3d10b614	0.035329893
62	0xbdf9d1d5	-0.121982254
63	0xbc9c4798	-0.019077107
64	0x3b219140	0.0024653226
65	0x3d6ae452	0.05734665
66	0x3de0ee36	0.10982935
67	0xbe1b0869	-0.15139927
68	0xbc1a9db0	-0.00943701
69	0x3c97bc20	0.018522322
70	0xbdb75ff6	-0.0895385
71	0xbd82faa1	-0.0639546
72	0x3d848cbf	0.06472158
73	0x3d964eab	0.073392235
74	0x3d3b39c5	0.04570939
75	0x3b2667d7	0.0025391483
76	0x3d681f8c	0.05667071
77	0x3d91d058	0.071198165
78	0x3d01db54	0.03170331
79	0xbdcfb239	-0.10141415
80	0x3ceecba0	0.02914983
81	0xbd9bed02	-0.07613565
82	0x3d2c1234	0.042009547
83	0x3d24b92c	0.040215656
84	0xbcde35a0	-0.02712518
85	0xbc1bac13	-0.009501475
86	0x3c556340	0.013024151
87	0xbd3ba244	-0.045809045
88	0x3d52d5ec	0.051473543
89	0x3d1341b6	0.03595134
90	0x3dfe30ca	0.124116495
91	0x3d4ab1d0	0.04948598
92	0xbd65bed8	-0.056090206
93	0xbb5badc0	-0.003352031
94	0xbdaee326	-0.08539419
95	0x3c89fb00	0.016843319
96	0x3ce88368	0.028382972
97	0x3d851421	0.0649798
98	0xbd0e9f44	-0.034819856
99	0x3d407618	0.046987623
100	0x3ce22c8d	0.027609134
101	0x3d573e7c	0.052549824
102	0x3dde615e	0.10858415
103	0x3dcc1114	0.09964195
104	0xbde18c00	-0.11013031
105	0xbc1c7290	-0.009548798
106	0x3d88c680	0.06678486
107	0xbc809b90	-0.015699178
108	0x3da46393	0.08026805
109	0x3cb82b28	0.022481516
110	0x3d523b28	0.051325947
111	0xbc07cf50	-0.008289173
112	0x3d6c271b	0.05765448
113	0x3cf49ac0	0.029858947
114	0xbdda4c26	-0.106590554
115	0x3dbef0db	0.09323283
116	0xbdc57182	-0.096407905
117	0x3de6d4a6	0.11271028
118	0x3cf2bf10	0.029632121
119	0xbde9d8c1	-0.11418296
120	0xbd954060	-0.07287669
121	0xbd5441ae	-0.05182045
122	0x3df350b0	0.11880624
123	0xbdf05a98	-0.117360294
124	0xbc45738a	-0.012051472
125	0x3dde7afc	0.10863301
126	0xbdd1cca3	-0.102441095
127	0xbd0c11a4	-0.03419651
128	0xbcf724f8	-0.030168995
129	0xbe6b1de1	-0.22960617
130	0xbd2f730d	-0.04283433
131	0x3db1eb83	0.086874984
132	0xbdbb847c	-0.09156129
133	0x3df28ed0	0.118436456
134	0xbc9ede58	-0.019393131
135	0xbcab094c	-0.020878457
136	0xbd967391	-0.07346261
137	0xbd091edd	-0.0334767
138	0x3d1ea3fa	0.0387306
139	0xbdc434b7	-0.09580367
140	0x3d32ce9c	0.04365407
141	0xbccb0960	-0.024784744
142	0xbcaceb10	-0.02110818
143	0x3d7ed6e6	0.062216662
144	0xbdb2aad6	-0.087239906
145	0x3e5e2d31	0.21696927
146	0xbdd7086c	-0.10499653
147	0xbd5600ec	-0.052246973
148	0x3d8d673c	0.06904456
149	0x3dbe7f84	0.093016654
150	0xbd6ad0b0	-0.057327926
151	0x3d45b594	0.04826887
152	0x3da4e896	0.08052175
153	0xbc9b5ffa	-0.018966664
154	0xbda819cc	-0.08208045
155	0xbcd039ae	-0.025418129
156	0x3ddf7771	0.109114535
157	0xbd01726c	-0.03160326
158	0x3c34c9a1	0.0110344
159	0x3ddf6b8a	0.10909183
160	0x3db79546	0.089640185
161	0x3ca1ce17	0.019751592
162	0x3dc29bf8	0.09502405
163	0x3def6a60	0.11690211
164	0xbbabc4d2	-0.0052419687
165	0x3ca46d6c	0.020071708
166	0xbdc928ba	-0.09822221
167	0xbcc18d0e	-0.02362683
168	0x3ddac674	0.10682383
169	0xbd8e2dac	-0.06942305
170	0x3d5e0eeb	0.054213446
171	0x3d677998	0.056512445
172	0x3b4018a4	0.0029311562
173	0x3dde879e	0.10865711
174	0x3deca3fe	0.115547165
175	0xbd6c8454	-0.057743385
176	0x3db5a6b4	0.08869687
177	0x3b80b440	0.0039277375
178	0xbd9eb3fc	-0.07749173
179	0x3dec1db3	0.11529102
180	0x3cde4c6d	0.027136052
181	0xbc025a40	-0.007956088
182	0x3df8bdc8	0.12145573
183	0x3a00a283	0.00049070286
184	0xbd498a33	-0.049204063
185	0x3e7a8ceb	0.24467818
186	0xbd482530	-0.04886359
187	0xbc8486c4	-0.016177543
188	0xbe3d8bda	-0.1851038
189	0xbd9eb0ae	-0.07748543
190	0xbdb993f2	-0.090614215
191	0xbd61adc8	-0.05509737
192	0x3d356580	0.04428625
193	0x3cfbd825	0.030742714
194	0xbc1f8b30	-0.009737775
195	0xbd77a8de	-0.06046378
196	0x3dd544bc	0.10413501
197	0x3b118e40	0.0022210032
198	0x3d74a5cc	0.05972843
199	0x3ddaeb12	0.10689367
200	0xbc83716c	-0.016045295
201	0xbcd7800d	-0.026306177
202	0x3ce82fcb	0.028343102
203	0xbcb71e92	-0.022353444
204	0xbdba7134	-0.09103623
205	0x3da6297e	0.08113383
206	0x3d79588c	0.06087546
207	0x3d87af5f	0.06625246
208	0x3d982c32	0.074303046
209	0x3c7998d7	0.015234194
210	0xbd0e50f8	-0.034745187
211	0x3a863e06	0.0010241873
212	0x3d309c80	0.043118
213	0xbd643922	-0.05571855
214	0x3dc1a120	0.0945456
215	0xbcde13d8	-0.027109072
216	0x3c096ca0	0.008387715
217	0x3dce17c9	0.100631304
218	0x3d60f490	0.054920733
219	0xbd52dfb6	-0.05148288
220	0xbd8ea1ec	-0.06964478
221	0x3dc08cb2	0.094018355
222	0x3ceb5a3d	0.028729552
223	0x3dfde500	0.12397194
224	0xbc81a390	-0.015825063
225	0xbdfa906c	-0.122345775
226	0xbd98ccf8	-0.0746097
227	0xbdf50bfc	-0.119651765
228	0xbddf5c36	-0.1090626
229	0x3dd79163	0.10525777
230	0x3d1146d8	0.035467952
231	0xbccccf6f	-0.025001256
232	0xbc5a5200	-0.013325214
233	0x3df13bae	0.11778961
234	0x3dcfbaca	0.10143049
235	0x3c8a30c8	0.016868964
236	0x3d471fa2	0.04861415
237	0xbca37de8	-0.019957498
238	0x3ced8110	0.028992206
239	0x3d21d41c	0.039508924
240	0xbc2ac6e0	-0.010423392
241	0x3cf1e590	0.02952841
242	0xbd9fb8aa	-0.07798894
243	0x3d4d47fc	0.050117478
244	0x3d83f0b0	0.06442392
245	0x3ce2d9b8	0.027691707
246	0x3df62a94	0.1201984
247	0xbb801323	-0.0039085313
248	0xbe069d62	-0.13145974
249	0xbe9bf3a6	-0.30459327
250	0x3cf6f460	0.030145824
251	0x3d656467	0.056003954
252	0x3e238cf7	0.15971743
253	0x3d4a4d04	0.049389854
254	0xbcd271a2	-0.02568895
255	0x3df94e1e	0.12173103

bias f4 [64]
0	0x3dbd0c5a	0.092308715
1	0xbdb67222	-0.08908488
2	0x3d217fe2	0.0394286
3	0x3cda1fd0	0.026626498
4	0x3ab6f900	0.0013959706
5	0x3e2be7e8	0.16787684
6	0x3d1de704	0.03855039
7	0xbdd309a6	-0.10304575
8	0x3e8831e0	0.26600552
9	0xbc91b490	-0.017786294
10	0x3e2e465a	0.17019024
11	0xbd14d964	-0.036340132
12	0x3ea8acca	0.32944328
13	0x3ea23d6b	0.31687483
14	0x3e9ce345	0.30642143
15	0x3ccce210	0.025010139
16	0x3cd2a372	0.025712702
17	0xbdec7d5e	-0.115473494
18	0x3d0d3bc8	0.03448084
19	0xbd3132ac	-0.043261215
20	0x3c923d10	0.017851382
21	0x3e04c7e4	0.12966877
22	0x3edc5814	0.43035948
23	0x3d09c5a4	0.03363575
24	0x3e8fbc27	0.28073236
25	0x3d84325c	0.06454918
26	0x3e5d6e39	0.21624078
27	0xbd134b94	-0.03596075
28	0xbd89b3e4	-0.067237645
29	0x3d36e51c	0.04465209
30	0x3becab80	0.007222593
31	0xbd8e06aa	-0.06934865
32	0x3ea4a349	0.32155827
33	0x3d96aaa8	0.07356769
34	0x3de04769	0.109511204
35	0xbd5bde62	-0.053678878
36	0x3e0f14f5	0.13972838
37	0xbd9427ca	-0.07234152
38	0x3eb645e6	0.35600203
39	0x3d4c5fda	0.0498961
40	0xbd65e20e	-0.056123786
41	0x3d78fc0c	0.060787246
42	0xbd0da3e0	-0.03458011
43	0x3dd2ed16	0.10299127
44	0xbea05f97	-0.3132293
45	0x3d465160	0.04841745
46	0x3df0af90	0.11752236
47	0x3e3cadbc	0.1842565
48	0x3d3622d8	0.044466823
49	0x3d9ac75a	0.075575545
50	0xbe9d08ee	-0.30670875
51	0xbe63a868	-0.2223221
52	0xbe36c4f5	-0.1784857
53	0x3c1522d0	0.009102538
54	0x3dd76d88	0.10518938
55	0xbde79378	-0.11307424
56	0x3e3c8a4e	0.18412134
57	0xbd9de690	-0.07709992
58	0xbbb14ca0	-0.0054107457
59	0x3d826e07	0.06368642
60	0x3e17553f	0.14778613
61	0x3cf31fa8	0.02967818
62	0x3e510559	0.20412196
63	0xbe70b3ce	-0.2350609

weight f4 [190, 64]
0	0x3de24ffb	0.11050411
1	0xbddac747	-0.106825404
2	0xbde3168c	-0.11088285
3	0x3e0aa6a5	0.13540132
4	0x3d52ec8c	0.05149512
5	0x3dd21dab	0.10259565
6	0x3dc1a1fa	0.09454723
7	0x3da4fc34	0.080559164
8	0x3d69e66f	0.057104524
9	0xbd9047d0	-0.07044947
10	0xbdf45f91	-0.1193229
11	0x3d3298ec	0.04360287
12	0x3d96af50	0.07357657
13	0xbc597e7e	-0.013274787
14	0x3d9b234e	0.07575093
15	0xbdbf8082	-0.09350683
16	0xbd7ce6c5	-0.061743516
17	0xbd7fa310	-0.062411368
18	0xbca48e78	-0.020087466
19	0xbd372d5c	-0.044720992
20	0x3d7adc60	0.061245322
21	0x3d19bb8c	0.037532374
22	0xbd35096b	-0.044198435
23	0x3d1f85b8	0.038945884
24	0xbd87c46f	-0.066292636
25	0xbb16c1c0	-0.0023003668
26	0xbd8341cb	-0.064090334
27	0xbdad8ea6	-0.08474474
28	0x3d1be15d	0.03805672
29	0x3d187de4	0.037229434
30	0xbd8959a4	-0.06706551
31	0x3d9a611e	0.07538055
32	0x3d9b9336	0.07596438
33	0xbd4ef110	-0.050522864
34	0x3cee5000	0.029090881
35	0x3da48578	0.0803327
36	0x3d1856db	0.037192207
37	0xbd5bc9cc	-0.053659245
38	0x3d2b66de	0.04184615
39	0x3bcff1b7	0.0063459533
40	0xbd438b37	-0.047740187
41	0xbd9d0694	-0.0766727
42	0x3c758b20	0.014986783
43	0xbdc2aa9e	-0.09505199
44	0x3d9e5760	0.07731509
45	0x3cba80c0	0.02276647
46	0x3d7ec3d0	0.06219846
47	0xbd59a414	-0.053134993
48	0x3d0335f8	0.03203389
49	0xbc1976c0	-0.009366691
50	0xbdb866db	-0.09003993
51	0x3d7e52a5	0.062090535
52	0xbc82e89a	-0.015980054
53	0x3dbd0d96	0.09231107
54	0xbdafe706	-0.08588986
55	0xbc8b0b68	-0.016973212
56	0xbd0a3b4d	-0.03374796
57	0x3d19bee0	0.03753555
58	0xbdc266e6	-0.094922826
59	0x3bc8769f	0.0061176564
60	0x3ddab1fd	0.1067848
61	0xbbb8aa00	-0.0056355
62	0x3d0ead04	0.03483297
63	0xbd72615d	-0.059174884
64	0x3cfb543b	0.030679813
65	0xbce46186	-0.027878534
66	0xbd981de2	-0.07427575
67	0xbb1bfe55	-0.0023802717
68	0xbd76da9c	-0.060267076
69	0x3b87ec44	0.004148038
70	0x3db653aa	0.089026764
71	0x3d2ba6ac	0.041906998
72	0xbdfdb676	-0.12388317
73	0x3df997c4	0.1218715
74	0xbcfaddbc	-0.03062331
75	0x3df2741a	0.11838551
76	0xbde72caf	-0.112878196
77	0x3d14b9dd	0.036310066
78	0xbd8558a7	-0.0651105
79	0x3dfb484c	0.12269649
80	0xbbf95e95	-0.007610152
81	0x3d4e9558	0.050435394
82	0x3de2936c	0.11063275
83	0x3b99b140	0.0046903193
84	0xbdf55392	-0.119788304
85	0xbd3dc14b	-0.046326917
86	0xbc96a4cc	-0.018389128
87	0x3cef8130	0.029236406
88	0x3cdd9b3a	0.027051557
89	0x3c68bbc0	0.014204919
90	0x3d97ff72	0.07421769
91	0x3de6c4e2	0.11268021
92	0xbc4c61bb	-0.012474473
93	0xbd31a6b4	-0.04337187
94	0x3d8eeae2	0.06978394
95	0x3d187bf0	0.03722757
96	0x3d839d4a	0.06426485
97	0x3dde7784	0.108626395
98	0x3d4c9614	0.049947813
99	0x3daff261	0.08591152
100	0xbcacf542	-0.021113042
101	0x3da6849c	0.08130762
102	0x3ddd8113	0.108156346
103	0x3d410488	0.047123462
104	0xbda1e7bf	-0.0790553
105	0x3df531f0	0.119724154
106	0x3d38b574	0.045094922
107	0xbd8417c6	-0.06449847
108	0xbdbcb8f3	-0.09214964
109	0xbd173f84	-0.036925808
110	0xbd070d90	-0.03297192
111	0x3db4706f	0.088105075
112	0xbd9b1b28	-0.07573539
113	0xbdc192b0	-0.094518065
114	0x3d452d85	0.048139114
115	0xbda0a655	-0.07844225
116	0x3d7768e8	0.06040278
117	0xbd9ccc32	-0.07656135
118	0xbd253170	-0.04033035
119	0x3d1d73bc	0.03844045
120	0x3c88e08b	0.016708633
121	0x3dbeb6ac	0.09312186
122	0x3d29d11c	0.041459188
123	0xbda5675c	-0.08076355
124	0xbdd96d5a	-0.1061656
125	0x3cd7a610	0.026324302
126	0x3d972de8	0.07381803
127	0x3b91c321	0.00444831
128	0xbca14019	-0.019683884
129	0xbdd8e128	-0.1058982
130	0x3dad1834	0.08451882
131	0x3d7730f0	0.060349405
132	0xbdc097ee	-0.09403978
133	0x3bcc047f	0.006226122
134	0x3d1c6970	0.03818649
135	0x3de755ba	0.11295648
136	0xbd25610f	-0.040375765
137	0x3d84a624	0.06477001
138	0xbc7679bb	-0.015043671
139	0x3d832606	0.06403737
140	0x3dc55084	0.09634498
141	0xbd197b39	-0.03747103
142	0x3da6e83e	0.081497654
143	0x3db571c6	0.08859591
144	0x3df60beb	0.12013992
145	0x3d3e3528	0.046437413
146	0xbd7b7730	-0.061392963
147	0xbd8ef11c	-0.06979582
148	0x3dd1aa28	0.10237533
149	0x3c61f9c1	0.013792456
150	0x3c4c0066	0.012451267
151	0x3d07c558	0.033147186
152	0x3dce6881	0.10078526
153	0x3d6651ec	0.05623047
154	0x3da08d8a	0.078394964
155	0x3a436d00	0.0007454902
156	0x3d4b26ca	0.04959754
157	0x3d99a3ec	0.07501969
158	0x3c93e658	0.018054172
159	0x3de5684a	0.11201532
160	0x3c8c2976	0.017109614
161	0xbdccbfba	-0.099975064
162	0xbd91acf8	-0.07113069
163	0x3decb58c	0.11558065
164	0x3d879eda	0.066220954
165	0xbc35f3a0	-0.011105448
166	0x3b59d756	0.0033239922
167	0xbcd801a1	-0.026367964
168	0xbde1d21f	-0.110264055
169	0xbbe63360	-0.0070251673
170	0xbd1b2ff4	-0.03788753
171	0xbd4da0ad	-0.05020206
172	0xbbac603d	-0.005260496
173	0xbdb2a686	-0.08723168
174	0xbdc127fc	-0.094314545
175	0xbdb7bd76	-0.08971684
176	0x3dd147b6	0.10218756
177	0x3d475f3c	0.048674807
178	0x3d8a9be5	0.06768016
179	0x3d999418	0.0749895
180	0xbce190ca	-0.027534861
181	0x3de17a0a	0.11009605
182	0x3d91b3ee	0.07114397
183	0xbd53f238	-0.05174467
184	0xbd88169e	-0.06644939
185	0x3d03e984	0.03220512
186	0xbcfac508	-0.03061153
187	0xbde50a47	-0.11183601
188	0xbca1e966	-0.019764613
189	0xbdba8d42	-0.09108974
190	0x3bef75ae	0.0073077297
191	0x3d42eb51	0.047587696
192	0x3dc26afd	0.09493063
193	0x3dd8f828	0.10594207
194	0x3d5aa589	0.053380523
195	0xbc443da4	-0.011977587
196	0xbd8de37e	-0.06928156
197	0xbd9d3667	-0.07676392
198	0x3da39e20	0.07989144
199	0xbcc784b8	-0.024355277
200	0xbc81453c	-0.015780084
201	0xbdc3ef6c	-0.095671505
202	0xbd71f137	-0.05906793
203	0x3c9c4a08	0.01907827
204	0x3c82d37a	0.01596998
205	0xbca05282	-0.019570593
206	0xbd49a2ff	-0.04922771
207	0xbce935a0	-0.028467953
208	0x3d72a09a	0.059235193
209	0xbdf724f0	-0.12067592
210	0xbd4905fc	-0.049077973
211	0xbddc40b0	-0.10754526
212	0x3dfe38d2	0.12413181
213	0xbca26770	-0.019824713
214	0x3c4f6a88	0.012659676
215	0xbd8640a6	-0.065552995
216	0x3e00c526	0.12575206
217	0x3da2c90e	0.079485044
218	0xbccd5d02	-0.025068764
219	0xbdd27bc8	-0.10277516
220	0x3d8cca13	0.0687448
221	0x3d00e330	0.031466663
222	0xbdb511ee	-0.088413104
223	0x3dd8c96c	0.10585293
224	0xba837b50	-0.0010031257
225	0xbd3b7040	-0.045761347
226	0xbda8ae02	-0.08236314
227	0x3d14a8bf	0.03629374
228	0x3ca967d9	0.020679401
229	0x3bbba400	0.0057263374
230	0x3dc2c7c1	0.09510756
231	0xbcfe580c	-0.031047843
232	0xbdddc373	-0.108282946
233	0xbd1323fc	-0.03592299
234	0x3cbb1560	0.02283734
235	0x3d9bb9ef	0.076038234
236	0xbbb5254c	-0.005528128
237	0x3cbd0e30	0.023078054
238	0xbc952538	-0.018206224
239	0xbcc54778	-0.02408193
240	0x3d8b7b98	0.06810683
241	0x3ddcd8e2	0.107835546
242	0xbdd06b5f	-0.101767294
243	0xbd00bdbd	-0.03143095
244	0xbd807266	-0.0627182
245	0xbd1ff4c4	-0.039051786
246	0x3de14a5c	0.11000511
247	0xbd1e9730	-0.038718402
248	0xbd212e6d	-0.039350916
249	0x3dd8a856	0.105789825
250	0xbd8e00a2	-0.069337144
251	0xbd5df8ad	-0.054192234
252	0xbb46322d	-0.003024231
253	0xbd5bceac	-0.053663895
254	0xbcdb13f1	-0.026742907
255	0x3dc39c08	0.09551245

bias f4 [190]
0	0xbdd44a0e	-0.10365687
1	0x3cfe7051	0.031059416
2	0xbe2e7558	-0.1703695
3	0xbd87b4e4	-0.06626299
4	0x3e8fd95e	0.28095526
5	0xbdfba34e	-0.12287007
6	0x3d4250c5	0.04744031
7	0xbe4a5044	-0.19757181
8	0xbe503085	-0.20331009
9	0xbde8542b	-0.11344179
10	0xbe285636	-0.16439137
11	0xbe356e76	-0.17717919
12	0x3d13fade	0.036127917
13	0x3c82a210	0.015946418
14	0x3dbc6b2f	0.09200131
15	0xbbbd92fa	-0.0057853432
16	0x3ddd183d	0.10795639
17	0x3cff28a8	0.031147316
18	0xbdf8e334	-0.121527106
19	0xbb66153d	-0.0035107874
20	0x3d56c3e2	0.052432902
21	0xbdbe8176	-0.093020365
22	0xbd336a78	-0.04380271
23	0x3d9bedcf	0.07613718
24	0x3db9c867	0.09071427
25	0x3d4e6261	0.05038679
26	0xba3b9fe4	-0.00071573094
27	0x3cc51b8d	0.024060989
28	0x3d21aa31	0.039468948
29	0xbce2c92c	-0.027683817
30	0x3cd97799	0.026546286
31	0xbd42630f	-0.04745775
32	0x3d213136	0.03935357
33	0xbd8ec640	-0.06971407
34	0xbaf9d508	-0.0019060681
35	0x3ce12986	0.02748562
36	0xbd51beb3	-0.051207256
37	0x3d2c6cfc	0.042096123
38	0x3d867922	0.06566073
39	0x3da2f498	0.07956809
40	0xbd02d06f	-0.03193706
41	0x3d44a111	0.048005167
42	0x3e0c8c0c	0.13725299
43	0x3e47fff4	0.19531232
44	0x3d7883e8	0.06067267
45	0x3d2fddd8	0.042936176
46	0x3e129de2	0.1431804
47	0x3e4bbd72	0.19896486
48	0x3e075ad5	0.13218243
49	0x3dd8d77f	0.105879776
50	0x3e58b1e2	0.21161607
51	0x3e8b6857	0.27228042
52	0x3dfd093b	0.12355276
53	0x3e2672e6	0.16254768
54	0x3e5c7dc8	0.21532357
55	0x3e444500	0.19166946
56	0x3e9b4917	0.303292
57	0x3e8dd660	0.27702618
58	0x3e9ce070	0.30639982
59	0x3e209e4b	0.15685384
60	0x3ea0a88b	0.31378588
61	0x3e60335f	0.21894597
62	0x3e4fbdc7	0.20287238
63	0x3e62e197	0.22156368
64	0x3dca67c5	0.09883074
65	0x3e8065f0	0.25077772
66	0x3e473984	0.19455534
67	0x3e8af37d	0.27138892
68	0x3e17de8c	0.14830989
69	0x3e80f284	0.25185025
70	0x3dfed35e	0.12442659
71	0x3e7db3f3	0.24775676
72	0x3e0ac39e	0.13551185
73	0x3e5f56bd	0.21810432
74	0x3dc37522	0.09543826
75	0x3d3e77f1	0.046501104
76	0x3e2f88fe	0.17142102
77	0x3dfdc0b6	0.12390272
78	0x3e6f491b	0.23367731
79	0x3e3dc2bd	0.18531318
80	0x3dd90acc	0.105977625
81	0x3e3a194d	0.18173714
82	0x3d94309b	0.07235833
83	0x3dd04d81	0.10171033
84	0x3e808c4e	0.25107044
85	0x3e4c9ea5	0.19982393
86	0x3e3cc7e5	0.18435629
87	0x3ce812bd	0.028329248
88	0x3e88e4d0	0.2673707
89	0x3e25c871	0.16189744
90	0x3e15e41f	0.14637803
91	0x3e0a9682	0.13533977
92	0x3d509826	0.05092635
93	0x3de13e70	0.10998237
94	0x3e53644f	0.20643733
95	0x3da9b62d	0.082867004
96	0x3e2ebd82	0.17064479
97	0x3dbe7e64	0.09301451
98	0x3e96d167	0.29456636
99	0x3e7b4097	0.24536358
100	0x3df20a3e	0.1181836
101	0x3d92ca7c	0.07167527
102	0x3de98c4a	0.11403711
103	0x3e2c2e24	0.16814476
104	0x3e80bd31	0.25144342
105	0x3e2e9b83	0.1705151
106	0x3e6517fb	0.22372429
107	0x3e505cd7	0.20347916
108	0x3db3a6d3	0.087720536
109	0x3ddc0624	0.10743359
110	0x3e208dc3	0.15679078
111	0x3e8577b1	0.2606788
112	0x3e72af23	0.23699622
113	0x3dfa1ece	0.12212907
114	0x3dfa3b8d	0.1221839
115	0x3e199018	0.14996374
116	0x3dbc6270	0.09198463
117	0x3e81b7bf	0.253355
118	0x3e9d02b6	0.3066613
119	0x3e8d2b12	0.27571923
120	0x3d5073ce	0.05089169
121	0x3e275308	0.16340268
122	0x3e71abae	0.23600647
123	0x3e2b305a	0.16717663
124	0x3ea1f605	0.3163301
125	0x3d84dd07	0.0648747
126	0x3e79f8a0	0.24411249
127	0x3e49d744	0.19711024
128	0x3dc4587f	0.09587192
129	0x3de31364	0.11087683
130	0x3e99e549	0.30057743
131	0x3e6563aa	0.224013
132	0x3e77e1be	0.24207208
133	0x3dab9170	0.083773494
134	0x3e1ee1d6	0.15515837
135	0x3e11a059	0.14221324
136	0x3e018ccd	0.12651367
137	0x3e65cfed	0.22442599
138	0x3e7db227	0.24774991
139	0x3dd6ec15	0.10494248
140	0x3e6327f9	0.22183217
141	0x3e7c309c	0.24627918
142	0x3e51991d	0.20468564
143	0x3e43596e	0.19077083
144	0x3e7de159	0.24792995
145	0x3e594dcb	0.21221082
146	0x3e269378	0.16267192
147	0x3e8364d2	0.25662857
148	0x3e90ff6a	0.28319865
149	0x3e8df514	0.27726042
150	0x3d8359cd	0.064136125
151	0x3dac16f1	0.08402813
152	0x3e00eba9	0.12589897
153	0x3e1c30e9	0.15253033
154	0x3e123576	0.14278206
155	0x3da90a8d	0.082539655
156	0x3df2c19e	0.11853336
157	0x3e586549	0.21132387
158	0x3e8d93a3	0.276517
159	0x3e1b56d1	0.15169837
160	0x3e407b41	0.18797018
161	0x3e6241a2	0.2209535
162	0x3e240e0e	0.16020986
163	0x3da4a921	0.08040071
164	0x3e8f594d	0.2799782
165	0x3dcfe507	0.101511054
166	0x3e7d6835	0.24746783
167	0x3e23a553	0.15981035
168	0x3e2e1b72	0.17002657
169	0x3e862f39	0.26207903
170	0x3ea28c2e	0.31747574
171	0x3e0d1baa	0.13780084
172	0x3e6bae09	0.23015608
173	0x3e888fbd	0.26672164
174	0x3e6a2667	0.22866212
175	0x3d5fb4f6	0.054615937
176	0x3e0fa687	0.14028369
177	0x3e3df4eb	0.1855046
178	0x3e52a3fc	0.20570368
179	0x3e661489	0.22468771
180	0x3df550f0	0.11978328
181	0x3e813b98	0.2524078
182	0x3e1177e1	0.14205886
183	0x3ea19ff8	0.3156736
184	0x3d7ab25a	0.061205246
185	0x3caa5613	0.020792997
186	0x3e2c3ef0	0.16820884
187	0x3dfa35db	0.12217303
188	0x3dfce5a6	0.123484895
189	0x3d04a8ff	0.03238773

data f4 [10, 191]
0	0x41200000	10.0
1	0x00000000	0.0
2	0x00000000	0.0
3	0x00000000	0.0
4	0x00000000	0.0
5	0x00000000	0.0
6	0x00000000	0.0
7	0x00000000	0.0
8	0x00000000	0.0
9	0x00000000	0.0
10	0x00000000	0.0
11	0x00000000	0.0
12	0x00000000	0.0
13	0x00000000	0.0
14	0x00000000	0.0
15	0x00000000	0.0
16	0x00000000	0.0
17	0x00000000	0.0
18	0x00000000	0.0
19	0x00000000	0.0
20	0x00000000	0.0
21	0x00000000	0.0
22	0x00000000	0.0
23	0x00000000	0.0
24	0x00000000	0.0
25	0x00000000	0.0
26	0x00000000	0.0
27	0x00000000	0.0
28	0x00000000	0.0
29	0x00000000	0.0
30	0x00000000	0.0
31	0x00000000	0.0
32	0x00000000	0.0
33	0x00000000	0.0
34	0x37e27e0f	2.7e-05
35	0x39817fc7	0.000247
36	0x3adc3372	0.00168
37	0x3c09f40a	0.00842
38	0x3ce85fd0	0.028366
39	0x3d9bfe7e	0.076169
40	0x3e2466b2	0.160548
41	0x3e92e98a	0.286938
42	0x3eebe3e3	0.460723
43	0x3f2ebae0	0.682539
44	0x3f72b92c	0.948138
45	0x3fa0f8c6	1.257592
46	0x3fca9785	1.582749
47	0x3ff6f167	1.929242
48	0x400fa57f	2.244476
49	0x4021e8d9	2.529837
50	0x40309e4d	2.759662
51	0x403c5fee	2.943355
52	0x40452863	3.08059
53	0x404ae415	3.170171
54	0x404e1d04	3.220521
55	0x404ea53c	3.228835
56	0x404dc448	3.215105
57	0x404baf4f	3.182575
58	0x40481e3f	3.126846
59	0x40443290	3.065586
60	0x403f7d46	2.992021
61	0x403a315d	2.909263
62	0x403491e2	2.821404
63	0x402ecc60	2.731224
64	0x40291f5c	2.642539
65	0x40234e33	2.551648
66	0x401d571d	2.458442
67	0x401717d7	2.36083
68	0x40108d37	2.258619
69	0x400a31e8	2.159296
70	0x40042f27	2.065378
71	0x3ffbb880	1.966568
72	0x3ff0e27e	1.881912
73	0x3fe624ee	1.798002
74	0x3fdd6380	1.729599
75	0x3fd56b1a	1.667331
76	0x3fce51a0	1.611866
77	0x3fc8aaa8	1.567708
78	0x3fc49258	1.535716
79	0x3fc13d86	1.50969
80	0x3fbf95a3	1.496754
81	0x3fbec58f	1.490404
82	0x3fbf01da	1.492244
83	0x3fc01c82	1.50087
84	0x3fc2ba0f	1.521303
85	0x3fc593ee	1.543577
86	0x3fc936ce	1.571985
87	0x3fcdf013	1.608889
88	0x3fd26fbd	1.644035
89	0x3fd79610	1.684267
90	0x3fdcd09a	1.725116
91	0x3fe1d55e	1.764324
92	0x3fe6faf8	1.804534
93	0x3feb7aff	1.839691
94	0x3fefdd7f	1.873947
95	0x3ff3df2b	1.905248
96	0x3ff6cd29	1.928136
97	0x3ff9ad75	1.950606
98	0x3ffbf1b7	1.968314
99	0x3ffd3faf	1.978506
100	0x3ffddde3	1.983334
101	0x3ffe0cd8	1.984767
102	0x3ffdeb6c	1.983747
103	0x3ffd388b	1.978288
104	0x3ffbf299	1.968341
105	0x3ffa32c2	1.954674
106	0x3ff822ff	1.938568
107	0x3ff66a0a	1.925111
108	0x3ff3ddc2	1.905205
109	0x3ff13cde	1.88467
110	0x3fee6b94	1.862658
111	0x3feb0931	1.836218
112	0x3fe8496f	1.814741
113	0x3fe54e01	1.791443
114	0x3fe21ec5	1.766564
115	0x3fdf589f	1.744892
116	0x3fdc9342	1.723244
117	0x3fd9f080	1.702652
118	0x3fd79c7c	1.684463
119	0x3fd4d70e	1.662813
120	0x3fd30614	1.648623
121	0x3fd10731	1.633032
122	0x3fcf5a32	1.61994
123	0x3fcddae0	1.608242
124	0x3fcca52f	1.598791
125	0x3fcbb739	1.591529
126	0x3fca773e	1.581764
127	0x3fca1ab5	1.57894
128	0x3fc9f0a2	1.577656
129	0x3fc96d2b	1.573644
130	0x3fc97447	1.573861
131	0x3fc970b5	1.573752
132	0x3fc9793a	1.574012
133	0x3fc9c2d2	1.576258
134	0x3fca3455	1.579722
135	0x3fca5a8a	1.580888
136	0x3fcaaee2	1.583462
137	0x3fcb0963	1.586224
138	0x3fcb2c28	1.587285
139	0x3fcb64d0	1.589014
140	0x3fcb5558	1.588542
141	0x3fcb6651	1.58906
142	0x3fcb4f05	1.588349
143	0x3fcb3ac5	1.587731
144	0x3fcab35f	1.583599
145	0x3fca98ab	1.582784
146	0x3fca0453	1.578257
147	0x3fc95211	1.572817
148	0x3fc899c8	1.567193
149	0x3fc7bdcf	1.56048
150	0x3fc70fae	1.555166
151	0x3fc5e6d6	1.546107
152	0x3fc52c9d	1.540424
153	0x3fc43822	1.532963
154	0x3fc2d83c	1.522224
155	0x3fc1be3c	1.513618
156	0x3fc0be49	1.505807
157	0x3fbf7b31	1.495947
158	0x3fbe60fe	1.487335
159	0x3fbd2a30	1.47785
160	0x3fbc05f7	1.468932
161	0x3fbaf788	1.460679
162	0x3fb9e015	1.452151
163	0x3fb8e98a	1.444627
164	0x3fb79a5b	1.434398
165	0x3fb6e714	1.428927
166	0x3fb5f2b2	1.421469
167	0x3fb502de	1.41415
168	0x3fb40b56	1.406596
169	0x3fb37add	1.402187
170	0x3fb2881e	1.394779
171	0x3fb1ef17	1.390109
172	0x3fb165d4	1.38592
173	0x3fb0d1c8	1.381402
174	0x3fb029bf	1.376274
175	0x3fafd745	1.373757
176	0x3faf4730	1.36936
177	0x3faeb778	1.364974
178	0x3fae655a	1.362468
179	0x3fadb353	1.357035
180	0x3fad2c49	1.352914
181	0x3facdd94	1.350512
182	0x3fac2974	1.345015
183	0x3fabdc1e	1.342655
184	0x3fab75b0	1.339529
185	0x3fab137b	1.336532
186	0x3faa7c42	1.331917
187	0x3faa00da	1.328151
188	0x3fa9716d	1.323774
189	0x3fa8db73	1.319197
190	0x3fa830ba	1.313987
191	0x41a00000	20.0
192	0x00000000	0.0
193	0x00000000	0.0
194	0x00000000	0.0
195	0x00000000	0.0
196	0x00000000	0.0
197	0x00000000	0.0
198	0x00000000	0.0
199	0x00000000	0.0
200	0x00000000	0.0
201	0x00000000	0.0
202	0x00000000	0.0
203	0x00000000	0.0
204	0x00000000	0.0
205	0x00000000	0.0
206	0x00000000	0.0
207	0x00000000	0.0
208	0x00000000	0.0
209	0x00000000	0.0
210	0x00000000	0.0
211	0x00000000	0.0
212	0x00000000	0.0
213	0x00000000	0.0
214	0x00000000	0.0
215	0x00000000	0.0
216	0x00000000	0.0
217	0x00000000	0.0
218	0x00000000	0.0
219	0x00000000	0.0
220	0x00000000	0.0
221	0x00000000	0.0
222	0x00000000	0.0
223	0x00000000	0.0
224	0x36c9539c	6e-06
225	0x37c0f020	2.3e-05
226	0x394a600b	0.000193
227	0x3aa7c5ac	0.00128
228	0x3bd79d0a	0.00658
229	0x3cb369ba	0.021901
230	0x3d663a5c	0.056208
231	0x3df056c5	0.117353
232	0x3e561bf3	0.209091
233	0x3eaa6656	0.332812
234	0x3ef84d77	0.484966
235	0x3f2c7475	0.673652
236	0x3f6229a6	0.883448
237	0x3f8e44b7	1.111472
238	0x3fabab65	1.341168
239	0x3fc7b6d4	1.560267
240	0x3fe0d8a9	1.756612
241	0x3ff62479	1.922988
242	0x4003aaf8	2.05731
243	0x4009dd2f	2.154125
244	0x400e46dc	2.223075
245	0x4010a501	2.260071
246	0x40119829	2.274912
247	0x40114a62	2.270165
248	0x400fcd92	2.246922
249	0x400d81ba	2.211043
250	0x400a9f7b	2.165984
251	0x40074bcf	2.114002
252	0x4003d6e9	2.059992
253	0x3fff2abf	1.993492
254	0x3ff6e78a	1.928941
255	0x3feed35b	1.865825

exp_avg f4 [64, 1]
0	0x00000000	0.0
1	0xbd27e6d3	-0.040991616
2	0xbc443211	-0.011974827
3	0x3d19a904	0.0375147
4	0x00000000	0.0
5	0x00000000	0.0
6	0x00000000	0.0
7	0xbc1ab29f	-0.009442001
8	0x3b8ba697	0.0042618024
9	0x3ad4f5f1	0.0016247613
10	0x3b23108a	0.0024881684
11	0xbbaee5e2	-0.0053374628
12	0x00000000	0.0
13	0x00000000	0.0
14	0x00000000	0.0
15	0x3c2cca22	0.010546239
16	0x00000000	0.0
17	0x3d663bde	0.056209438
18	0x00000000	0.0
19	0xbb591bea	-0.003312821
20	0x00000000	0.0
21	0x3aed3ea0	0.0018100329
22	0x00000000	0.0
23	0x00000000	0.0
24	0x00000000	0.0
25	0x3ad5beb5	0.0016307445
26	0x00000000	0.0
27	0xbc19ca10	-0.009386554
28	0x3b4680e4	0.0030289227
29	0x00000000	0.0
30	0x3c04f3ab	0.008114736
31	0x00000000	0.0
32	0x00000000	0.0
33	0xbb5d60d6	-0.0033779643
34	0x00000000	0.0
35	0x00000000	0.0
36	0x3bd221c9	0.006412719
37	0x3ad76eb7	0.0016436194
38	0x00000000	0.0
39	0xbc892baa	-0.016744453
40	0x00000000	0.0
41	0x00000000	0.0
42	0x3bde6f1d	0.006788148
43	0x00000000	0.0
44	0xba1e027b	-0.00060275913
45	0x00000000	0.0
46	0x00000000	0.0
47	0x00000000	0.0
48	0x3a2b6258	0.00065377867
49	0x00000000	0.0
50	0x00000000	0.0
51	0x3b493c3c	0.0030706069
52	0x3c08bbb8	0.008345537
53	0x00000000	0.0
54	0x00000000	0.0
55	0x3bd66744	0.006543072
56	0xbaef9db4	-0.0018281252
57	0x3be67095	0.007032464
58	0x00000000	0.0
59	0xba11c992	-0.00055613474
60	0xbd60cf56	-0.05488523
61	0x00000000	0.0
62	0x3ac9b48c	0.001538889
63	0x00000000	0.0

exp_avg_sq f4 [64, 1]
0	0x00000000	0.0
1	0x3dc88858	0.097916305
2	0x3bc4bf51	0.006004252
3	0x3d9289ca	0.071551874
4	0x00000000	0.0
5	0x00000000	0.0
6	0x00000000	0.0
7	0x3bb9ccdf	0.0056701745
8	0x3ab3b488	0.0013710419
9	0x3a34e550	0.00069006253
10	0x396ac0fd	0.00022387873
11	0x3a6672e2	0.00087909226
12	0x00000000	0.0
13	0x00000000	0.0
14	0x00000000	0.0
15	0x3ba49e3e	0.0050237468
16	0x00000000	0.0
17	0x3e2db795	0.16964562
18	0x00000000	0.0
19	0x3ab279a6	0.0013616576
20	0x00000000	0.0
21	0x39903998	0.0002750873
22	0x00000000	0.0
23	0x00000000	0.0
24	0x00000000	0.0
25	0x3971e710	0.00023069629
26	0x00000000	0.0
27	0x3b94a84a	0.004536663
28	0x3a24728a	0.0006273171
29	0x00000000	0.0
30	0x3b8773ea	0.004133691
31	0x00000000	0.0
32	0x00000000	0.0
33	0x3a140622	0.0005646666
34	0x00000000	0.0
35	0x00000000	0.0
36	0x3ba623c5	0.005070182
37	0x39ba2f40	0.0003551189
38	0x00000000	0.0
39	0x3c5a5ec3	0.013328257
40	0x00000000	0.0
41	0x00000000	0.0
42	0x3b338749	0.0027393869
43	0x00000000	0.0
44	0x3a2407cb	0.0006257265
45	0x00000000	0.0
46	0x00000000	0.0
47	0x00000000	0.0
48	0x3a0f8881	0.0005475358
49	0x00000000	0.0
50	0x00000000	0.0
51	0x3a70c271	0.00091842475
52	0x3b4206b2	0.0029606041
53	0x00000000	0.0
54	0x00000000	0.0
55	0x3b555ae0	0.0032555386
56	0x39d79742	0.00041120691
57	0x3d6348a7	0.05548921
58	0x00000000	0.0
59	0x39363b60	0.00017378991
60	0x3e262fe9	0.16229214
61	0x00000000	0.0
62	0x39358fe6	0.00017315111
63	0x00000000	0.0

exp_avg f4 [64]
0	0x00000000	0.0
1	0xba2c1610	-0.0006564567
2	0xb9429171	-0.00018555463
3	0x3a1a2660	0.0005880352
4	0x00000000	0.0
5	0x00000000	0.0
6	0x00000000	0.0
7	0xb9105072	-0.00013762878
8	0x38ab2fba	8.162805e-05
9	0x381fe334	3.8120153e-05
10	0x37cfa442	2.4752811e-05
11	0xb88a7d62	-6.603707e-05
12	0x00000000	0.0
13	0x00000000	0.0
14	0x00000000	0.0
15	0x392cf666	0.00016494989
16	0x00000000	0.0
17	0x3a6c68ca	0.00090183003
18	0x00000000	0.0
19	0xb8c3d349	-9.3376795e-05
20	0x00000000	0.0
21	0x37df6659	2.6631331e-05
22	0x00000000	0.0
23	0x00000000	0.0
24	0x00000000	0.0
25	0x3718bd5e	9.1039965e-06
26	0x00000000	0.0
27	0xb912b985	-0.00013992756
28	0x37ad9726	2.0693591e-05
29	0x00000000	0.0
30	0x390b15ce	0.00013264196
31	0x00000000	0.0
32	0x00000000	0.0
33	0xb8036f20	-3.1336327e-05
34	0x00000000	0.0
35	0x00000000	0.0
36	0x38f703b6	0.00011778569
37	0x378f6504	1.7093967e-05
38	0x00000000	0.0
39	0xb989199b	-0.00026149754
40	0x00000000	0.0
41	0x00000000	0.0
42	0x38fdcd97	0.00012102274
43	0x00000000	0.0
44	0xb84c1467	-4.865639e-05
45	0x00000000	0.0
46	0x00000000	0.0
47	0x00000000	0.0
48	0xb6baf4e9	-5.5717433e-06
49	0x00000000	0.0
50	0x00000000	0.0
51	0x38463c60	4.7263107e-05
52	0x391362a8	0.00014055765
53	0x00000000	0.0
54	0x00000000	0.0
55	0x38e00df5	0.00010683752
56	0x36df06c5	6.646706e-06
57	0xb948bd91	-0.00019144105
58	0x00000000	0.0
59	0x36f1e6cc	7.209228e-06
60	0xba642e7e	-0.00087044376
61	0x00000000	0.0
62	0x378b77bd	1.6625849e-05
63	0x00000000	0.0

exp_avg_sq f4 [64]
0	0x00000000	0.0
1	0x389d6cdf	7.506622e-05
2	0x361b49e3	2.3139808e-06
3	0x383e578f	4.5381075e-05
4	0x00000000	0.0
5	0x00000000	0.0
6	0x00000000	0.0
7	0x3680a124	3.8334565e-06
8	0x34da2713	4.0634094e-07
9	0x35e1fe65	1.6837845e-06
10	0x3440bc0e	1.7949807e-07
11	0x346c1d90	2.1989968e-07
12	0x00000000	0.0
13	0x00000000	0.0
14	0x00000000	0.0
15	0x3531c7e6	6.622853e-07
16	0x00000000	0.0
17	0x38d2b763	0.00010047739
18	0x00000000	0.0
19	0x34d18b48	3.9030624e-07
20	0x00000000	0.0
21	0x351c651b	5.8261656e-07
22	0x00000000	0.0
23	0x00000000	0.0
24	0x00000000	0.0
25	0x33b226eb	8.29585e-08
26	0x00000000	0.0
27	0x364df9c0	3.0692754e-06
28	0x34b1b085	3.3097254e-07
29	0x00000000	0.0
30	0x35aae6d0	1.2733162e-06
31	0x00000000	0.0
32	0x00000000	0.0
33	0x354fe9b4	7.745359e-07
34	0x00000000	0.0
35	0x00000000	0.0
36	0x36b88747	5.4993757e-06
37	0x35564585	7.9822377e-07
38	0x00000000	0.0
39	0x36f45d63	7.2826383e-06
40	0x00000000	0.0
41	0x00000000	0.0
42	0x35a4f88d	1.229129e-06
43	0x00000000	0.0
44	0x34df096f	4.154385e-07
45	0x00000000	0.0
46	0x00000000	0.0
47	0x00000000	0.0
48	0x3591e9d0	1.087139e-06
49	0x00000000	0.0
50	0x00000000	0.0
51	0x341bf8d3	1.4526022e-07
52	0x3531ed0b	6.628258e-07
53	0x00000000	0.0
54	0x00000000	0.0
55	0x36602953	3.3402655e-06
56	0x355d6c99	8.2486946e-07
57	0x3968d2b7	0.00022203742
58	0x00000000	0.0
59	0x33c7aec6	9.298451e-08
60	0x38c023d7	9.161949e-05
61	0x00000000	0.0
62	0x34a63529	3.095859e-07
63	0x00000000	0.0

exp_avg f4 [64, 64]
0	0x00000000	0.0
1	0x00000004	6e-45
2	0x00000004	6e-45
3	0x00000004	6e-45
4	0x00000000	0.0
5	0x00000000	0.0
6	0x00000000	0.0
7	0x00000004	6e-45
8	0x00000004	6e-45
9	0x00000004	6e-45
10	0x00000004	6e-45
11	0x00000004	6e-45
12	0x00000000	0.0
13	0x00000000	0.0
14	0x00000000	0.0
15	0x00000004	6e-45
16	0x00000000	0.0
17	0x00000004	6e-45
18	0x00000000	0.0
19	0x00000004	6e-45
20	0x00000000	0.0
21	0x00000004	6e-45
22	0x00000000	0.0
23	0x00000000	0.0
24	0x00000000	0.0
25	0x00000004	6e-45
26	0x00000000	0.0
27	0x00000004	6e-45
28	0x00000004	6e-45
29	0x00000000	0.0
30	0x00000004	6e-45
31	0x00000000	0.0
32	0x00000000	0.0
33	0x00000004	6e-45
34	0x00000000	0.0
35	0x00000000	0.0
36	0x00000004	6e-45
37	0x00000004	6e-45
38	0x00000000	0.0
39	0x00000004	6e-45
40	0x00000000	0.0
41	0x00000000	0.0
42	0x00000004	6e-45
43	0x00000000	0.0
44	0x00000004	6e-45
45	0x00000000	0.0
46	0x00000000	0.0
47	0x00000000	0.0
48	0x00000004	6e-45
49	0x00000000	0.0
50	0x00000000	0.0
51	0x00000004	6e-45
52	0x00000004	6e-45
53	0x00000000	0.0
54	0x00000000	0.0
55	0x00000004	6e-45
56	0x00000004	6e-45
57	0x00000004	6e-45
58	0x00000000	0.0
59	0x00000004	6e-45
60	0x00000004	6e-45
61	0x00000000	0.0
62	0x00000004	6e-45
63	0x00000000	0.0
64	0x00000000	0.0
65	0xb95f760d	-0.00021310915
66	0xba2fd918	-0.00067080697
67	0xb9315d32	-0.00016914753
68	0x00000000	0.0
69	0x00000000	0.0
70	0x00000000	0.0
71	0xbb00abdf	-0.0019633693
72	0xbb43ea96	-0.0029894463
73	0xbadc9362	-0.0016828591
74	0xbb350c47	-0.0027625726
75	0xba9c6b76	-0.0011933881
76	0x00000000	0.0
77	0x00000000	0.0
78	0x00000000	0.0
79	0xbadd6fd3	-0.0016894288
80	0x00000000	0.0
81	0xb8d8dfa4	-0.00010341339
82	0x00000000	0.0
83	0xbae52758	-0.0017483039
84	0x00000000	0.0
85	0xbb09f01c	-0.0021047657
86	0x00000000	0.0
87	0x00000000	0.0
88	0x00000000	0.0
89	0xbb0a7b4b	-0.0021130617
90	0x00000000	0.0
91	0xbb1173ed	-0.0022194341
92	0xbac08af2	-0.0014689846
93	0x00000000	0.0
94	0xbb3580b1	-0.0027695114
95	0x00000000	0.0
96	0x00000000	0.0
97	0xbaab973e	-0.0013091338
98	0x00000000	0.0
99	0x00000000	0.0
100	0xbb398627	-0.002830872
101	0xbab203d9	-0.0013581469
102	0x00000000	0.0
103	0xbab3cead	-0.001371821
104	0x00000000	0.0
105	0x00000000	0.0
106	0xbaa1c686	-0.001234249
107	0x00000000	0.0
108	0xbaca34af	-0.0015427078
109	0x00000000	0.0
110	0x00000000	0.0
111	0x00000000	0.0
112	0xbb110743	-0.0022129572
113	0x00000000	0.0
114	0x00000000	0.0
115	0xbad20cd2	-0.0016025549
116	0xba831653	-0.001000116
117	0x00000000	0.0
118	0x00000000	0.0
119	0xb9690818	-0.00022223627
120	0xb9818b28	-0.00024708477
121	0x3842bc98	4.6428846e-05
122	0x00000000	0.0
123	0xbad46305	-0.0016203827
124	0xb98cc1cd	-0.00026847274
125	0x00000000	0.0
126	0xbb2564f1	-0.0025237168
127	0x00000000	0.0
128	0x00000000	0.0
129	0x3a72eef0	0.0009267172
130	0x3b2f8c80	0.0026786625
131	0x3a0c7a7a	0.00053588266
132	0x00000000	0.0
133	0x00000000	0.0
134	0x00000000	0.0
135	0x3bfc74e1	0.0077043627
136	0x3c3d39c7	0.01154942
137	0x3bd320ea	0.0064431326
138	0x3c2ea844	0.010660235
139	0x3b966b8b	0.004590457
140	0x00000000	0.0
141	0x00000000	0.0
142	0x00000000	0.0
143	0x3bd40245	0.006469997
144	0x00000000	0.0
145	0x3985c317	0.0002551309
146	0x00000000	0.0
147	0x3be05869	0.006846477
148	0x00000000	0.0
149	0x3c036e61	0.008021922
150	0x00000000	0.0
151	0x00000000	0.0
152	0x00000000	0.0
153	0x3c053200	0.008129597
154	0x00000000	0.0
155	0x3c0d6bd0	0.0086316615
156	0x3bb98505	0.005661609
157	0x00000000	0.0
158	0x3c2e43f9	0.010636323
159	0x00000000	0.0
160	0x00000000	0.0
161	0x3ba8d72f	0.005152605
162	0x00000000	0.0
163	0x00000000	0.0
164	0x3c312a6d	0.010813338
165	0x3baae834	0.005215669
166	0x00000000	0.0
167	0x3bb163ee	0.005413524
168	0x00000000	0.0
169	0x00000000	0.0
170	0x3b9b05af	0.004730902
171	0x00000000	0.0
172	0x3bc1854a	0.005905782
173	0x00000000	0.0
174	0x00000000	0.0
175	0x00000000	0.0
176	0x3c0a7955	0.008451779
177	0x00000000	0.0
178	0x00000000	0.0
179	0x3bc8fe7f	0.006133854
180	0x3b783028	0.00378705
181	0x00000000	0.0
182	0x00000000	0.0
183	0x3a55572f	0.00081382965
184	0x3a7fdb64	0.000976017
185	0xb7fc973c	-3.0111165e-05
186	0x00000000	0.0
187	0x3bca5fdc	0.006175978
188	0x3a990287	0.0011673727
189	0x00000000	0.0
190	0x3c1ef4d0	0.009701923
191	0x00000000	0.0
192	0x00000000	0.0
193	0x3994a4b3	0.0002835147
194	0x3a3a2936	0.0007101478
195	0x3897c009	7.2360104e-05
196	0x00000000	0.0
197	0x00000000	0.0
198	0x00000000	0.0
199	0x3b0169b8	0.0019746851
200	0x3b3bf4cc	0.0028679846
201	0x3acdc2c8	0.0015698308
202	0x3b2d0eaf	0.0026406457
203	0x3a941056	0.0011296372
204	0x00000000	0.0
205	0x00000000	0.0
206	0x00000000	0.0
207	0x3acebc0d	0.0015772596
208	0x00000000	0.0
209	0xb73b8b7e	-1.1178547e-05
210	0x00000000	0.0
211	0x3ae51461	0.0017477387
212	0x00000000	0.0
213	0x3afdaf8b	0.0019354684
214	0x00000000	0.0
215	0x00000000	0.0
216	0x00000000	0.0
217	0x3b03287c	0.0020013144
218	0x00000000	0.0
219	0x3b0e68a8	0.002172986
220	0x3ab75981	0.0013988466
221	0x00000000	0.0
222	0x3b2af3d9	0.0026085286
223	0x00000000	0.0
224	0x00000000	0.0
225	0x3aae218b	0.0013285143
226	0x00000000	0.0
227	0x00000000	0.0
228	0x3b2bcdd6	0.0026215217
229	0x3aa7a439	0.0012790031
230	0x00000000	0.0
231	0x3ab7e495	0.0014029915
232	0x00000000	0.0
233	0x00000000	0.0
234	0x3a977116	0.0011554088
235	0x00000000	0.0
236	0x3abc906e	0.0014386305
237	0x00000000	0.0
238	0x00000000	0.0
239	0x00000000	0.0
240	0x3b063eac	0.0020484133
241	0x00000000	0.0
242	0x00000000	0.0
243	0x3ac3c1df	0.0014935097
244	0x3a6c2155	0.00090076524
245	0x00000000	0.0
246	0x00000000	0.0
247	0x393ba3ad	0.00017894684
248	0x3984dbd7	0.00025340795
249	0x3831bf48	4.2378233e-05
250	0x00000000	0.0
251	0x3ac35462	0.0014902467
252	0x39bb369a	0.000357081
253	0x00000000	0.0
254	0x3b1c428f	0.0023843383
255	0x00000000	0.0

exp_avg_sq f4 [64, 64]
0	0x00000000	0.0
1	0x30cd4bcb	1.4937255e-09
2	0x34fcb681	4.7071447e-07
3	0x31e831e3	6.75776e-09
4	0x00000000	0.0
5	0x00000000	0.0
6	0x00000000	0.0
7	0x369b1de3	4.6228392e-06
8	0x372a99c7	1.0168594e-05
9	0x36597b32	3.240723e-06
10	0x370f795f	8.551723e-06
11	0x35de820f	1.6578141e-06
12	0x00000000	0.0
13	0x00000000	0.0
14	0x00000000	0.0
15	0x36508298	3.107043e-06
16	0x00000000	0.0
17	0x322072d5	9.3393355e-09
18	0x00000000	0.0
19	0x36755c35	3.6561516e-06
20	0x00000000	0.0
21	0x36a2d5e7	4.8528777e-06
22	0x00000000	0.0
23	0x00000000	0.0
24	0x00000000	0.0
25	0x36a9e8f1	5.0637104e-06
26	0x00000000	0.0
27	0x36beaace	5.6823255e-06
28	0x3615737c	2.226995e-06
29	0x00000000	0.0
30	0x370f99c7	8.559268e-06
31	0x00000000	0.0
32	0x00000000	0.0
33	0x36040395	1.9671618e-06
34	0x00000000	0.0
35	0x00000000	0.0
36	0x37158f1d	8.914413e-06
37	0x360e43f8	2.1199212e-06
38	0x00000000	0.0
39	0x361b2d25	2.3123077e-06
40	0x00000000	0.0
41	0x00000000	0.0
42	0x35edf247	1.7728388e-06
43	0x00000000	0.0
44	0x3635a8e7	2.7069416e-06
45	0x00000000	0.0
46	0x00000000	0.0
47	0x00000000	0.0
48	0x36b2a031	5.323462e-06
49	0x00000000	0.0
50	0x00000000	0.0
51	0x36424dbd	2.8953502e-06
52	0x35983c4b	1.134243e-06
53	0x00000000	0.0
54	0x00000000	0.0
55	0x32ee68db	2.775453e-08
56	0x335d7452	5.1561365e-08
57	0x2ccf22a8	5.8871415e-12
58	0x00000000	0.0
59	0x3647b3be	2.9757934e-06
60	0x2fad7eef	3.1558708e-10
61	0x00000000	0.0
62	0x36e3a078	6.783808e-06
63	0x00000000	0.0
64	0x00000000	0.0
65	0x36d8ff0c	6.466993e-06
66	0x38a57720	7.890002e-05
67	0x363d95fc	2.8250497e-06
68	0x00000000	0.0
69	0x00000000	0.0
70	0x00000000	0.0
71	0x3a331be8	0.00068324665
72	0x3ac7f79b	0.0015256287
73	0x39fab8ea	0.00047821488
74	0x3aa9c50d	0.0012952402
75	0x397f4783	0.00024345335
76	0x00000000	0.0
77	0x00000000	0.0
78	0x00000000	0.0
79	0x39f88993	0.00047404747
80	0x00000000	0.0
81	0x35a36cdb	1.2176127e-06
82	0x00000000	0.0
83	0x3a0d8a06	0.000539929
84	0x00000000	0.0
85	0x3a405123	0.0007336309
86	0x00000000	0.0
87	0x00000000	0.0
88	0x00000000	0.0
89	0x3a4690c2	0.0007574671
90	0x00000000	0.0
91	0x3a5f5229	0.0008519018
92	0x39bb62ae	0.00035740942
93	0x00000000	0.0
94	0x3aa9425c	0.0012913453
95	0x00000000	0.0
96	0x00000000	0.0
97	0x399e9f8f	0.0003025499
98	0x00000000	0.0
99	0x00000000	0.0
100	0x3aaf6151	0.0013380443
101	0x39a40177	0.0003128161
102	0x00000000	0.0
103	0x39b18f8e	0.00033867027
104	0x00000000	0.0
105	0x00000000	0.0
106	0x39878429	0.00025847674
107	0x00000000	0.0
108	0x39d2562a	0.00040118519
109	0x00000000	0.0
110	0x00000000	0.0
111	0x00000000	0.0
112	0x3a54cb05	0.00081174105
113	0x00000000	0.0
114	0x00000000	0.0
115	0x39e21173	0.0004311908
116	0x392d8b68	0.00016550499
117	0x00000000	0.0
118	0x00000000	0.0
119	0x36def19c	6.6442426e-06
120	0x37281855	1.0019246e-05
121	0x343ce6eb	1.7592872e-07
122	0x00000000	0.0
123	0x39e67b7a	0.00043961016
124	0x372af093	1.0188803e-05
125	0x00000000	0.0
126	0x3a8b1a0c	0.0010612621
127	0x00000000	0.0
128	0x00000000	0.0
129	0x38302a85	4.200127e-05
130	0x39b96a5d	0.00035365197
131	0x377cd81c	1.5070687e-05
132	0x00000000	0.0
133	0x00000000	0.0
134	0x00000000	0.0
135	0x3b3ffb10	0.0029293932
136	0x3bd7675c	0.0065736007
137	0x3b062494	0.002046858
138	0x3bb79a55	0.0056031146
139	0x3a885c10	0.0010403413
140	0x00000000	0.0
141	0x00000000	0.0
142	0x00000000	0.0
143	0x3b070c08	0.0020606536
144	0x00000000	0.0
145	0x36aea8c5	5.2052515e-06
146	0x00000000	0.0
147	0x3b17acbf	0.0023143736
148	0x00000000	0.0
149	0x3b4f80f1	0.0031662548
150	0x00000000	0.0
151	0x00000000	0.0
152	0x00000000	0.0
153	0x3b55ceb4	0.0032624425
154	0x00000000	0.0
155	0x3b70add8	0.0036724713
156	0x3ace958e	0.0015761124
157	0x00000000	0.0
158	0x3bb69dcf	0.0055730115
159	0x00000000	0.0
160	0x00000000	0.0
161	0x3aab95d7	0.001309092
162	0x00000000	0.0
163	0x00000000	0.0
164	0x3bbcd33c	0.005762486
165	0x3aafab6d	0.0013402529
166	0x00000000	0.0
167	0x3abdc803	0.0014479164
168	0x00000000	0.0
169	0x00000000	0.0
170	0x3a90a41f	0.001103524
171	0x00000000	0.0
172	0x3ae1975b	0.0017211245
173	0x00000000	0.0
174	0x00000000	0.0
175	0x00000000	0.0
176	0x3b66d160	0.0035220012
177	0x00000000	0.0
178	0x00000000	0.0
179	0x3af31573	0.0018545821
180	0x3a3951fd	0.0007069407
181	0x00000000	0.0
182	0x00000000	0.0
183	0x3807f633	3.24158e-05
184	0x3843a214	4.664257e-05
185	0x35b6ef5f	1.3629723e-06
186	0x00000000	0.0
187	0x3af6cc22	0.0018829147
188	0x388b6acd	6.64793e-05
189	0x00000000	0.0
190	0x3b97d0a7	0.0046330276
191	0x00000000	0.0
192	0x00000000	0.0
193	0x370431bd	7.879394e-06
194	0x38b6af03	8.711035e-05
195	0x3644471c	2.9247667e-06
196	0x00000000	0.0
197	0x00000000	0.0
198	0x00000000	0.0
199	0x3a4425f4	0.0007482462
200	0x3ada9916	0.0016677703
201	0x3a08b7a5	0.00052153534
202	0x3ab9a770	0.001416428
203	0x398b4a99	0.00026567726
204	0x00000000	0.0
205	0x00000000	0.0
206	0x00000000	0.0
207	0x3a07da45	0.0005182366
208	0x00000000	0.0
209	0x359009cc	1.0731687e-06
210	0x00000000	0.0
211	0x3a1af6ec	0.0005911428
212	0x00000000	0.0
213	0x3a51bb8b	0.00080006634
214	0x00000000	0.0
215	0x00000000	0.0
216	0x00000000	0.0
217	0x3a58eb4d	0.00082748086
218	0x00000000	0.0
219	0x3a746ef4	0.00093243946
220	0x39cd5cd6	0.00039169815
221	0x00000000	0.0
222	0x3ab8dbcb	0.0014103589
223	0x00000000	0.0
224	0x00000000	0.0
225	0x39adcdb8	0.00033150404
226	0x00000000	0.0
227	0x00000000	0.0
228	0x3abf51c0	0.0014596507
229	0x39b2fe65	0.00034140344
230	0x00000000	0.0
231	0x39c2895e	0.0003710491
232	0x00000000	0.0
233	0x00000000	0.0
234	0x3993d3d4	0.0002819585
235	0x00000000	0.0
236	0x39e578bb	0.00043768235
237	0x00000000	0.0
238	0x00000000	0.0
239	0x00000000	0.0
240	0x3a686590	0.00088652316
241	0x00000000	0.0
242	0x00000000	0.0
243	0x39f6b6b8	0.00047056912
244	0x393cf050	0.000180186
245	0x00000000	0.0
246	0x00000000	0.0
247	0x36f49d49	7.290077e-06
248	0x373a1379	1.1090998e-05
249	0x33b84785	8.581177e-08
250	0x00000000	0.0
251	0x39fb2294	0.00047900213
252	0x3750adcc	1.2438231e-05
253	0x00000000	0.0
254	0x3a98231c	0.0011607143
255	0x00000000	0.0

exp_avg f4 [64]
0	0x00000004	6e-45
1	0xb8a04867	-7.6428805e-05
2	0x393afcad	0.00017832471
3	0xb78683a9	-1.6035354e-05
4	0x00000000	0.0
5	0xb84f0c41	-4.936406e-05
6	0x00000000	0.0
7	0x00000000	0.0
8	0x396757c3	0.0002206257
9	0x00000000	0.0
10	0x3967ffd2	0.00022125177
11	0x00000000	0.0
12	0x3978a18d	0.00023711305
13	0x392e9698	0.00016650034
14	0x398a6180	0.00026394054
15	0x00000000	0.0
16	0x00000004	6e-45
17	0x00000000	0.0
18	0x00000000	0.0
19	0x00000000	0.0
20	0x00000000	0.0
21	0x389ffc21	7.6286735e-05
22	0xb74eeec4	-1.2334149e-05
23	0x00000000	0.0
24	0x39812129	0.00024629504
25	0x00000000	0.0
26	0x38a0224c	7.635783e-05
27	0x00000000	0.0
28	0xb946de28	-0.00018965511
29	0x00000000	0.0
30	0x00000000	0.0
31	0x00000000	0.0
32	0xb8095603	-3.274345e-05
33	0x00000000	0.0
34	0x00000004	6e-45
35	0x00000004	6e-45
36	0x39782355	0.00023664285
37	0x00000000	0.0
38	0x39817bdf	0.00024697089
39	0x37dee56d	2.6571297e-05
40	0x00000004	6e-45
41	0x00000000	0.0
42	0x00000000	0.0
43	0xb86465da	-5.4454293e-05
44	0xb9c6abd5	-0.00037893528
45	0x00000000	0.0
46	0x00000000	0.0
47	0x394ab38c	0.00019331108
48	0x00000000	0.0
49	0x00000000	0.0
50	0xb97690ab	-0.00023514281
51	0xb97be35b	-0.00024021922
52	0xb8b5dadb	-8.6715176e-05
53	0x00000000	0.0
54	0x00000000	0.0
55	0x00000000	0.0
56	0x397570c3	0.00023407028
57	0x00000000	0.0
58	0x00000000	0.0
59	0xb6fe1755	-7.572506e-06
60	0x3954f60d	0.00020309557
61	0x00000000	0.0
62	0x3987792d	0.0002583949
63	0xb9913491	-0.0002769572

exp_avg_sq f4 [64]
0	0x30da550d	1.588576e-09
1	0x350e2bdc	5.2962946e-07
2	0x3640e934	2.8745972e-06
3	0x34e69568	4.2949546e-07
4	0x00000000	0.0
5	0x34f9214b	4.6404088e-07
6	0x00000000	0.0
7	0x00000000	0.0
8	0x37789bf4	1.4818263e-05
9	0x00000000	0.0
10	0x3636b4dd	2.722539e-06
11	0x00000000	0.0
12	0x36bcb5d0	5.6240024e-06
13	0x361ae75a	2.3082453e-06
14	0x36ddd144	6.610675e-06
15	0x00000000	0.0
16	0x2e32aa6a	4.0623872e-11
17	0x00000000	0.0
18	0x00000000	0.0
19	0x00000000	0.0
20	0x00000000	0.0
21	0x34b1371a	3.300891e-07
22	0x3835aa86	4.3312575e-05
23	0x00000000	0.0
24	0x36aced31	5.153612e-06
25	0x00000000	0.0
26	0x35942dfe	1.1040245e-06
27	0x00000000	0.0
28	0x36665482	3.432186e-06
29	0x00000000	0.0
30	0x00000000	0.0
31	0x00000000	0.0
32	0x381807fe	3.6247067e-05
33	0x00000000	0.0
34	0x2b291590	6.0070785e-13
35	0x31fa6714	7.2876762e-09
36	0x3685ee13	3.9914244e-06
37	0x00000000	0.0
38	0x36a1d3f1	4.822847e-06
39	0x34d372d7	3.938537e-07
40	0x31a1b293	4.7060182e-09
41	0x00000000	0.0
42	0x00000000	0.0
43	0x328612a8	1.5608137e-08
44	0x373ab291	1.112804e-05
45	0x00000000	0.0
46	0x00000000	0.0
47	0x3633ce1b	2.6793048e-06
48	0x00000000	0.0
49	0x00000000	0.0
50	0x3649f3b9	3.00932e-06
51	0x3670b3f5	3.5867536e-06
52	0x351908fa	5.7010004e-07
53	0x00000000	0.0
54	0x00000000	0.0
55	0x00000000	0.0
56	0x36be3a13	5.669202e-06
57	0x00000000	0.0
58	0x00000000	0.0
59	0x34e54479	4.2704394e-07
60	0x3657c9ae	3.215489e-06
61	0x00000000	0.0
62	0x36a6892a	4.9631535e-06
63	0x36c71089	5.932587e-06
