model.pth (torch, 720266 bytes, 18 tensors)

weight f4 [64, 1]
00000000: dabf b83e 1a28 34bc ac96 b33e 9f7c 5e3f
00000010: 52c4 a53e 9c29 09bf f0dc acbd 9d90 c73e
00000020: c51e 413f df33 793e ac77 f7be c452 4ebf
00000030: 2118 673e b006 923e 5d69 823e 44df 0f3f
00000040: b7d4 543f d1ef f93e 8035 fb3e 4d0e ba3d
00000050: 9e97 53bf 48b8 3ebf a81a 23be 7ac1 7bbf
00000060: 80d6 76be feb4 583f 847d 74bf 2aa4 143f
00000070: f0c5 dabe f8fe 763e cc7d 64bf 785a 6dbf
00000080: dc12 8fbe 7585 543f 1e7a 403f aaea 79bf
00000090: 6013 82be 51bb 2b3f 74a3 5bbf fe4b 30bf
000000a0: 00e6 43bf fd6b 8e3d f835 b4be 0451 173f
000000b0: d9c9 363e d233 62bf 3e83 113f c0e4 19be
000000c0: 40e3 14bd 6923 463f a20c 1bbf ca6d 083f
000000d0: 4036 dbbc 6bc6 6c3f 581a a1be b094 6ebf
000000e0: 5a05 463f 7387 ad3e d767 9d3e 1196 333e
000000f0: 7099 a9be 80ec 98be 4f4d 043f 10cb 02bf
0.3608387 -0.010995889 0.3507589 0.86908907 0.32376343 -0.53579116 -0.08440578 0.3897752
0.75437576 0.24336194 -0.4833349 -0.8059504 0.22567798 0.28520727 0.2547101 0.5620005
0.8313708 0.48815778 0.49064255 0.09084759 -0.82653224 -0.7449994 -0.15928137 -0.98342097
-0.24105263 0.8465117 -0.9550402 0.58062994 -0.4272914 0.241207 -0.8925445 -0.9271617
-0.27944076 0.8301614 0.75186336 -0.97623694 -0.25405407 0.670827 -0.85796285 -0.68865955
-0.7652283 0.06954191 -0.35197425 0.59107995 0.17850436 -0.8836032 0.56840885 -0.15028667
-0.036349535 0.7739778 -0.6056615 0.53292525 -0.026759267 0.9249026 -0.3146541 -0.9319563
0.77351916 0.33892402 0.30743286 0.17537715 -0.33124876 -0.29867935 0.51680464 -0.510911

bias f4 [64]
00000000: 7db4 70bf 2307 ca3f 4a00 3cbf e3b5 ca3e
00000010: a348 9b3f 00fc 0bbb 70a5 073e b897 5dbf
00000020: 9a29 173e c4fc b13f 000c 26bd 50e6 2c3e
00000030: 005b c1bf f29f 163f 7d04 7bbf 3954 243f
00000040: 1f46 58bf 44c6 eabf 0658 b6bf 2f72 6ebf
00000050: 94df c43e 5475 ba3e 10bc 22bf b82e e43e
00000060: 2c4d 073f c757 9d3f c014 6dbd 3569 d1bf
00000070: 5858 7ebf 081a b9bf b852 123f 508d 473e
00000080: 56a5 32bf f364 243f 8098 b8bf 001a 663b
00000090: 603e e93d d5a9 66bf 2ae4 0ebf 7c90 3dbf
000000a0: 8075 c13d cdc1 7d3e c054 32bf 8f30 a03f
000000b0: d5da 90be fc69 5ebf 24eb 833f 2c6e 8c3e
000000c0: 5894 6a3e 44e1 9d3f c837 1bbf ba03 7b3d
000000d0: 08f6 49bf 6da1 a3bf c431 edbe 8620 5b3f
000000e0: f9de 62bf 3bfd b33e 2591 cf3e 040d 8abf
000000f0: 9ef9 563f 8001 793d 9b7f 78bf e0cc 0b3e
-0.94025403 1.5783428 -0.7343794 0.39591894 1.2131542 -0.002135992 0.13246703 -0.8655963
0.14761963 1.3905263 -0.040538788 0.16884732 -1.5105896 0.5883781 -0.98053724 0.64191014
-0.84481996 -1.8341756 -1.4245613 -0.9314298 0.38451827 0.3641764 -0.6356821 0.44566894
0.5285213 1.2292413 -0.057881117 -1.6360232 -0.9935355 -1.4461069 0.5715747 0.194875
-0.6978353 0.64216536 -1.4421539 0.0035110712 0.1138885 -0.90102893 -0.558169 -0.7404859
0.094462395 0.2478096 -0.6966057 1.2514819 -0.28291956 -0.8688047 1.0306134 0.27427804
0.22908151 1.2334371 -0.6063199 0.06128285 -0.7889104 -1.2783638 -0.4632703 0.855965
-0.8862148 0.35154137 0.40540424 -1.0785222 0.83974636 0.060792446 -0.9706971 0.13652372

weight f4 [64, 64]
00000000: daac c8bd b8b0 cf3e 7580 48bb 9474 b13d
00000010: 4582 66bd d247 d53d 5ae5 8dbd c928 843d
00000020: dd9d 743d 2a03 51bd 202a e9bb b6da babd
00000030: d940 80bd a88c d9bd 1362 203b 5434 7b3c
00000040: 19f3 033d 9ebb 9bbd b1ad 9abd 1af4 93bd
00000050: 5248 f6bd 004a a2bc 6854 d1bd bce0 45bd
00000060: 78a9 f1bd 0a22 f13c 7c57 b83d e6fd 96bd
00000070: 1047 1b3c 67a6 ba3d 3a68 89bd 60a0 3c3d
00000080: 38f8 bfbc 4d3b fbbc b3b6 b5bd b695 cd3d
00000090: fc91 23bd 5ba1 05be cc18 4d3d 203b 273d
000000a0: a0c7 fabd 9bd8 373c 501a 113c b435 88bd
000000b0: 5bf5 a13d ec2f fdbd 7492 88bb a0b9 903b
000000c0: fe04 fe3d c505 e03d 4ce5 59bd 54cd f5bd
000000d0: 60d9 2dbc 82dc 6fbd 1cad b83d d20d 82bd
000000e0: 9ab8 913d 503b be3b 6512 afbd 713d 4a3d
000000f0: 3216 aabd a873 dd3d 6b0b a7bd 10d8 143d
00000100: 169e c4bd 3a90 533f 71b2 0bbe a56c c53b
00000110: 8894 e43d acdf ff3d a28c bfbd 904c 19be
00000120: 939b 9d3c d52f f93d 248c 833d a20c ac3d
00000130: cc52 f6bc aa87 7dbc 130c 08bd d895 ac3d
00000140: 2f4b 813c e619 21be 4c99 37bd a532 13bd
00000150: 90eb 3ebc 586c d0bc 309c 723d 32c4 823d
00000160: 905b c9bd f31b bb3d 601e 613d ab80 1b3d
00000170: 2842 dd3d f1dd 5abb 84ce acbd 888e 743d
00000180: fce8 e83d 4c83 e73b dca1 8dbc 40d7 28bb
00000190: e88c 353d ac67 15bc 8ee8 93bd 0646 863d
000001a0: 4ce9 253d e5bf a8bc 98de 2d3d 5739 bd3d
000001b0: ae84 a2bd 00dc 333a 0c2c b83d 0cb1 293d
000001c0: 446d 5b3d f1fc 9c3d e88b 7b3d afe7 9bbd
000001d0: 1832 67bd 2fa7 1cbd 186a d9bd 28ce 81bc
000001e0: 05f6 71bd 4220 393c 7fa0 0bbd 0939 b8bd
000001f0: 40cd 50bc 4c1d fb3d ddba 3f3d c0a6 463b
00000200: 64f6 e5bd 4c61 b63e f161 c73d 9381 fbbd
00000210: fdc4 743c 90e8 273c c454 823d d59e 863d
00000220: ff9b b13d f1f8 e4bc c2a4 943d 80a8 5b3c
00000230: e6ed 3c3d f89c 623d 6db7 613d fcc2 0dbe
00000240: 7b5c 33bd 2c16 9c3c 8688 cabc e3e7 08bb
00000250: 6491 aabd a8fd bcbc 9c8c 0abd 78fc 683d
00000260: 9e6c e7bd 66fa f3bd 3827 55bd f688 4c3c
00000270: 30f8 41bd 761e 8c3d 003a e83d da36 a2bd
00000280: aaf6 9dbd 5631 8c3c 88b8 b53d 3cde 4a3d
00000290: 9c93 8abd 7445 00be 0c97 6dbd d86a 76bd
000002a0: ec73 3bbd 98f4 a4bd 7c87 a7bd 2050 863d
000002b0: 6861 e73a 3aef d23d 324d b8bb f822 d03d
000002c0: fc53 03bd b1cb cd3d e0c6 883b 63a4 c9bd
000002d0: d0e5 1ebd cf03 7d3d 5a48 a33d e8c6 cebd
000002e0: 55f9 763d abed 33bd c173 37bd d69e be3d
000002f0: 88cf 983d 005a f53d a4ef a2bc 4c7e e73d
00000300: 6c18 57bd a052 823f a6fa b93d e188 ca3d
00000310: 0596 e53d d038 563c 0acf e83d 2772 083d
00000320: 3e54 b0bd 027c 113e f4ef 503d c4c7 8a3d
00000330: f193 14bd 3bd8 ec3b bef1 92bd 5e6b 433c
00000340: 3022 b7bd 23f6 2dbd b1e6 aabd 81b9 0cbe
00000350: 50de fabd 00d9 ecba 1afa f83d 1065 793c
00000360: f8c7 073d e2b3 6abd 905f ed3c d9a3 b0bd
00000370: 7c0e e1bd 2924 9abc 7a5b b83d 5eab edbd
00000380: 608d bfbd fda5 f63d ac26 443c 48c2 c6bc
00000390: 9e2e f1bd 35c3 d6bd 9c70 14bd 1453 c83d
000003a0: c083 11bd b2c9 db3d 8889 e2bd 1874 bdbd
000003b0: 58b6 6ebd 8c4f 44bd 26a2 a83d 421e e03d
000003c0: e073 59bd b4a1 973d c0d0 babb 3428 d4bb
000003d0: 8023 eb3b bd7c eb3c 3430 323d 68d5 d4bd
000003e0: c771 163d cfe8 053e afcc c2bd 0f83 1fbe
000003f0: 565f f33d 5c30 df3d cbd1 693d 64a2 363d
-0.09798594 0.40564513 -0.0030594144 0.08664814 -0.05627658 0.10414089 -0.06928511 0.06453092
0.059720863 -0.051028408 -0.0071156174 -0.09123747 -0.06262369 -0.10622531 0.002447252 0.0153323
0.032214258 -0.076041445 -0.0755266 -0.07224293 -0.12025513 -0.019810677 -0.10221177 -0.048310027
-0.11799902 0.029435176 0.09001061 -0.07372646 0.009477392 0.0911377 -0.06709333 0.046051383
-0.02343379 -0.030667925 -0.08872738 0.10038321 -0.039934143 -0.13049833 0.050072476 0.04082787
-0.12245107 0.011221076 0.008856371 -0.06650868 0.07908126 -0.12362656 -0.004167849 0.0044166595
0.12403296 0.109386005 -0.05319719 -0.12002054 -0.010610908 -0.058559902 0.09017393 -0.06350292
0.07115288 0.0058054104 -0.0854843 0.049375 -0.08305015 0.10813075 -0.08156475 0.036338866
-0.09600465 0.8264195 -0.13642289 0.0060249143 0.111611426 0.12493834 -0.093529955 -0.14970613
0.019239223 0.12167326 0.06423214 0.08400847 -0.030068778 -0.015474239 -0.03321464 0.08427018
0.01578292 -0.15732536 -0.04482393 -0.03593697 -0.011652842 -0.025442287 0.059230983 0.063850775
-0.09831917 0.0913619 0.05496061 0.037964504 0.10803634 -0.0033396448 -0.08437827 0.05970624
0.11372563 0.0070652124 -0.017289095 -0.0025763065 0.04432383 -0.009118956 -0.07222091 0.06556325
0.040505692 -0.020599315 0.04244861 0.09239452 -0.07935463 0.00068610907 0.08992776 0.04142861
0.053571 0.07665432 0.061412722 -0.076125495 -0.056444257 -0.038245376 -0.10615939 -0.015845373
-0.059072513 0.011299195 -0.034088608 -0.089952536 -0.012744248 0.12261447 0.046809066 0.0030311793
-0.11228636 0.35621107 0.09735478 -0.12280574 0.014939544 0.010248318 0.06363824 0.065732636
0.08672332 -0.027950736 0.072579876 0.013406873 0.046125315 0.05532548 0.05510657 -0.13843912
-0.043789368 0.019053541 -0.024723303 -0.0020890168 -0.08328512 -0.023070171 -0.0338255 0.056881398
-0.11300014 -0.11912994 -0.052039355 0.012483826 -0.04735583 0.068417475 0.113391876 -0.07920618
-0.07713063 0.017113369 0.08873087 0.049528345 -0.067664355 -0.12526494 -0.058005378 -0.060160488
-0.04576485 -0.08054465 -0.081801385 0.065582514 0.0017652931 0.10299535 -0.005624437 0.1016292
-0.032062516 0.10048617 0.0041740984 -0.098458074 -0.038793385 0.06177121 0.07972784 -0.10096532
0.060296375 -0.04392783 -0.044788126 0.09307639 0.074614584 0.11980057 -0.01988966 0.11303386
-0.052513525 1.0181465 0.090810105 0.09889389 0.112102546 0.013075069 0.113676146 0.03331199
-0.08609818 0.14207461 0.051010087 0.067763835 -0.0362739 0.007227925 -0.07175015 0.011927454
-0.089420676 -0.042471062 -0.08344782 -0.13742639 -0.12249434 -0.0018070042 0.12157078 0.015221849
0.03314969 -0.057300456 0.028976232 -0.086250015 -0.10989091 -0.01881607 0.09001823 -0.11604951
-0.09353137 0.120433785 0.011972111 -0.024262562 -0.1177647 -0.104864515 -0.036240205 0.09781471
-0.035526037 0.1073183 -0.11061388 -0.09250659 -0.058279365 -0.047927424 0.08234052 0.10943271
-0.053089023 0.07403889 -0.0057011545 -0.006474519 0.007175863 0.028746003 0.043503 -0.103922665
0.0367296 0.1307709 -0.095116965 -0.15577339 0.11883418 0.10897896 0.05708484 0.04458846

bias f4 [64]
00000000: a8e8 2a3e 04f0 a93e 1061 1abc 27d7 433f
00000010: 8471 c1bd 3ee6 84bd cfa0 273f f0d4 713c
00000020: 1687 0d3f 80bd 4b3d 385c c23d 0c98 213d
00000030: def0 cc3d 4d8e 653f 076c 923e 3e20 0dbd
00000040: 3cd9 543f 68e8 96bd c6eb cbbc 403d 58bd
00000050: c6ac 073f 8d20 16bc faf1 8cbd 7025 62bc
00000060: 418a b63d 0739 41be 31e5 003f 79ed 2a3f
00000070: f48e 09bd bee1 b6bd 2414 483d 704c 7abd
00000080: 6025 03bc f571 3e3f a4a5 e9bd cb44 61bd
00000090: 7d94 ce3e e643 e93e e63e d23d 7055 a0be
000000a0: 2658 803d aba0 253f 0449 00be b4af 053d
000000b0: 8c70 d2bd 7677 dc3d ac4f 603d 54fa 69bd
000000c0: c432 263e 0495 dfbd 26b0 103f a5a1 563d
000000d0: 8699 08be e02e 99bc 956f 073f 06b2 59bd
000000e0: 3d92 803e 982d af3d 7d93 aa3c 03a0 5cbe
000000f0: 492c 093b 8ea7 66bd 12a5 813d 94f8 5f3d
0.16690314 0.3319093 -0.009422556 0.7650017 -0.094454795 -0.06489228 0.6547975 0.014760241
0.5528425 0.04974127 0.094902456 0.039451644 0.10006879 0.8967026 0.28598043 -0.034454577
0.83143973 -0.07368547 -0.024892699 -0.052792788 0.52998006 -0.009163034 -0.06882091 -0.013802871
0.089130886 -0.1886941 0.5034972 0.66768605 -0.033583596 -0.08929776 0.048847333 -0.061108053
-0.008004516 0.74392635 -0.114085466 -0.054997247 0.40347663 0.45559615 0.10265903 -0.31315184
0.06266813 0.64698285 -0.12527853 0.032638267 -0.10275373 0.10764973 0.05476348 -0.057123497
0.16230303 -0.10917094 0.5651878 0.05240025 -0.13339815 -0.01869911 0.52904636 -0.053148292
0.2511157 0.08553618 0.020822281 -0.21545415 0.0020930937 -0.056312136 0.06330313 0.054680422

weight f4 [190, 64]
00000000: 9a46 4c3b 7276 84bd 64c4 8dbd 1ce0 703d
00000010: 9e39 ecbd fcb2 71bd eb54 12bd d813 883c
00000020: bed1 53bd 002b dfbd 437b 4bbd ba83 d9bd
00000030: a34a 00bd a1f3 72bc 0a90 053d 9094 633d
00000040: e59a 573d f4dd 103d 6d13 cbbd a001 a2bc
00000050: a551 053d 78ef 043d 16fd 3ebb c0a5 c6bd
00000060: 6cf7 10bd e506 bcbb 7ad7 793d f66f d6bc
00000070: 9cb6 363d 8c55 7abd 47bb 3abd de4e c4bd
00000080: 804e e53c 80f4 bebb 1a04 f1bd 13bc d7bd
00000090: bb0c eebb 0fab b9bb 24bc 0d3d 40fc f23c
000000a0: 0043 473c bff6 963c 78f9 4fbb 28f6 bebd
000000b0: 0240 8fbd 40e7 d2bc f423 c23d 288c aebc
000000c0: 2841 8fbd 384b cf3c f290 dbbd 8b92 013e
000000d0: d8a9 753c f897 993d 7bd6 ef3d 583b 793d
000000e0: 67b4 c83c c461 98bd 9ebf 9cbd 04a6 4ebc
000000f0: dc63 e73d 157e 06bd 58e7 f5bd b427 763d
00000100: 1480 a43d c9b1 d6bb 7407 babc c657 1bbd
00000110: a897 47bd 78a5 15bd 859a 013d 68d6 b7bd
00000120: e696 733c 18b5 d63d 17ee 453c 3027 833d
00000130: 9d06 9f3d a6e8 74bc efa8 85bd 9fc4 a43d
00000140: c065 0a3d 287f c0bd 815f d7bc fc24 d5bd
00000150: 0d32 283c 0851 bfbc 9c9f c2bd b23d 9f3d
00000160: 0be7 a03d 238e fc3c 54f9 fabc dbdb 62bc
00000170: 4477 35bd 78a2 a03c ad3b dbbd 682d b83c
00000180: 2089 c53c b6d4 a5ba b8a8 f23d 909d e73d
00000190: 83c5 6d3d bead 0a3c 4941 243d e319 49bd
000001a0: 3ac0 8abd 220a 853d 3d69 9d3d a857 563d
000001b0: e066 963b ec7a cdbd e22f c53d 50d8 e9bc
000001c0: 65b1 21bc 5c26 c23d 500d b1bd c279 9fbd
000001d0: 773f 5c3d 7655 c93d 955a 98bc de8f 20bd
000001e0: b449 0f3b 0ec9 d73d ffdb acbc 9da6 9e3c
000001f0: 7a9d 263d 7732 74bd 7866 efbc 002b f33a
00000200: c2d5 563c c1ee 5c3a e514 be3c 05f8 eebb
00000210: 8010 58bd a036 12bc 90f2 a5bc ea2a 9f3d
00000220: e00d 233a 8c16 d7bd 12fc dc3c b888 54bd
00000230: e3fc 44bc 2cb3 323c f744 84bc ae0b c2bb
00000240: 935f 1e3c a44f 6f3d b479 eabd a00a 403d
00000250: d5b7 29bb 9f8f 163d 2d65 eb3d a627 bf3d
00000260: 573b f7bd f5b0 7cbc a3b4 37ba 0d4c 29bb
00000270: 249d fbbd 1e2d cebd 3a7d 863d 208b 643d
00000280: b003 113c 139f e63b 60a2 a2bb 9312 b9bb
00000290: 47a8 a63d 5dd6 003c 0948 d13d 7c13 0bbc
000002a0: c419 ecbd 79bc b1bc 2948 d8bc e018 65bd
000002b0: d8b1 8c3d cc82 5f3d 0cb3 823d 4018 e9bb
000002c0: f2aa 01bb 8e29 d8bd 973a 1dbc 8ef0 75bd
000002d0: 5a2e e33c 1413 a13d 0f23 ddbc 2229 f23c
000002e0: 46f8 af3b 8089 67bc 9573 9ebd 1c62 37bd
000002f0: 6211 fcbc c821 aa3d 404e f9bd 98af 9f3d
00000300: 3299 363d e94e 3a3d ca38 973d a35f 4c3b
00000310: 70b3 b1bd 6050 5d3c 4a82 873c 0056 c03a
00000320: e6eb 123b a88b e1bd b842 49bc 9cd2 9f3d
00000330: defc 833c 61f7 b2bd 7063 bebc 3467 363d
00000340: 83aa 553d 20a2 d73d 707b 983d a29c 913d
00000350: 883c 29bb 0fb8 1e3c 2a88 b93d 5090 bf3d
00000360: 8956 ac3c 7172 6d3d ed0b 46bb f5b0 473c
00000370: 00c5 273a 7ae2 b43d 6c5b 6ebd 50a7 0abd
00000380: 06be 91bd de8c 82bc f688 9c3d 924f c83c
00000390: c4df 0d3d d4c4 2fbd 3526 be3a 8c67 09bd
000003a0: 9c65 ddbd 78f7 933d b6b3 b33d 54e2 c83d
000003b0: c88d 5e3d fce3 1dbd 0cff 3dbd f05b 9d3c
000003c0: 09bf adbc 9005 0d3d d23b b9bc ab67 213d
000003d0: 5909 103c d246 ea3d 81c1 88bd 427b b43c
000003e0: 5570 d63b f08b 50bc 24ec 4c3d 034f c43c
000003f0: 7fea 293d ccd9 8a3c a038 2fbd d024 ff3d
0.0031170011 -0.06467904 -0.06922224 0.058807477 -0.11534427 -0.059008583 -0.035725515 0.016611025
-0.051713698 -0.108968735 -0.0496781 -0.10620828 -0.03132118 -0.0148285935 0.03260807 0.055561602
0.052637953 0.03536792 -0.099158145 -0.019776165 0.032548565 0.032454938 -0.002914255 -0.09699583
-0.03539221 -0.0057381266 0.06099651 -0.026176434 0.044607744 -0.06111674 -0.045588758 -0.09585355
0.027991533 -0.0058274865 -0.117683604 -0.10533919 -0.007264701 -0.0056661437 0.034603253 0.029661298
0.01216197 0.018428205 -0.0031734388 -0.09324294 -0.069946304 -0.025745034 0.09479514 -0.021307066
-0.069948494 0.025304422 -0.107210055 0.12653558 0.014994107 0.07499689 0.11710831 0.06084761
0.024500085 -0.07440522 -0.076537356 -0.012612823 0.112983435 -0.032835085 -0.12007016 0.060096458
0.080322415 -0.0065519554 -0.022708632 -0.037925504 -0.048728615 -0.036534756 0.031641502 -0.089764416
0.01486752 0.1048376 0.012080691 0.06403959 0.07764933 -0.014948046 -0.06526362 0.08045315
0.033788443 -0.09399253 -0.026290657 -0.10407445 0.010265839 -0.023354068 -0.09503099 0.07775439
0.07856568 0.030829495 -0.030636467 -0.013846363 -0.044303194 0.019608721 -0.107047416 0.022482589
0.024113238 -0.0012651894 0.11848587 0.113093495 0.05804969 0.008464275 0.040101323 -0.049096953
-0.067749456 0.06496073 0.07686088 0.05232969 0.0045899004 -0.10033211 0.096282735 -0.028545529
-0.009868954 0.09479973 -0.08645117 -0.07786895 0.053771462 0.098307535 -0.01859788 -0.039199702
0.0021864 0.10536395 -0.021100996 0.019366557 0.040677525 -0.05961844 -0.029223666 0.0018552244
0.013112487 0.0008427911 0.023203323 -0.00729275 -0.05275011 -0.008924156 -0.020257264 0.07771857
0.0006220024 -0.10502347 0.026975665 -0.051888198 -0.0120231835 0.010906976 -0.016146166 -0.0059218025
0.009666341 0.05842556 -0.11448994 0.046885133 -0.0025896926 0.03675806 0.11493907 0.09333734
-0.12071865 -0.015423049 -0.0007007813 -0.0025832683 -0.122858316 -0.10067199 0.06566854 0.055796742
0.008850977 0.007038006 -0.0049632043 -0.005647966 0.08137565 0.007863608 0.10218818 -0.008488532
-0.11528352 -0.021696316 -0.026401596 -0.055931926 0.068698585 0.054568097 0.06381807 -0.0071134865
-0.001978573 -0.10554801 -0.009596488 -0.060043864 0.027732063 0.07864967 -0.026994256 0.02956063
0.0053701727 -0.014131904 -0.07736889 -0.0447713 -0.030770008 0.083072245 -0.12173128 0.07797164
0.044579692 0.04548541 0.073838785 0.0031184934 -0.08676803 0.013507932 0.016541619 0.0014674067
0.0022418438 -0.110129654 -0.012283973 0.078038424 0.016111787 -0.0873859 -0.023240775 0.044532016
0.052164566 0.1052897 0.07445419 0.071099535 -0.0025823433 0.009687438 0.09059174 0.09353697
0.021037357 0.057970468 -0.003021951 0.012188186 0.00063999 0.088322595 -0.058192655 -0.033850968
-0.07116322 -0.015936311 0.07643311 0.024452005 0.034637228 -0.04291232 0.0014507236 -0.033546016
-0.10810396 0.07224935 0.087745115 0.09808794 0.054334432 -0.0385475 -0.04638581 0.019208878
-0.021209257 0.034429133 -0.022611532 0.039405506 0.008791291 0.11439289 -0.06677533 0.02203143
0.0065441527 -0.012728676 0.05002989 0.023963457 0.0414834 0.016949557 -0.04277861 0.12458193

bias f4 [190]
00000000: c608 de3c b38c 51bc c5d9 883b e437 8f3d
00000010: 8d0e f23c dad5 fabc 917f 4fbd 7e61 83bd
00000020: 2a6e d1bb f7e5 303c 4fd2 8d3b 6d74 09bd
00000030: dccf 48bc 81cf 1f3c 6469 89bc 2517 ab3b
00000040: f850 39bd c9bd 493d 7a97 b6bc 7a09 833b
00000050: ae4e ce3c bd95 ca3c 0915 863c b995 c2ba
00000060: 8960 773c 22f1 cd3c da42 7e3d 8725 093d
00000070: c3cf 0c3d 8035 463d 07b3 4bbc a2c3 ca3c
00000080: c2b9 203c e9ec ea3c 60c1 d03b fa3e 25bc
00000090: 61a1 563c 065f d6bc 0e19 3d3d 262b f23d
000000a0: 69c5 b63d 587f 413e acc9 933e 15a6 de3e
000000b0: 58d5 ed3e f87b 013f b906 113f 8956 043f
000000c0: a2fd 253f 7052 2a3f 6068 2e3f f708 243f
000000d0: 1f66 1c3f ad02 273f 5259 2e3f 2337 4b3f
000000e0: 9473 293f 3431 283f 9408 1f3f 9e27 193f
000000f0: 384d 2b3f 605c 023f da39 0f3f 786e 453f
00000100: f749 1e3f cb8e 1a3f 3fb0 143f b687 1a3f
00000110: cf8e 1a3f b77e 1e3f 1b01 223f 7aea 243f
00000120: c781 093f 2fd4 ef3e c22c 133f 295d 073f
00000130: 4116 d83e 1f60 ce3e 6137 f73e e42d 063f
00000140: b32d 0e3f 0f4c 0e3f 6fb9 013f 56d1 173f
00000150: d031 0b3f 2c9e b93e 8a8a 153f cafc 043f
00000160: eadb d53e df81 f03e 5240 293f 8983 0c3f
00000170: d780 203f 3e86 203f f7cc 343f 3fdf 183f
00000180: e03c 073f c720 113f 2e17 193f 59f0 033f
00000190: 2818 2a3f 6c0f 313f 9f81 093f 4a4d 1c3f
000001a0: 45d6 393f 041a 383f dc2b 153f 41d1 123f
000001b0: 0336 c63e b0ce 093f 329f 2e3f 2fe3 383f
000001c0: afab 103f 050f 173f d676 0b3f 0c58 2b3f
000001d0: ddda 203f 51f5 343f 943f 0b3f f53d 2f3f
000001e0: 8b17 013f 0bef 143f 6803 1d3f 3a98 f83e
000001f0: a42e 233f 1518 1a3f 3b87 343f ffd6 1c3f
00000200: 1f41 103f 92ca ce3e 85fa 1b3f 7184 293f
00000210: ee67 0a3f a0b1 263f ada2 023f 0b22 213f
00000220: 4bf9 233f 31b1 f63e b8dc 203f 1e81 183f
00000230: a67c 3d3f 1d3a 2e3f 34a2 293f d638 3e3f
00000240: a7de 3c3f edb0 023f 7950 0f3f d01b 323f
00000250: a62b 353f 60e1 383f b17b 1f3f 0e91 063f
00000260: 4776 3a3f 2498 123f b62f 183f eade 343f
00000270: 6f5b 1c3f 3f9f db3e 5e84 0c3f 81e5 303f
00000280: cd78 013f e3df 223f 1703 183f 2b91 2c3f
00000290: 33fe 163f 29af d33e 924f 113f bbfe 293f
000002a0: b8ac 1b3f 13e2 0b3f 4fca 353f e688 b93e
000002b0: 968e 073f ac44 323f 5609 2c3f 9e79 0c3f
000002c0: 7d36 0e3f 575b 223f 9e31 113f eb86 333f
000002d0: 166c 053f 41b0 1a3f eb6f 2a3f 5b51 de3e
000002e0: c403 1e3f 3a99 183f 02e5 3b3f 54b4 e63e
000002f0: 17ef 293f 0421 1e3f
0.027103793 -0.012789893 0.004176351 0.06993082 0.029547954 -0.03061955 -0.050658766 -0.064150795
-0.0063913064 0.010797015 0.0043280493 -0.033558298 -0.012256589 0.009754063 -0.016773887 0.005221265
-0.045243233 0.04925326 -0.022289027 0.0039989324 0.025184002 0.024729604 0.016367452 -0.0014845646
0.015098699 0.025139395 0.062075473 0.033483054 0.034377825 0.048390865 -0.01243282 0.024751488
0.009809913 0.02867742 0.0063707083 -0.010085816 0.013099999 -0.026168358 0.046166472 0.11824636
0.08924372 0.18896234 0.288648 0.43486086 0.4645183 0.50579786 0.5665088 0.5169454
0.6484014 0.6653204 0.68128014 0.6407618 0.61093324 0.6523846 0.6810504 0.79381007
0.66191983 0.6570008 0.62122464 0.59826076 0.669147 0.50922203 0.5594765 0.77121687
0.6183161 0.60374135 0.5808143 0.6036333 0.6037416 0.619121 0.63282937 0.6442028
0.5371365 0.4684157 0.5749017 0.52876526 0.42204478 0.4030771 0.48284438 0.52413774
0.5553848 0.55584806 0.50673574 0.59303796 0.5437288 0.36253488 0.5841452 0.51948225
0.41769344 0.46974084 0.6611377 0.54888207 0.62696594 0.6270484 0.7062525 0.59715647
0.5282726 0.5669064 0.59800994 0.51538616 0.6644311 0.69164157 0.5371341 0.61055434
0.72592574 0.71914697 0.5827005 0.57350546 0.38713083 0.53831005 0.6821166 0.72221655
0.5651197 0.59007293 0.54478204 0.66931224 0.6283396 0.70686823 0.5439389 0.68453914
0.5042655 0.5817725 0.6133332 0.4855364 0.6374304 0.60192996 0.70518845 0.6126556
0.56349367 0.40388924 0.6092914 0.66217715 0.54064834 0.65114784 0.51029474 0.6294257
0.64052266 0.4818206 0.6283679 0.5957202 0.74018323 0.68057424 0.6626313 0.74305475
0.7377724 0.5105122 0.55982167 0.6957369 0.7076973 0.72218895 0.62298113 0.52565086
0.72836727 0.572634 0.594478 0.7065264 0.61077017 0.42894933 0.54889476 0.69100195
0.5057495 0.63622874 0.59379715 0.6740901 0.5898163 0.41344574 0.5676204 0.6640431
0.6081042 0.54641837 0.71011823 0.36237258 0.52951944 0.69636035 0.67201746 0.54873073
0.5555189 0.63420624 0.56716335 0.70127743 0.5211805 0.6042519 0.66577023 0.43421444
0.61724496 0.59608805 0.73396313 0.45059454 0.6638045 0.6176913

exp_avg f4 [64, 1]
00000000: 2403 b7b9 3e71 eb3b 21fd b9b9 4dbd d039
00000010: bbb2 7739 0000 0000 0000 0000 8c5d 04b9
00000020: 7bc8 7db7 1c41 303a 0000 0000 0000 0000
00000030: e2d9 43b9 98dd b039 a6d7 04b9 aa5f 2c39
00000040: 4a1d 6eb9 af5d 51b9 2f8f 16ba 1e09 67ba
00000050: 0000 0000 0000 0000 0000 0000 0000 0000
00000060: 0000 0000 615c 3b39 0000 0000 104b 1eba
00000070: 0000 0000 a6f5 e4b9 0000 0000 0000 0000
00000080: 0000 0000 9e3d e039 1c59 69b9 0000 0000
00000090: 0000 0000 8296 de38 0000 0000 0000 0000
000000a0: 0000 0000 333e 1939 0000 0000 68f5 c038
000000b0: 8d06 55b9 0000 0000 6184 5c39 0000 0000
000000c0: 0000 0000 590e 0a39 0000 0000 c7e0 48b8
000000d0: 0000 0000 c7d7 c4b7 0000 0000 0000 0000
000000e0: 1d27 10b9 a607 2039 4f36 8039 ea7d ecb9
000000f0: 0000 0000 0000 0000 1d91 8238 0000 0000
-0.0003490682 0.0071851304 -0.00035474545 0.00039813892 0.00023622338 0.0 0.0 -0.0001262335
-1.5126653e-05 0.0006723569 0.0 0.0 -0.00018677817 0.00033734436 -0.00012668836 0.00016438836
-0.0002270836 -0.00019966693 -0.0005743382 -0.0008813309 0.0 0.0 0.0 0.0
0.0 0.00017868124 0.0 -0.0006038407 0.0 -0.0004367057 0.0 0.0
0.0 0.00042770518 -0.00022253807 0.0 0.0 0.00010613819 0.0 0.0
0.0 0.00014614388 0.0 9.200984e-05 -0.00020315703 0.0 0.0002103015 0.0
0.0 0.0001316605 0.0 -4.7893056e-05 0.0 -2.34655e-05 0.0 0.0
-0.00013747481 0.00015261638 0.00024454526 -0.0004510724 0.0 0.0 6.2259125e-05 0.0

exp_avg_sq f4 [64, 1]
00000000: 30c5 c23b d1b7 683f 8886 df39 73ce 8f3b
00000010: dc10 103c 0000 0000 0000 0000 3167 0c3a
00000020: 04f8 ae39 f204 ed3b 0000 0000 0000 0000
00000030: ab04 103b 9e9e 9f3a 235f 583a 51aa 0b3b
00000040: 5663 0a3a e581 573b fd8e 7c3b 0b45 ac3c
00000050: 0000 0000 0000 0000 0000 0000 0000 0000
00000060: 0000 0000 c570 d83a 0000 0000 e484 303b
00000070: 0000 0000 f983 7d3b 0000 0000 0000 0000
00000080: 0000 0000 847e 6f3b 7092 393b 0000 0000
00000090: 0000 0000 ac94 513a 0000 0000 0000 0000
000000a0: 0000 0000 35b6 7d3a 0000 0000 41c1 ee3a
000000b0: 603a 983a 0000 0000 5df2 223b 0000 0000
000000c0: 0000 0000 3039 383a 0000 0000 03e6 fe39
000000d0: 0000 0000 07eb 5b3b 0000 0000 0000 0000
000000e0: 4ce0 c139 b7a5 143a 11a9 643a 07f8 893b
000000f0: 0000 0000 0000 0000 ffc9 973a 0000 0000
0.0059439167 0.9090548 0.00042634108 0.0043886243 0.008793082 0.0 0.0 0.0005355953
0.00033372652 0.0072332555 0.0 0.0 0.0021975439 0.0012178009 0.00082539226 0.0021311233
0.00052790844 0.003288382 0.0038537376 0.021029016 0.0 0.0 0.0 0.0
0.0 0.00165131 0.0 0.0026934678 0.0 0.0038683398 0.0 0.0
0.0 0.0036543915 0.0028316043 0.0 0.0 0.0007994871 0.0 0.0
0.0 0.0009678335 0.0 0.0018215553 0.0011614077 0.0 0.0024863698 0.0
0.0 0.00070275646 0.0 0.00048618027 0.0 0.0033556835 0.0 0.0
0.00036978943 0.00056704454 0.00087227026 0.0042104754 0.0 0.0 0.0011580585 0.0

exp_avg f4 [64]
00000000: 89d2 8bb7 990f 4839 4f31 3736 19d2 2937
00000010: 6206 df37 0000 0000 0000 0000 f1f1 8cb6
00000020: 03e3 5d35 2e85 8937 0000 0000 0000 0000
00000030: a05c 5bb7 05a8 1336 bfee aab6 ed35 1d37
00000040: b9e4 7336 c616 70b7 742f 20b7 b40d d4b7
00000050: 0000 0000 0000 0000 0000 0000 0000 0000
00000060: 0000 0000 0840 3637 0000 0000 e6bc cfb6
00000070: 0000 0000 ea72 3fb7 0000 0000 0000 0000
00000080: 0000 0000 eca5 0237 da74 51b7 0000 0000
00000090: 0000 0000 2d3c 0d35 0000 0000 0000 0000
000000a0: 0000 0000 aaa1 dc36 0000 0000 bd30 6237
000000b0: e240 cbb6 0000 0000 54b4 3237 0000 0000
000000c0: 0000 0000 d510 a0b5 0000 0000 c576 7536
000000d0: 0000 0000 6e68 95b7 0000 0000 0000 0000
000000e0: eb39 3736 ae85 3bb6 e5b8 bc34 4680 59b7
000000f0: 0000 0000 0000 0000 4336 5bb7 0000 0000
-1.666813e-05 0.00019079297 2.7297826e-06 1.0122102e-05 2.6586644e-05 0.0 0.0 -4.200491e-06
8.265926e-07 1.639369e-05 0.0 0.0 -1.3074983e-05 2.2002507e-06 -5.0941885e-06 9.370485e-06
3.6342956e-06 -1.4310417e-05 -9.547792e-06 -2.527875e-05 0.0 0.0 0.0 0.0
0.0 1.0862954e-05 0.0 -6.1910714e-06 0.0 -1.1411243e-05 0.0 0.0
0.0 7.7872355e-06 -1.2484577e-05 0.0 0.0 5.261416e-07 0.0 0.0
0.0 6.575331e-06 0.0 1.34819975e-05 -6.057425e-06 0.0 1.0651613e-05 0.0
0.0 -1.1925828e-06 0.0 3.6576978e-06 0.0 -1.7810813e-05 0.0 0.0
2.7302838e-06 -2.7942983e-06 3.5152257e-07 -1.2964074e-05 0.0 0.0 -1.3066051e-05 0.0

exp_avg_sq f4 [64]
00000000: 0d30 0336 db01 ad39 7504 1134 6040 8435
00000010: 028d 2536 0000 0000 0000 0000 c744 e633
00000020: fffb 1334 59e4 5736 0000 0000 0000 0000
00000030: 4101 d735 b666 d434 86d9 7134 2a9d d234
00000040: 0d33 4e34 436b 0736 c5c5 ec35 8171 c336
00000050: 0000 0000 0000 0000 0000 0000 0000 0000
00000060: 0000 0000 fb4d ea34 0000 0000 c1ab 3935
00000070: 0000 0000 eccb 1536 0000 0000 0000 0000
00000080: 0000 0000 fada 8d35 66de 6235 0000 0000
00000090: 0000 0000 59b1 6235 0000 0000 0000 0000
000000a0: 0000 0000 50ed ca34 0000 0000 b34d 3b35
000000b0: ea32 8634 0000 0000 0ca5 b735 0000 0000
000000c0: 0000 0000 8118 4b35 0000 0000 c5e0 df34
000000d0: 0000 0000 01eb 8035 0000 0000 0000 0000
000000e0: 968f b334 48e0 9434 3f5b 1435 88b1 c035
000000f0: 0000 0000 0000 0000 18fb b334 0000 0000
1.954849e-06 0.00032998514 1.3505799e-07 9.853502e-07 2.4668993e-06 0.0 0.0 1.072272e-07
1.3782117e-07 3.2170412e-06 0.0 0.0 1.6019113e-06 3.956281e-07 2.2524009e-07 3.92299e-07
1.9203817e-07 2.0179002e-06 1.7640929e-06 5.8246665e-06 0.0 0.0 0.0 0.0
0.0 4.3642635e-07 0.0 6.9167805e-07 0.0 2.2321428e-06 0.0 0.0
0.0 1.0569049e-06 8.4515193e-07 0.0 0.0 8.4449636e-07 0.0 0.0
0.0 3.77981e-07 0.0 6.9775996e-07 2.499649e-07 0.0 1.3682597e-06 0.0
0.0 7.565905e-07 0.0 4.1700528e-07 0.0 9.605138e-07 0.0 0.0
3.344582e-07 2.7730334e-07 5.5267077e-07 1.4356783e-06 0.0 0.0 3.3524043e-07 0.0

exp_avg f4 [64, 64]
00000000: 0400 0000 0400 0080 0400 0000 0400 0000
00000010: 0400 0000 0000 0000 0000 0000 0400 0000
00000020: 0400 0000 0400 0000 0000 0000 0000 0000
00000030: 0400 0000 0400 0000 0400 0000 0400 0000
00000040: 0400 0000 0400 0000 0400 0000 0400 0000
00000050: 0000 0000 0000 0000 0000 0000 0000 0000
00000060: 0000 0000 0400 0000 0000 0000 0400 0000
00000070: 0000 0000 0400 0000 0000 0000 0000 0000
00000080: 0000 0000 0400 0000 0400 0000 0000 0000
00000090: 0000 0000 0400 0000 0000 0000 0000 0000
000000a0: 0000 0000 0400 0000 0000 0000 0400 0000
000000b0: 0400 0000 0000 0000 0400 0000 0000 0000
000000c0: 0000 0000 0400 0000 0000 0000 0400 0000
000000d0: 0000 0000 0400 0000 0000 0000 0000 0000
000000e0: 0400 0000 0400 0000 0400 0000 0400 0000
000000f0: 0000 0000 0000 0000 0400 0000 0000 0000
00000100: 1a22 1439 8587 f937 6b2b 1439 9d32 d139
00000110: 9769 3439 0000 0000 0000 0000 8e74 2339
00000120: 084e b339 dda1 1239 0000 0000 0000 0000
00000130: f0e9 8e38 85e6 1339 3c91 c238 a5bd 8b39
00000140: e4fc b939 fb99 3b39 2924 4639 08cb a937
00000150: 0000 0000 0000 0000 0000 0000 0000 0000
00000160: 0000 0000 5171 d539 0000 0000 96a7 6b39
00000170: 0000 0000 557a a038 0000 0000 0000 0000
00000180: 0000 0000 67d7 ca39 7058 a039 0000 0000
00000190: 0000 0000 7a9f 9339 0000 0000 0000 0000
000001a0: 0000 0000 9e60 1a38 0000 0000 b894 9939
000001b0: febc 9a38 0000 0000 73ae 9139 0000 0000
000001c0: 0000 0000 884d c439 0000 0000 da59 7c39
000001d0: 0000 0000 19f5 ca39 0000 0000 0000 0000
000001e0: d1ea ab39 f39d 2739 7518 1a39 7396 6638
000001f0: 0000 0000 0000 0000 cdd9 5c39 0000 0000
00000200: 0400 0000 0400 0000 0400 0000 0400 0000
00000210: 0400 0000 0000 0000 0000 0000 0400 0000
00000220: 0400 0000 0400 0000 0000 0000 0000 0000
00000230: 0400 0000 0400 0000 0400 0000 0400 0000
00000240: 0400 0000 0400 0000 0400 0000 0400 0000
00000250: 0000 0000 0000 0000 0000 0000 0000 0000
00000260: 0000 0000 0400 0000 0000 0000 0400 0000
00000270: 0000 0000 0400 0000 0000 0000 0000 0000
00000280: 0000 0000 0400 0000 0400 0000 0000 0000
00000290: 0000 0000 0400 0000 0000 0000 0000 0000
000002a0: 0000 0000 0400 0000 0000 0000 0400 0000
000002b0: 0400 0000 0000 0000 0400 0000 0000 0000
000002c0: 0000 0000 0400 0000 0000 0000 0400 0000
000002d0: 0000 0000 0400 0000 0000 0000 0000 0000
000002e0: 0400 0000 0400 0000 0400 0000 0400 0000
000002f0: 0000 0000 0000 0000 0400 0000 0000 0000
00000300: a286 6739 cb83 2338 fda6 6639 9c14 203a
00000310: 10bf 8739 0000 0000 0000 0000 15b7 7e39
00000320: be6b 093a 1cdf 5a39 0000 0000 0000 0000
00000330: c4b3 e838 b35b 6039 5ea7 1939 a405 d539
00000340: 07a6 0f3a e802 9439 3333 9b39 1be5 1238
00000350: 0000 0000 0000 0000 0000 0000 0000 0000
00000360: 0000 0000 a46b 223a 0000 0000 6073 b839
00000370: 0000 0000 ae8b 0139 0000 0000 0000 0000
00000380: 0000 0000 54ef 1a3a 1448 f939 0000 0000
00000390: 0000 0000 7686 e439 0000 0000 0000 0000
000003a0: 0000 0000 045f 6838 0000 0000 5deb e839
000003b0: 2810 f038 0000 0000 994a dd39 0000 0000
000003c0: 0000 0000 c047 153a 0000 0000 5b7f c139
000003d0: 0000 0000 b028 1d3a 0000 0000 0000 0000
000003e0: ece4 043a c7b2 7f39 dbb0 6a39 d987 ba38
000003f0: 0000 0000 0000 0000 e8a1 ab39 0000 0000
6e-45 -6e-45 6e-45 6e-45 6e-45 0.0 0.0 6e-45
6e-45 6e-45 0.0 0.0 6e-45 6e-45 6e-45 6e-45
6e-45 6e-45 6e-45 6e-45 0.0 0.0 0.0 0.0
0.0 6e-45 0.0 6e-45 0.0 6e-45 0.0 0.0
0.0 6e-45 6e-45 0.0 0.0 6e-45 0.0 0.0
0.0 6e-45 0.0 6e-45 6e-45 0.0 6e-45 0.0
0.0 6e-45 0.0 6e-45 0.0 6e-45 0.0 0.0
6e-45 6e-45 6e-45 6e-45 0.0 0.0 6e-45 0.0
0.00014127084 2.974622e-05 0.00014130554 0.00039901296 0.00017205473 0.0 0.0 0.00015588311
0.00034199678 0.00013983944 0.0 0.0 6.814662e-05 0.00014104888 9.277693e-05 0.00026653442
0.00035474368 0.00017891072 0.00018896222 2.0240914e-05 0.0 0.0 0.0 0.0
0.0 0.00040710953 0.0 0.00022473777 0.0 7.652181e-05 0.0 0.0
0.0 0.0003868893 0.0003058347 0.0 0.0 0.00028156844 0.0 0.0
0.0 3.6806443e-05 0.0 0.00029293238 7.378495e-05 0.0 0.0002778653 0.0
0.0 0.00037441798 0.0 0.00024066065 0.0 0.00038711054 0.0 0.0
0.00032790613 0.00015985202 0.00014695695 5.497639e-05 0.0 0.0 0.00021061972 0.0
6e-45 6e-45 6e-45 6e-45 6e-45 0.0 0.0 6e-45
6e-45 6e-45 0.0 0.0 6e-45 6e-45 6e-45 6e-45
6e-45 6e-45 6e-45 6e-45 0.0 0.0 0.0 0.0
0.0 6e-45 0.0 6e-45 0.0 6e-45 0.0 0.0
0.0 6e-45 6e-45 0.0 0.0 6e-45 0.0 0.0
0.0 6e-45 0.0 6e-45 6e-45 0.0 6e-45 0.0
0.0 6e-45 0.0 6e-45 0.0 6e-45 0.0 0.0
6e-45 6e-45 6e-45 6e-45 0.0 0.0 6e-45 0.0
0.00022080031 3.898497e-05 0.00021996717 0.00061065867 0.0002589156 0.0 0.0 0.00024291531
0.000524219 0.00020873215 0.0 0.0 0.00011096106 0.00021396465 0.00014653566 0.00040630728
0.0005479757 0.00028230925 0.0002960205 3.5022484e-05 0.0 0.0 0.0 0.0
0.0 0.0006195849 0.0 0.00035181176 0.0 0.00012354433 0.0 0.0
0.0 0.00059102965 0.00047546683 0.0 0.0 0.0004358773 0.0 0.0
0.0 5.54016e-05 0.0 0.00044425848 0.00011447101 0.0 0.00042207984 0.0
0.0 0.00056945905 0.0 0.00036906716 0.0 0.00059951376 0.0 0.0
0.00050695124 0.00024385295 0.00022381863 8.894475e-05 0.0 0.0 0.0003273629 0.0

exp_avg_sq f4 [64, 64]
00000000: 9502 cf35 fa22 9731 af87 0436 9a46 1537
00000010: c391 b635 0000 0000 0000 0000 e21f 1636
00000020: a676 0d37 44a1 6835 0000 0000 0000 0000
00000030: 2e76 2d35 aa74 ab35 d767 8135 fa83 8c36
00000040: 5ad0 1537 f102 4236 03ea 4636 682b f632
00000050: 0000 0000 0000 0000 0000 0000 0000 0000
00000060: 0000 0000 4dd0 1937 0000 0000 7fbc 8536
00000070: 0000 0000 1eb7 6435 0000 0000 0000 0000
00000080: 0000 0000 366d 0b37 da84 e036 0000 0000
00000090: 0000 0000 0b0f b636 0000 0000 0000 0000
000000a0: 0000 0000 e2a1 1e34 0000 0000 a4f8 a536
000000b0: f663 3535 0000 0000 aea1 8e36 0000 0000
000000c0: 0000 0000 1277 0b37 0000 0000 12c9 9236
000000d0: 0000 0000 a5ed 2737 0000 0000 0000 0000
000000e0: b871 0637 97b9 0d36 88bd bf35 6308 f234
000000f0: 0000 0000 0000 0000 c318 8136 0000 0000
00000100: 6e2e 8c3a 11e5 da35 9d00 8e3a 12af d73b
00000110: 3ce2 843a 0000 0000 0000 0000 abac ac3a
00000120: 0a70 a93b fae8 203a 0000 0000 0000 0000
00000130: 6724 c439 6190 503a 3dfd 0e3a 1c54 3b3b
00000140: 5d66 c53b d9cd f73a 7e20 003b b607 3638
00000150: 0000 0000 0000 0000 0000 0000 0000 0000
00000160: 0000 0000 cb50 d53b 0000 0000 042b 343b
00000170: 0000 0000 9b7c e739 0000 0000 0000 0000
00000180: 0000 0000 174d c83b 5337 9a3b 0000 0000
00000190: 0000 0000 9bb2 783b 0000 0000 0000 0000
000001a0: 0000 0000 923e 7738 0000 0000 a328 573b
000001b0: 897c 9d39 0000 0000 6a6d 453b 0000 0000
000001c0: 0000 0000 66f8 b83b 0000 0000 4ecf 2e3b
000001d0: 0000 0000 46ff ea3b 0000 0000 0000 0000
000001e0: bbd7 aa3b a8ea 933a 76ea 733a 777a 7739
000001f0: 0000 0000 0000 0000 28e8 153b 0000 0000
00000200: 1c30 f037 f6df b632 3269 0b38 ef21 3239
00000210: c9f7 d137 0000 0000 0000 0000 01fa 2938
00000220: 07d0 2139 252d 8537 0000 0000 0000 0000
00000230: f75a 3b37 4375 be37 767e 8f37 1b63 a438
00000240: aea9 2f39 4237 6338 5f2b 6238 763d 7335
00000250: 0000 0000 0000 0000 0000 0000 0000 0000
00000260: 0000 0000 d46b 3439 0000 0000 10ea 9c38
00000270: 0000 0000 2403 7037 0000 0000 0000 0000
00000280: 0000 0000 66df 2639 d696 0539 0000 0000
00000290: 0000 0000 b344 d738 0000 0000 0000 0000
000002a0: 0000 0000 c2b9 1d36 0000 0000 3b81 bc38
000002b0: 15ad 2c37 0000 0000 6f15 a838 0000 0000
000002c0: 0000 0000 98cd 2339 0000 0000 82c1 a838
000002d0: 0000 0000 18ae 4739 0000 0000 0000 0000
000002e0: 43ba 1c39 8ab4 1e38 0583 df37 79fd 0537
000002f0: 0000 0000 0000 0000 0027 8f38 0000 0000
00000300: 574d 163b 2eed 6536 aa89 173b d38f 673c
00000310: 0aa6 0e3b 0000 0000 0000 0000 0e4d 383b
00000320: 3e0d 353c 1a70 ac3a 0000 0000 0000 0000
00000330: 4bf5 513a c4a9 de3a 225e 983a a6af c83b
00000340: 134d 533c bfa9 843b a652 893b b205 c738
00000350: 0000 0000 0000 0000 0000 0000 0000 0000
00000360: 0000 0000 c8b9 643c 0000 0000 0926 c13b
00000370: 0000 0000 760d 773a 0000 0000 0000 0000
00000380: 0000 0000 5aef 563c ff52 253c 0000 0000
00000390: 0000 0000 d449 053c 0000 0000 0000 0000
000003a0: 0000 0000 7450 0239 0000 0000 6e75 e63b
000003b0: 644a 273a 0000 0000 0e7b d33b 0000 0000
000003c0: 0000 0000 e5d4 453c 0000 0000 1d6e ba3b
000003d0: 0000 0000 d61b 7c3c 0000 0000 0000 0000
000003e0: e7b2 363c 7b2d 1d3b 7c0c 023b 27f1 033a
000003f0: 0000 0000 0000 0000 4b3d a03b 0000 0000
1.5423453e-06 4.3986548e-09 1.974851e-06 8.89753e-06 1.3602479e-06 0.0 0.0 2.23703e-06
8.43188e-06 8.666141e-07 0.0 0.0 6.4619496e-07 1.2774447e-06 9.64147e-07 4.1876892e-06
8.929603e-06 2.8909965e-06 2.9640512e-06 2.8657908e-08 0.0 0.0 0.0 0.0
0.0 9.1680095e-06 0.0 3.9856527e-06 0.0 8.520309e-07 0.0 0.0
0.0 8.310473e-06 6.691186e-06 0.0 0.0 5.425774e-06 0.0 0.0
0.0 1.477379e-07 0.0 4.9463288e-06 6.7573217e-07 0.0 4.2507518e-06 0.0
0.0 8.312769e-06 0.0 4.3745467e-06 0.0 1.0009307e-05 0.0 0.0
8.0135e-06 2.1118665e-06 1.428577e-06 4.5082115e-07 0.0 0.0 3.8473822e-06 0.0
0.001069499 1.6308933e-06 0.0010833923 0.0065821493 0.0010138224 0.0 0.0 0.0013174018
0.005170827 0.0006138232 0.0 0.0 0.00037411155 0.00079560844 0.00054546056 0.0028584069
0.0060241655 0.0018905952 0.0019550617 4.3399363e-05 0.0 0.0 0.0 0.0
0.0 0.0065098754 0.0 0.002749146 0.0 0.00044152592 0.0 0.0
0.0 0.0061127055 0.004706302 0.0 0.0 0.0037948254 0.0 0.0
0.0 5.8947662e-05 0.0 0.0032830618 0.0003003816 0.0 0.003012503 0.0
0.0 0.005644846 0.0 0.0026673856 0.0 0.0071715442 0.0 0.0
0.0052137054 0.0011285143 0.0009304652 0.00023601377 0.0 0.0 0.0022873972 0.0
2.8632632e-05 2.1289434e-08 3.3238153e-05 0.00016988044 2.5030125e-05 0.0 0.0 4.0525574e-05
0.00015431653 1.5875858e-05 0.0 0.0 1.1167248e-05 2.270437e-05 1.7105816e-05 7.838589e-05
0.00016752511 5.417248e-05 5.392299e-05 9.061399e-07 0.0 0.0 0.0 0.0
0.0 0.00017206307 0.0 7.482257e-05 0.0 1.4305846e-05 0.0 0.0
0.0 0.00015914216 0.00012740059 0.0 0.0 0.00010264795 0.0 0.0
0.0 2.3502948e-06 0.0 8.9886096e-05 1.0292298e-05 0.0 8.0148566e-05 0.0
0.0 0.00015621481 0.0 8.046908e-05 0.0 0.00019042974 0.0 0.0
0.00014946707 3.7838276e-05 2.6644682e-05 7.986434e-06 0.0 0.0 6.826036e-05 0.0
0.0022934282 3.4261716e-06 0.0023122826 0.014133411 0.0021766447 0.0 0.0 0.00281221
0.01105052 0.0013155967 0.0 0.0 0.0008009269 0.001698785 0.0011624733 0.0061244546
0.012896794 0.0040485556 0.0041907607 9.49012e-05 0.0 0.0 0.0 0.0
0.0 0.013960309 0.0 0.0058944267 0.0 0.0009424308 0.0 0.0
0.0 0.013118589 0.010090589 0.0 0.0 0.008135278 0.0 0.0
0.0 0.00012427737 0.0 0.0070330417 0.00063816295 0.0 0.0064538782 0.0
0.0 0.012074684 0.0 0.005689396 0.0 0.015387496 0.0 0.0
0.011151052 0.0023983407 0.0019843867 0.0005033188 0.0 0.0 0.004890119 0.0

exp_avg f4 [64]
00000000: 0400 0080 1355 b737 0400 0000 2d33 f637
00000010: 0000 0000 0000 0000 bca5 d437 0000 0000
00000020: 4023 afb7 0000 0000 0400 0000 0000 0000
00000030: 0400 0080 eb52 9138 ac86 2b36 0400 0000
00000040: 1333 cd37 0000 0000 0400 0000 0000 0000
00000050: b68d 4137 0400 0000 0400 0000 0000 0000
00000060: 0400 0000 0400 0000 70f7 c7b7 a81e 7e37
00000070: 0000 0000 0000 0000 0400 0000 0000 0000
00000080: 0000 0000 72b8 d136 0000 0000 0400 0000
00000090: bffa 0b36 a84c 3537 0400 0000 0400 0000
000000a0: 0000 0000 b798 2b37 0400 0000 0000 0000
000000b0: 0000 0000 0000 0000 0000 0000 0000 0000
000000c0: 7b09 ff34 0000 0000 a732 5e36 0400 0000
000000d0: 0400 0000 0000 0000 c096 5d36 0400 0000
000000e0: 3193 3c36 0000 0000 0400 0000 0400 0000
000000f0: 0400 0000 0400 0000 0000 0000 0000 0000
-6e-45 2.1854916e-05 6e-45 2.9349316e-05 0.0 0.0 2.5349545e-05 0.0
-2.087804e-05 0.0 6e-45 0.0 -6e-45 6.9295835e-05 2.5559375e-06 6e-45
2.4461688e-05 0.0 6e-45 0.0 1.1536691e-05 6e-45 6e-45 0.0
6e-45 6e-45 -2.383787e-05 1.51467175e-05 0.0 0.0 6e-45 0.0
0.0 6.2501576e-06 0.0 6e-45 2.0858567e-06 1.0806289e-05 6e-45 6e-45
0.0 1.0227951e-05 6e-45 0.0 0.0 0.0 0.0 0.0
4.750435e-07 0.0 3.3110061e-06 6e-45 6e-45 0.0 3.3019314e-06 6e-45
2.809986e-06 0.0 6e-45 6e-45 6e-45 6e-45 0.0 0.0

exp_avg_sq f4 [64]
00000000: 1112 f031 725e d935 4fef 1233 2acd 6736
00000010: 0000 0000 0000 0000 389a 9e36 0000 0000
00000020: 18ab 2f35 0000 0000 2953 422f 0000 0000
00000030: d0b0 0c31 e0fc 9037 bc4f 8d34 e29a 0e33
00000040: fab4 6b36 0000 0000 42d4 8f29 0000 0000
00000050: b6bc 2d35 8c00 1c2e b27e 162c 0000 0000
00000060: da74 3831 108a 4333 4a6d 5e35 cf09 bb35
00000070: 0000 0000 0000 0000 32fa 0733 0000 0000
00000080: 0000 0000 ae1e e437 0000 0000 e91f 562e
00000090: 97ce 2436 a46d b135 19d4 ca30 2761 a534
000000a0: 0000 0000 5e35 8636 2e97 be30 0000 0000
000000b0: 0000 0000 0000 0000 0000 0000 0000 0000
000000c0: db77 1635 0000 0000 4af4 fa35 e152 222c
000000d0: 20f4 5b33 0000 0000 c34f 0736 08e3 272e
000000e0: 61d3 f334 0000 0000 8322 4230 2801 e630
000000f0: 8d39 ab32 9064 2a32 0000 0000 0000 0000
6.9869732e-09 1.6195247e-06 3.4210924e-08 3.4541104e-06 0.0 0.0 4.7267204e-06 0.0
6.5441554e-07 0.0 1.7673742e-10 0.0 2.0473188e-09 1.7283892e-05 2.632131e-07 3.3202816e-08
3.512307e-06 0.0 6.3872966e-14 0.0 6.472213e-07 3.547078e-11 2.1386612e-12 0.0
2.6841946e-09 4.5527543e-08 8.286048e-07 1.393544e-06 0.0 0.0 3.1659688e-08 0.0
0.0 2.7194004e-05 0.0 4.868631e-11 2.4558155e-06 1.3219437e-06 1.4757716e-09 3.0804333e-07
0.0 3.999724e-06 1.3867287e-09 0.0 0.0 0.0 0.0 0.0
5.6053767e-07 0.0 1.8697549e-06 2.3067592e-12 5.121194e-08 0.0 2.0162995e-06 3.8173048e-11
4.5416076e-07 0.0 7.0625833e-10 1.6735031e-09 1.9933191e-08 9.918168e-09 0.0 0.0

exp_avg f4 [190, 64]
00000000: 0400 0000 221c cf35 0400 0000 5731 bf35
00000010: 0000 0000 0000 0000 78b1 a135 0000 0000
00000020: 8bc8 34b5 0000 0000 0400 0080 0000 0000
00000030: 0400 0000 5fd6 fa35 1234 ff33 0400 0000
00000040: 7f72 b835 0000 0000 0400 0080 0000 0000
00000050: fd7c 9935 0400 0080 0400 0080 0000 0000
00000060: 0400 0080 0400 0080 17b5 ddb4 4ad1 6035
00000070: 0000 0000 0000 0000 0400 0080 0000 0000
00000080: 0000 0000 60f5 4935 0000 0000 0400 0080
00000090: 5f70 e533 3a95 d934 0400 0080 0400 0080
000000a0: 0000 0000 44a0 b734 0400 0080 0000 0000
000000b0: 0000 0000 0000 0000 0000 0000 0000 0000
000000c0: 2002 3634 0000 0000 fdf6 d833 0400 0080
000000d0: 0400 0080 0000 0000 af07 1434 0400 0000
000000e0: 8c4a d033 0000 0000 0400 0080 0400 0080
000000f0: 0400 0000 0400 0080 0000 0000 0000 0000
00000100: 0400 0080 71fe 9e36 0400 0080 1523 1537
00000110: 0000 0000 0000 0000 2a6c 3a37 0000 0000
00000120: be01 7fb7 0000 0000 0400 0080 0000 0000
00000130: 0400 0080 8cc2 1237 0ea8 8435 0400 0000
00000140: c639 1437 0000 0000 0400 0000 0000 0000
00000150: e18f fe35 0400 0080 0400 0080 0000 0000
00000160: 0400 0080 0400 0000 a97f 50b7 7bad 4337
00000170: 0000 0000 0000 0000 0400 0080 0000 0000
00000180: 0000 0000 0805 d236 0000 0000 0400 0080
00000190: 5290 6e35 2dc0 8637 0400 0080 0400 0080
000001a0: 0000 0000 38eb 3e36 0400 0080 0000 0000
000001b0: 0000 0000 0000 0000 0000 0000 0000 0000
000001c0: 6846 bd35 0000 0000 808f 6135 0400 0080
000001d0: 0400 0080 0000 0000 d5e7 9935 0400 0000
000001e0: db8d 5835 0000 0000 0400 0080 0400 0000
000001f0: 0400 0000 0400 0080 0000 0000 0000 0000
00000200: 0400 0080 126c 58b3 0400 0000 5cc3 d233
00000210: 0000 0000 0000 0000 e3e9 5334 0000 0000
00000220: 4d46 c2b4 0000 0000 0400 0000 0000 0000
00000230: 0400 0080 fa56 1933 d825 7433 0400 0080
00000240: e258 db33 0000 0000 0400 0080 0000 0000
00000250: d432 bdb3 0400 0080 0400 0080 0000 0000
00000260: 0400 0000 0400 0080 408d a5b4 c178 8c34
00000270: 0000 0000 0000 0000 0400 0000 0000 0000
00000280: 0000 0000 984b c134 0000 0000 0400 0080
00000290: bb8c 5b33 c519 f734 0400 0080 0400 0000
000002a0: 0000 0000 91b2 2f34 0400 0000 0000 0000
000002b0: 0000 0000 0000 0000 0000 0000 0000 0000
000002c0: 2134 ae33 0000 0000 1b91 4f33 0400 0080
000002d0: 0400 0080 0000 0000 29a2 8d33 0400 0000
000002e0: cf48 4733 0000 0000 0400 0000 0400 0000
000002f0: 0400 0080 0400 0000 0000 0000 0000 0000
00000300: 0400 0080 802c 2eb5 0400 0000 f228 c9b5
00000310: 0000 0000 0000 0000 eafa 04b6 0000 0000
00000320: 930c 0b36 0000 0000 0400 0000 0000 0000
00000330: 0400 0080 2acb bab5 48d4 45b4 0400 0000
00000340: 1fef c8b5 0000 0000 0400 0000 0000 0000
00000350: 5c9e 2db4 0400 0000 0400 0000 0000 0000
00000360: 0400 0080 0400 0080 82b3 e835 4c54 10b6
00000370: 0000 0000 0000 0000 0400 0000 0000 0000
00000380: 0000 0000 299a 9cb5 0000 0000 0400 0000
00000390: bee2 31b4 e1d5 50b6 0400 0000 0400 0080
000003a0: 0000 0000 b95b 0eb5 0400 0000 0000 0000
000003b0: 0000 0000 0000 0000 0000 0000 0000 0000
000003c0: 4122 8db4 0000 0000 5230 28b4 0400 0000
000003d0: 0400 0080 0000 0000 e084 65b4 0400 0000
000003e0: 0c79 21b4 0000 0000 0400 0000 0400 0080
000003f0: 0400 0000 0400 0080 0000 0000 0000 0000
6e-45 1.543089e-06 6e-45 1.4244969e-06 0.0 0.0 1.2047085e-06 0.0
-6.7347054e-07 0.0 -6e-45 0.0 6e-45 1.8688842e-06 1.18838344e-07 6e-45
1.3742391e-06 0.0 -6e-45 0.0 1.1435765e-06 -6e-45 -6e-45 0.0
-6e-45 -6e-45 -4.1296218e-07 8.375106e-07 0.0 0.0 -6e-45 0.0
0.0 7.52354e-07 0.0 -6e-45 1.0684084e-07 4.0527976e-07 -6e-45 -6e-45
0.0 3.4203015e-07 -6e-45 0.0 0.0 0.0 0.0 0.0
1.6950844e-07 0.0 1.0103211e-07 -6e-45 -6e-45 0.0 1.378637e-07 6e-45
9.699315e-08 0.0 -6e-45 -6e-45 6e-45 -6e-45 0.0 0.0
-6e-45 4.738388e-06 -6e-45 8.88926e-06 0.0 0.0 1.1111648e-05 0.0
-1.519959e-05 0.0 -6e-45 0.0 -6e-45 8.747575e-06 9.883677e-07 6e-45
8.834939e-06 0.0 6e-45 0.0 1.8966349e-06 -6e-45 -6e-45 0.0
-6e-45 6e-45 -1.2427489e-05 1.1663297e-05 0.0 0.0 -6e-45 0.0
0.0 6.2590734e-06 0.0 -6e-45 8.887192e-07 1.6063534e-05 -6e-45 -6e-45
0.0 2.8449122e-06 -6e-45 0.0 0.0 0.0 0.0 0.0
1.4102088e-06 0.0 8.402785e-07 -6e-45 -6e-45 0.0 1.146686e-06 6e-45
8.06727e-07 0.0 -6e-45 6e-45 6e-45 -6e-45 0.0 0.0
-6e-45 -5.038971e-08 6e-45 9.814423e-08 0.0 0.0 1.9735994e-07 0.0
-3.6186466e-07 0.0 6e-45 0.0 -6e-45 3.5702193e-08 5.6845096e-08 -6e-45
1.021415e-07 0.0 -6e-45 0.0 -8.810244e-08 -6e-45 -6e-45 0.0
6e-45 -6e-45 -3.0836418e-07 2.6164892e-07 0.0 0.0 6e-45 0.0
0.0 3.6004053e-07 0.0 -6e-45 5.1117905e-08 4.6026085e-07 -6e-45 6e-45
0.0 1.6363107e-07 6e-45 0.0 0.0 0.0 0.0 0.0
8.1119886e-08 0.0 4.8327916e-08 -6e-45 -6e-45 0.0 6.595321e-08 6e-45
4.6399517e-08 0.0 6e-45 6e-45 -6e-45 6e-45 0.0 0.0
-6e-45 -6.488481e-07 6e-45 -1.4987584e-06 0.0 0.0 -1.9815584e-06 0.0
2.0719933e-06 0.0 6e-45 0.0 -6e-45 -1.3917208e-06 -1.8424282e-07 6e-45
-1.4970755e-06 0.0 6e-45 0.0 -1.6169491e-07 6e-45 6e-45 0.0
-6e-45 -6e-45 1.7337591e-06 -2.150674e-06 0.0 0.0 6e-45 0.0
0.0 -1.1667772e-06 0.0 6e-45 -1.6566898e-07 -3.111891e-06 6e-45 -6e-45
0.0 -5.3032596e-07 6e-45 0.0 0.0 0.0 0.0 0.0
-2.628822e-07 0.0 -1.5663798e-07 6e-45 -6e-45 0.0 -2.1375627e-07 6e-45
-1.503833e-07 0.0 6e-45 -6e-45 6e-45 -6e-45 0.0 0.0
